data/output/Simple_Cnn_Full_NoRot_LR001_b200_nodrop.pt (torch_old, 89379 bytes, 20 tensors)

conv0.weight f4 [3, 3, 5, 5]
-0.06327185 -0.030749815 0.0036904602 0.10434814 -0.00200695 0.08445384 0.073840044 -0.07557109
0.041219197 -0.10573266 -0.1165016 0.006204744 0.020588435 0.08282793 -0.061208904 -0.056765996
0.037422527 -0.12044368 0.06999743 -0.104106806 -0.03984415 -0.020659544 -0.062417436 -0.013498656
0.09351694 -0.049631998 -0.066103496 -0.048570238 -0.114195175 0.04474836 -0.08492211 -0.07401516
-0.07306017 0.07045385 0.054740746 0.057835713 0.042948112 -0.065361835 -0.038935777 0.026478875
0.06759524 0.036313333 -0.059001014 -0.065663494 -0.10828167 -0.010738772 -0.058957785 -0.112603076
0.09101178 -0.09988936 -0.017021352 0.03526449 0.013497626 -0.08330376 -0.10876141 0.08702975
0.02718338 0.11496985 -0.046921946 0.03265698 -0.05313102 -0.010191229 -0.07937423 0.0434938
0.045953713 -0.02852627 -0.033331573 -0.067481525 0.07634936 -0.07363112 0.033301298 -0.02807032
-0.04620796 0.005744691 -0.061421722 -0.4112725 -0.16745201 -0.31007832 -0.12126106 -0.30113038
0.5023566 0.26121575 0.47079325 0.26480833 0.35928184 -0.57200503 -0.385578 -0.48302186
-0.27033892 -0.38464436 0.5611422 0.49513584 0.6192858 0.40054315 0.34698403 -0.18106787
-0.16368137 -0.19448379 -0.17121808 -0.19290131 -0.030822007 0.027696753 -0.17418928 -0.018184219
-0.0046574227 0.21050946 -0.23584896 0.118130356 -0.0127959745 0.16604078 0.054594323 0.01247788
-0.169059 -0.07459408 -0.01703723 0.2558958 -0.14644027 0.18622334 -0.07361679 0.26293018
0.06854788 -0.10328921 -0.04464074 -0.12882021 0.010341505 0.43401644 0.13865341 0.50192416
0.1571035 0.31796214 -0.72043735 -0.024297802 -0.5625322 -0.21760641 -0.5039498 0.5097782
0.3828787 0.6976401 0.3895933 0.42599794 -0.82595414 -0.3443279 -0.779356 -0.29550967
-0.59255564 0.11209369 0.27925652 0.26840565 0.32489446 0.19215086 0.064753994 -0.08457059
0.20884831 -0.19154239 -0.0037418746 0.051655065 -0.10247361 0.16612749 -0.11082019 0.009706182
-0.08579234 -0.035101794 0.12537517 -0.117459 -0.11030334 -0.1615986 -0.23535194 0.12872687
-0.05438778 -0.045951 -0.12321864 -0.058537878 0.08942623 -0.12762398 -0.10090085 -0.06276318
0.21013631 -0.27202147 0.31598064 -0.14045802 -0.22191283 0.21361929 -0.38148335 0.16750534
-0.11462743 -0.117813826 0.21967132 -0.24587326 0.25425014 -0.2133759 -0.09765753 0.34134895
-0.31098852 0.113346465 -0.1325383 -0.091639824 0.19220203 -0.4017046 0.16663589 -0.31472972
0.024525844 -0.2354121 0.04628919 -0.167599 0.11177136 -0.014127852 -0.3398933 -0.051602837
-0.21615887 -0.12510101 0.2277002 -0.20154439 0.06230188 -0.19098301 0.120887496 0.1556218
-0.3145068 0.1304775 -0.30566385 0.09506306 0.10121555 -0.36220884 0.12754995 -0.09158388
0.1320364
00000000: ac94 81bd 09e7 fbbc a6db 713b 7ab4 d53d
00000010: 0987 03bb 23f6 ac3d 7339 973d 04c5 9abd
00000020: 76d5 283d 5d8a d8bd 6498 eebd 2a51 cb3b
00000030: 14a9 a83c b1a1 a93d 30b6 7abd 7683 68bd
00000040: 5d48 193d 2dab f6bd d05a 8f3d f335 d5bd
00000050: 9f33 23bd 343e a9bc 6da9 7fbd 7829 5dbc
00000060: cf85 bf3d ec4a 4bbd 4561 87bd 96f1 46bd
00000070: 29df e9bd 0e4a 373d a5eb adbd 4395 97bd
00000080: 92a0 95bd 1c4a 903d d537 603d 24e5 6c3d
00000090: 5cea 2f3d 6ddc 85bd 1f7b 1fbd 3aea d83c
000000a0: 606f 8a3d 4abd 143d 0cab 71bd 957a 86bd
000000b0: c8c2 ddbd adf1 2fbc b87d 71bd 719c e6bd
000000c0: 6264 ba3d cb92 ccbd 5d70 8bbc 7f71 103d
000000d0: 2625 5d3c 299b aabd 4dbe debd a73c b23d
000000e0: aeaf de3c 5075 eb3d 3a31 40bd 53c3 053d
000000f0: ea9f 59bd 1df9 26bc f58e a2bd 8e26 323d
00000100: f639 3c3d edaf e9bc b086 08bd c133 8abd
00000110: 0e5d 9c3d eacb 96bd f166 083d baf3 e5bc
00000120: 8f44 3dbd f63d bc3b 5895 7bbd 4f92 d2be
00000130: 8a78 2bbe 96c2 9ebe b857 f8bd c32d 9abe
00000140: 719a 003f 12be 853e d00b f13e f594 873e
00000150: caf3 b73e ec6e 12bf 7b6a c5be a44e f7be
00000160: dd69 8abe 1bf0 c4be 04a7 0f3f 7282 fd3e
00000170: 8489 1e3f fe13 cd3e e4a7 b13e db69 39be
00000180: 179c 27be c226 47be cb53 2fbe ec87 45be
00000190: 6f7e fcbc 4de4 e23c ad5e 32be 12f7 94bc
000001a0: 4b9d 98bb cb8f 573e 6482 71be 54ee f13d
000001b0: 35a6 51bc 9806 2a3e 4c9e 5f3d 0670 4c3c
000001c0: cd1d 2dbe c8c4 98bd a991 8bbc c604 833e
000001d0: 70f4 15be 55b1 3e3e 66c4 96bd c99e 863e
000001e0: d562 8c3d 4b89 d3bd 35d9 36bd 72e9 03be
000001f0: 6a6f 293c 6737 de3e 29fb 0d3e 1a7e 003f
00000200: bddf 203e efcb a23e 956e 38bf 2f0c c7bc
00000210: 1c02 10bf 37d4 5ebe db02 01bf d380 023f
00000220: ad08 c43e 8b98 323f c678 c73e 671c da3e
00000230: bb71 53bf bf4b b0be e083 47bf 0b4d 97be
00000240: bab1 17bf 6091 e53d b6fa 8e3e 776c 893e
00000250: 9158 a63e 32c3 443e be9d 843d 5833 adbd
00000260: 55dc 553e b023 44be 3d3a 75bb 4394 533d
00000270: afdd d1bd 531d 2a3e b2f5 e2bd ae06 1f3c
00000280: e5b3 afbd e6c6 0fbd 5962 003e 588e f0bd
00000290: b8e6 e1bd 1a7a 25be 1900 71be fad0 033e
000002a0: b9c5 5ebd 1e37 3cbd 0e5a fcbd 6ac5 6fbd
000002b0: 1925 b73d dcaf 02be 1ba5 cebd fb89 80bd
000002c0: f92d 573e 6646 8bbe 37c8 a13e 3ad4 0fbe
000002d0: 1e3d 63be 04bf 5a3e c951 c3be 8586 2b3e
000002e0: c9c1 eabd 6048 f1bd 85f1 603e 33c6 7bbe
000002f0: 132d 823e 367f 5abe ac00 c8bd 4ac5 ae3e
00000300: e339 9fbe 3122 e83d 1fb8 07be a9ad bbbd
00000310: 9cd0 443e 3aac cdbe 99a2 2a3e 4124 a1be
00000320: 6cea c83c df0f 71be bc99 3d3d 129f 2bbe
00000330: 62e8 e43d 8278 67bc 7f06 aebe 7f5d 53bd
00000340: c058 5dbe 7b1a 00be 3e2a 693e a761 4ebe
00000350: 4230 7f3d 0d91 43be dd93 f73d 525b 1f3e
00000360: 0907 a1be e59b 053e f97f 9cbe 6cb0 c23d
00000370: 194a cf3d 7073 b9be 749c 023e 5490 bbbd
00000380: 8d34 073e

conv0.bias f4 [3]
-0.035341125 0.033841696 -0.020698199
00000000: dbc1 10bd 979d 0a3d 458f a9bc

conv1.weight f4 [30, 3, 5, 5]
-0.00022512942 -0.0001373806 -0.000280773 0.00024517367 -0.00011145602 -0.00016041641 -0.00012197226 -0.0001781196
0.00046734215 4.8335532e-05 -0.00011502925 -6.5880246e-05 -0.6311827 0.6318282 -7.235868e-05 -0.00021132933
-0.00024126451 -9.001214e-05 0.0006309515 -0.00011537271 -0.00035758747 -0.00013997623 -2.8379996e-05 0.0006242127
-0.00014495754 0.041274015 0.025704907 0.014265969 0.02505328 0.03347349 0.060318325 0.058820926
0.67911506 0.055821005 0.05598475 0.024496725 0.031105148 -0.60111934 0.029964808 0.018435461
-0.086041495 -0.07056817 -0.07042343 -0.07371118 -0.091705255 -0.079753056 -0.067091994 -0.06580465
-0.06963913 -0.088929616 -0.005214457 -0.006385044 -0.0034698066 -0.00595456 -0.004752815 -0.0061325603
-0.006425467 -0.0040601743 -0.006643452 -0.0053383145 -0.0059187827 0.62442976 -0.63528407 -0.0061035748
-0.0046302397 -0.0071049915 -0.008446864 -0.005816016 -0.0069940626 -0.0056090555 -0.0065794257 -0.009031122
-0.0064341156 -0.0077587487 -0.0065400596 -0.00012099204 5.6151508e-05 -2.0968595e-05 0.0001748796 -7.13438e-05
-0.00028651307 -0.00023277743 -0.00026628407 -6.64629e-05 -0.00021287588 -0.00015528912 6.3387535e-07 -0.63108003
0.00027555024 -5.4113993e-06 -7.777741e-05 0.00015517331 0.63122255 0.0003196884 0.00014352288 -3.2585263e-05
0.00025883186 8.3421175e-05 0.0002278737 1.9407724e-05 0.06109842 0.05637882 0.038490217 0.027403304
0.022062449 0.056994483 0.058743544 0.042211436 0.6571534 0.017682428 0.027747214 0.033303566
-0.6060732 0.00869821 -0.005868745 -0.064261995 -0.05441838 -0.06240416 -0.07679201 -0.099379286
-0.053868823 -0.045794666 -0.051840078 -0.062302843 -0.0807839 0.0012403384 -0.0021431816 0.0007131492
-0.0034468693 -0.0009544834 0.0004165695 0.62830144 -0.0012898801 -0.0050422703 -0.0024979147 -0.0007365272
-0.005283115 -0.63495606 -0.006624581 -0.0040016556 -0.0022961947 -0.00712749 -0.0053124237 -0.007634989
-0.0041514523 -0.0002426864 -0.0050620316 -0.002509146 -0.005996516 -0.0021980763 -0.0031016804 -0.0034684555
-0.002168261 -0.002676278 -0.0023939128 -0.002574531 -0.0026718748 -0.0017342975 -0.0022665411 -0.0019453369
-0.00237591 -0.0027261584 -0.6331194 -0.0025491796 -0.0020639854 -0.002745462 0.62730783 -0.002617548
-0.0027622369 -0.0024091748 -0.0028489027 -0.0037708338 -0.0026311402 -0.0029374438 -0.0024855915 -0.03907773
-0.01883936 0.032114204 0.08239569 0.1217607 -0.044787455 -0.033107 0.018256595 0.075633705
0.123042986 -0.06642119 -0.05077825 -0.6220225 0.07214284 0.121434845 -0.11738199 -0.11047487
-0.048921034 0.6456786 0.05945872 -0.12313822 -0.11017019 -0.05658592 0.00063744345 0.039080016
-0.014901121 0.0009290029 -0.0169499 0.0007412305 -0.016079484 -0.016967202 -0.0010982662 -0.016183153
-0.0010293269 -0.018753037 -0.01641915 0.63314694 -1.2741354 0.6315387 -0.018708406 -0.01009969
0.008762877 -0.007858141 0.007343553 -0.013238948 -0.01599414 0.0031213074 -0.014719874 0.0033123298
-0.016682373 -0.0012986413 -0.0011038835 -0.0013499596 -0.0012348843 -0.0010502855 -0.001220386 -0.00091819745
0.6299652 -0.0009678511 -0.00079460826 -0.0013371805 -0.0008854181 -1.2630517 -0.0012485675 -0.0010687188
-0.0013098656 -0.0010972465 0.6295844 -0.0014782072 -0.0013095058 -0.0012410198 -0.0010734865 -0.0012985193
-0.0013349261 -0.0011590098 -0.060854357 -0.059981283 -0.054183915 -0.05535062 -0.054061715 -0.04935147
00000000: b810 6cb9 d30d 10b9 b734 93b9 a78a 8039
00000010: 7fbd e9b8 7435 28b9 5ccb ffb8 9ec5 3ab9
00000020: 9a05 f539 e2bb 4a38 dc3b f1b8 3029 8ab8
00000030: 3095 21bf 7ebf 213f 45bf 97b8 4998 5db9
00000040: f3fb 7cb9 e6c4 bcb8 7066 253a 41f4 f1b8
00000050: 947a bbb9 95c6 12b9 9411 eeb7 35a2 233a
00000060: beff 17b9 f10e 293d 1993 d23c d0bb 693c
00000070: 893c cd3c 801b 093d 5910 773d 36ee 703d
00000080: 7cda 2d3f 91a4 643d 4450 653d 5bad c83c
00000090: 39d0 fe3c f5e2 19bf c278 f53c f705 973c
000000a0: 8636 b0bd 0b86 90bd 293a 90bd e3f5 96bd
000000b0: f7cf bbbd 9255 a3bd 8767 89bd 97c4 86bd
000000c0: f69e 8ebd bb20 b6bd 09de aabb a239 d1bb
000000d0: b265 63bb 781e c3bb 80bd 9bbb a5f3 c8bb
000000e0: b98c d2bb 360b 85bb 51b1 d9bb 07ed aebb
000000f0: 59f2 c1bb a1da 1f3f faa1 22bf 7f00 c8bb
00000100: 44b9 97bb fdd0 e8bb b764 0abc 4794 bebb
00000110: 732e e5bb 2bcc b7bb 3998 d7bb 45f7 13bc
00000120: 46d5 d2bb 1a3d febb ff4d d6bb 1bbd fdb8
00000130: 3984 6b38 b7e5 afb7 e35f 3739 699e 95b8
00000140: 2237 96b9 b715 74b9 0b9c 8bb9 ff61 8bb8
00000150: 6f37 5fb9 1bd5 22b9 9527 2a35 768e 21bf
00000160: ba77 9039 9193 b5b6 6e1c a3b8 05b6 2239
00000170: cd97 213f da9b a739 a17e 1639 29ac 08b8
00000180: d3b3 8739 67f2 ae38 61f1 6e39 c5cd a237
00000190: 5642 7a3d 7aed 663d eba7 1d3d e57c e03c
000001a0: 4fbc b43c 0c73 693d 129d 703d e6e5 2c3d
000001b0: 353b 283f bdda 903c 204e e33c 5269 083d
000001c0: 9d27 1bbf f082 0e3c 9a4e c0bb cb9b 83bd
000001d0: cfe5 5ebd 819b 7fbd 2145 9dbd 5e87 cbbd
000001e0: 8ea5 5cbd 3093 3bbd 4356 54bd 4431 7fbd
000001f0: 0872 a5bd da92 a23a 9f74 0cbb a2f2 3a3a
00000200: dfe4 61bb 4c36 7aba 0367 da39 5dd8 203f
00000210: 3211 a9ba a139 a5bb 0eb4 23bb 8113 41ba
00000220: fb1d adbb 7b8c 22bf 0313 d9bb 5220 83bb
00000230: c17b 16bb b88d e9bb d713 aebb ee2e fabb
00000240: e808 88bb a279 7eb9 66df a5bb 7c70 24bb
00000250: 6c7e c4bb 9a0d 10bb 9045 4bbb 074f 63bb
00000260: 6219 0ebb 7e64 2fbb 31e3 1cbb 76b9 28bb
00000270: 9f1a 2fbb 5e51 e3ba 408a 14bb adfa feba
00000280: 28b5 1bbb 59a9 32bb 1d14 22bf 2310 27bb
00000290: ee43 07bb 36ed 33bb 3f97 203f 2b8b 2bbb
000002a0: a506 35bb 3fe3 1dbb a8b4 3abb 1820 77bb
000002b0: 356f 2cbb 2182 40bb 4ee5 22bb f80f 20bd
000002c0: 0055 9abc 2f8a 033d 12bf a83d ad5d f93d
000002d0: 0d73 37bd 359b 07bd db8e 953c d8e5 9a3d
000002e0: f6fd fb3d d507 88bd dbfc 4fbd de3c 1fbf
000002f0: a0bf 933d d5b2 f83d f865 f0bd a640 e2bd
00000300: 6c61 48bd 314b 253f fd8a 733d e42f fcbd
00000310: e9a0 e1bd a3c6 67bd 1b1a 273a 5e12 203d
00000320: d523 74bc 5488 733a 84da 8abc 234f 423a
00000330: 1fb9 83bc cdfe 8abc b3f3 8fba 8892 84bc
00000340: 7bea 86ba f89f 99bc 7481 86bc eb15 223f
00000350: de16 a3bf 85ac 213f 5f42 99bc 2c79 25bc
00000360: 2c92 0f3c 6fbf 00bc 30a2 f03b 2ce8 58bc
00000370: 2506 83bc d98e 4c3b a02b 71bc ac13 593b
00000380: 79a9 88bc 2c37 aaba 2fb0 90ba 21f1 b0ba
00000390: d7db a1ba bca9 89ba 5cf5 9fba 30b3 70ba
000003a0: 6645 213f 63b7 7dba 424d 50ba 5544 afba
000003b0: 671b 68ba aeab a1bf f9a6 a3ba 4114 8cba
000003c0: ccaf abba 7cd1 8fba 712c 213f 67c0 c1ba
000003d0: b9a3 abba b7a9 a2ba 3bb4 8cba 1433 aaba
000003e0: b0f8 aeba eae9 97ba 6b42 79bd efae 75bd
000003f0: f4ef 5dbd 55b7 62bd d16f 5dbd c424 4abd

conv1.bias f4 [30]
0.040032983 -0.020119784 -0.0059034587 -0.12911525 -0.024096595 -0.028351292 -0.019759698 -0.039545476
-0.13923791 0.0095182005 -0.06307137 -0.011719757 -0.10411743 -0.14498381 -0.023168169 -0.2019549
-0.10681167 -0.108051285 -0.0037278102 -0.11156886 0.043007948 -0.04275163 -0.114654906 -0.021613438
-0.117297426 -0.20055619 0.03763433 -0.14069392 -0.07264667 0.057227626
00000000: a0f9 233d 3fd2 a4bc cd71 c1bb ca36 04be
00000010: 3966 c5bc f840 e8bc 17df a1bc 70fa 21bd
00000020: 6294 0ebe 3af2 1b3c 902b 81bd 3904 40bc
00000030: 853b d5bd a376 14be 2ccb bdbc 44cd 4ebe
00000040: 14c0 dabd fe49 ddbd 474e 74bb 377e e4bd
00000050: 1a29 303d 551c 2fbd 31d0 eabd aa0e b1bc
00000060: a239 f0bd 9a5e 4dbe 7526 1a3d 1112 10be
00000070: c7c7 94bd 8467 6a3d

conv2.weight f4 [16, 30, 3, 3]
0.06149346 0.019634303 0.089248225 -0.048364826 -0.017426146 0.043207157 0.0602817 -0.018946355
0.040329445 -0.017895047 -0.02148345 0.064694874 0.019465616 -0.029876938 0.021287095 0.085386805
0.035916585 0.0023417138 -0.052183833 -0.08464219 0.0024661405 -0.036437485 -0.076003775 -0.031803332
-0.019370476 -0.038448025 -0.047543753 -0.087582126 -0.015881132 -0.038238686 -0.0144919185 -0.05824413
0.017934559 -0.058724597 -0.034944665 -0.04568442 -0.06296456 -0.023327747 -0.059282232 -0.05465692
-0.011687845 0.012549951 -0.065169625 0.012572963 -0.004495303 0.012747995 -0.037409194 0.014381314
-0.1064471 -0.012918193 -0.10106906 -0.009618051 -0.07044831 -0.058016744 0.012093906 0.02119347
-0.06650594 -0.08292017 0.004772528 -0.0677789 -0.07143337 -0.09104975 0.039831538 -0.028918704
-0.016030725 -0.07481408 0.0072833356 -0.097444616 -0.04664044 -0.045620527 0.011804507 -0.039153654
0.057560623 0.11891222 0.09324541 0.11591737 0.0300406 0.10714485 0.023273284 0.03912124
0.05773839 0.10509833 0.030247465 0.014804256 0.036017656 0.0017509456 0.09839469 0.03949689
0.025027903 0.05264915 0.012818007 -0.011490979 0.064005904 0.047296222 0.019849038 -0.035015345
-0.030176012 0.066965535 0.016796093 -0.0636259 -0.0052566184 0.021372905 0.023866983 0.06954497
0.0069046724 -0.011431526 0.051365223 -0.01347617 0.017437281 -0.06227694 -0.03296341 -0.06256561
0.0034334827 -0.06308327 0.052848235 -0.03658136 -0.05495598 -0.0025274232 -0.041644398 -0.053945757
0.0511776 0.021209963 0.007828026 0.035284333 -0.027241256 0.0037858272 0.03711225 -0.06852563
-0.0053275325 0.03143691 -0.041474506 0.031807292 -0.056954645 -0.0515726 -0.016558783 -0.030263757
-0.035221692 -0.03352649 0.001784666 -0.05500821 -0.07351748 -0.06914367 0.063951485 -0.009359706
0.05506104 -0.050091576 0.00902759 -0.036683533 0.017931169 0.09177833 0.07358907 -0.006828581
-0.022284992 -0.06574326 -0.03924491 0.022248441 -0.047928 0.04172646 -0.02818568 0.06490186
-0.021368388 -0.015011245 0.10993877 0.13459077 0.14119193 0.12079392 -0.006051665 0.11374087
0.009773379 0.11291801 0.11734528 -0.043939732 -0.0056534763 -0.02537499 0.02722022 0.037230883
0.012708881 -0.041406956 -0.008009741 -0.014450189 -0.05596331 0.032691494 -0.042873137 0.056919187
0.07792798 0.019502832 0.070494585 0.008946952 0.054904133 0.04835457 -0.050837416 -0.049132247
-0.006202327 0.04527165 0.00029541965 -0.0028774354 0.05917414 0.080981195 0.0255701 0.016849738
0.032083724 0.004430386 -0.0738375 -0.08082044 -0.077156544 -0.071543716 0.052252397 -0.03442746
-0.0806282 -0.012661672 -0.0252687 -0.06775735 -0.093372725 -0.013040954 -0.028169552 -0.056582153
-0.05052704 -0.02581883 0.06024834 -0.06704812 -0.035021566 -0.028280172 0.064754024 0.0011240309
0.05011422 -0.022443118 -0.023592547 0.02777963 -0.04006807 0.035367753 0.05452844 0.023147643
0.03846795 -0.06774613 0.08840973 -0.031692415 0.06350206 0.054755565 0.031947758 0.04861599
-0.046254415 0.093994156 0.0103841685 0.06503742 0.0012776096 -0.033353783 0.045060486 -0.0006130712
-0.047932956 0.003794275 -0.07893832 -0.048459183 -0.011053369 0.0695867 0.0255066 0.04875908
00000000: 91e0 7b3d 1ed8 a03c c6c7 b63d 321a 46bd
00000010: 47c1 8ebc fdf9 303d f2e9 763d 6335 9bbc
00000020: 7d30 253d a298 92bc 0ffe afbc bf7e 843d
00000030: 5b76 9f3c 7bc0 f4bc 4662 ae3c 47df ae3d
00000040: 451d 133d 7077 193b b7be 55bd e258 adbd
00000050: f99e 213b 793f 15bd dea7 9bbd 3644 02bd
00000060: d5ae 9ebc ad7b 1dbd 3dbd 42bd 425e b3bd
00000070: 2619 82bc 2ba0 1cbd 836f 6dbc 6691 6ebd
00000080: 7feb 923c 3489 70bd 2322 0fbd 961f 3bbd
00000090: 90f3 80bd d519 bfbc edd1 72bd efdf 5fbd
000000a0: 607e 3fbc 4f9e 4d3c a777 85bd d4fe 4d3c
000000b0: 564d 93bb f7dc 503c 623a 19bd 9a9f 6b3c
000000c0: f000 dabd d4a6 53bc 4cfd cebd 0895 1dbc
000000d0: 3447 90bd f7a2 6dbd 8525 463c ee9d ad3c
000000e0: 4434 88bd 0dd2 a9bd de62 9c3b aacf 8abd
000000f0: a94b 92bd 4b78 babd 6526 233d ebe6 ecbc
00000100: de52 83bc 2038 99bd 0ca9 ee3b 0b91 c7bd
00000110: 0c0a 3fbd 97dc 3abd b167 413c 955f 20bd
00000120: b0c4 6b3d 4088 f33d 73f7 be3d 1666 ed3d
00000130: b417 f63c c26e db3d 9da7 be3c 983d 203d
00000140: 177f 6c3d cb3d d73d 88c9 f73c 8d8d 723c
00000150: 4087 133d fc7f e53a 2883 c93d 7ec7 213d
00000160: 5107 cd3c a3a6 573d 9e02 523c a944 3cbc
00000170: 8715 833d afb9 413d 739a a23c 406c 0fbd
00000180: af33 f7bc 3a25 893d f697 893c 4c4e 82bd
00000190: b63f acbb 3b16 af3c b184 c33c 986d 8e3d
000001a0: 9740 e23b 4c4b 3bbc 5764 523d 27cb 5cbc
000001b0: a1d8 8e3c 1b16 7fbd a404 07bd 6622 80bd
000001c0: 4804 613b cd31 81bd 6477 583d 56d6 15bd
000001d0: 8619 61bd 20a3 25bb 5193 2abd 3af6 5cbd
000001e0: 9a9f 513d 84c0 ad3c 1f41 003c 4e86 103d
000001f0: 0e29 dfbc a41b 783b 0403 183d 2a57 8cbd
00000200: 9592 aebb fdc3 003d 2ce1 29bd 5d48 023d
00000210: 4649 69bd ca3d 53bd 49a6 87bc b3eb f7bc
00000220: 9f44 10bd 1353 09bd 74eb e93a 4a50 61bd
00000230: 5590 96bd 329b 8dbd fff8 823d 7459 19bc
00000240: af87 613d d32c 4dbd 75e8 133c 7941 16bd
00000250: 63e4 923c 47f6 bb3d deb5 963d 4ac2 dfbb
00000260: 048f b6bc 67a4 86bd 45bf 20bd 5d42 b63c
00000270: 2750 44bd 5de9 2a3d a8e5 e6bc 44eb 843d
00000280: c20c afbc baf1 75bc 9427 e13d 2ad2 093e
00000290: 9e94 103e cd62 f73d 0c4d c6bb f9f0 e83d
000002a0: 8620 203c 8f41 e73d b952 f03d 26fa 33bd
000002b0: cc40 b9bb 36df cfbc f0fc de3c 697f 183d
000002c0: e938 503c 579a 29bd 4a3b 03bc 7cc0 6cbc
000002d0: c939 65bd 84e7 053d be9b 2fbd 1824 693d
000002e0: b498 9f3d 67c4 9f3c 775f 903d 3d96 123c
000002f0: 28e3 603d 710f 463d e53a 50bd e53e 49bd
00000300: e43c cbbb c46e 393d 8ee2 9a39 5b93 3cbb
00000310: 9560 723d 78d9 a53d 6378 d13c 7608 8a3c
00000320: 396a 033d c52c 913b 1d38 97bd 3085 a5bd
00000330: 4004 9ebd 8385 92bd 9c06 563d cf03 0dbd
00000340: 6620 a5bd e772 4fbc 4e00 cfbc 5ec4 8abd
00000350: 333a bfbd baa9 55bc d5c3 e6bc b0c2 67bd
00000360: 71f5 4ebd 0382 d3bc f7c6 763d 8650 89bd
00000370: c672 0fbd d2ab e7bc c29d 843d 3854 933a
00000380: 9144 4d3d a1da b7bc 2845 c1bc 1b92 e33c
00000390: 6b1e 24bd c7dd 103d 3759 5f3d 20a0 bd3c
000003a0: 9290 1d3d 7cbe 8abd 2910 b53d e8cf 01bd
000003b0: 5e0d 823d 5f47 603d a7db 023d 8f21 473d
000003c0: 4575 3dbd 0280 c03d 5c22 2a3c 5732 853d
000003d0: 7775 a73a fa9d 08bd 5891 383d 83b6 20ba
000003e0: 5955 44bd 5fa9 783b 6aaa a1bd 237d 46bd
000003f0: 3119 35bc 7983 8e3d 38f3 d03c 9ab7 473d

conv2.bias f4 [16]
-0.0247055 -0.03966447 -0.05766818 -0.052175526 -0.18568496 -0.034517296 -0.038465887 -0.068491615
-0.017811231 -0.014158785 0.08049366 -0.001977595 -0.038420748 -0.011091915 -0.05894776 -0.03885509
00000000: 3063 cabc 3677 22bd 7835 6cbd 01b6 55bd
00000010: 3324 3ebe 0262 0dbd 688e 1dbd 5545 8cbd
00000020: dce8 91bc 40fa 67bc dcd9 a43d 8a9a 01bb
00000030: 135f 1dbd ddba 35bc 3573 71bd 8426 1fbd

conv3.weight f4 [16, 16, 3, 3]
0.17389096 0.061863244 0.003815135 0.17568888 0.1135888 0.10630783 0.048946396 0.1680017
0.14948145 -0.10088813 0.008973075 0.04339788 -0.08343107 0.012509615 -0.064994395 0.06668795
0.06697337 0.042247277 -0.019518053 0.07836257 -0.016106294 0.063238956 0.043919083 -0.0728544
-0.059386358 -0.009156757 -0.075773366 -0.016771514 0.05949872 0.08952411 0.0050542234 -0.0063117268
-0.055545017 0.04144242 0.023859633 0.05036243 -0.08399022 0.0014992434 -0.046957444 -0.057420734
0.04072223 -0.07971791 -0.061032873 0.05969438 -0.06812682 0.030436603 -0.06229196 -0.10723806
-0.011954199 -0.06036455 -0.0011648166 0.03499602 -0.101355314 -0.109090544 0.04013235 0.057240825
0.13717476 0.12015085 0.0008869446 0.10520315 0.10220614 -0.019760152 0.1000556 0.09145794
-0.017039044 0.08169152 0.0953738 0.03218376 0.010791864 0.08211276 0.06905874 0.09245433
-0.064750515 0.024912134 0.04357819 -0.054423932 0.022442091 -0.047795292 -0.06603444 0.089488104
-0.07687266 -0.015594541 0.14174664 0.11113609 0.08541221 0.12741297 0.056787394 0.042390272
0.05282454 0.07842435 -0.111132085 -0.10427529 -0.05399649 -0.011183182 0.04176734 -0.060659464
-0.100089595 -0.10100213 -0.019915082 -0.046562735 -0.010005195 -0.050739475 0.053875722 -0.01748113
-0.052569512 0.041174907 0.009098676 0.068221055 0.06004504 0.09264156 0.083768584 0.009844541
0.13138236 0.068702884 0.050197616 0.06730336 0.13167271 0.07294654 0.08233243 -0.047185365
-0.017958194 0.023231272 -0.009080142 -0.011817101 0.07127726 -0.046225104 -0.084964156 -0.021959273
-0.09289763 -0.052842543 -0.06652017 0.048553158 -0.08552272 -0.050718494 0.00030616214 -0.095296636
-0.009577328 -0.056478392 -0.065123886 0.018433077 0.022832941 0.0607618 0.09588345 0.026251487
-0.0022829627 -0.049143385 -0.026631834 -0.08486082 -0.08414923 -0.07057241 0.061650436 0.037963066
0.082425274 0.062766045 0.064374104 0.020253118 0.045203723 0.03175727 -0.0729779 -0.072366916
0.07270731 0.05653441 -0.022913985 -0.05188759 -0.06375852 -0.07000226 -0.029142926 0.007580823
0.0025229165 0.033580102 0.011026925 0.02260058 0.06731699 0.020295369 -0.006054975 0.04460737
0.030754047 0.038331594 -0.024991466 -0.09081796 -0.030596042 0.07492261 -0.030337196 -0.045428332
-0.03872907 0.05571689 0.08516239 -0.08625125 -0.031161383 0.074177824 0.022586165 0.060208198
-0.07049906 0.055179328 -0.04517027 -0.057237446 -0.037449226 -0.06804573 0.02555118 0.061936665
-0.060193423 0.030259827 -0.068531044 0.048895728 -0.00840525 0.005055018 -0.072496735 0.032621056
0.033648744 -0.032933995 -0.039630536 0.07083626 0.06429077 -0.046953287 0.03187059 -0.039256822
-0.085624985 -0.0043533454 -0.07739767 -0.043080304 -0.0069684526 -0.059025686 0.052906156 -0.027428066
-0.07160105 0.014730338 0.021711022 -0.024016095 -0.06983591 0.03918164 -0.03161367 -0.03801052
0.07332045 -0.05104757 0.051783066 0.00077076245 -0.019860577 -0.05694615 0.08810433 0.008710771
0.012691373 -0.072862476 0.06432584 -0.00071069755 0.040632688 0.06159282 0.02182145 0.053544164
-0.042272907 0.038156245 0.037247512 0.046003107 -0.030396322 0.051004797 0.0787058 -0.04556656
00000000: 7910 323e 5064 7d3d 5807 7a3b c9e7 333e
00000010: 3fa1 e83d ebb7 d93d 047c 483d a308 2c3e
00000020: aa11 193e 709e cebd ce03 133c fac1 313d
00000030: e9dd aabd 21f5 4c3c c81b 85bd b193 883d
00000040: 5629 893d 7b0b 2d3d 53e4 9fbc 8e7c a03d
00000050: 59f1 83bc 6d83 813d 7fe4 333d b034 95bd
00000060: 1c3f 73bd 3906 16bc 112f 9bbd 6a64 89bc
00000070: eeb4 733d 6b58 b73d e69d a53b 9ad2 cebb
00000080: 2c83 63bd 87bf 293d 4775 c33c d648 4e3d
00000090: 1103 acbd 4382 c43a 7356 40bd 0132 6bbd
000000a0: 5acc 263d 2543 a3bd 9bfd 79bd 1882 743d
000000b0: 1386 8bbd 2f56 f93c db25 7fbd a19f dbbd
000000c0: 8bdb 43bc d240 77bd c2ac 98ba fd57 0f3d
000000d0: 6093 cfbd dd6a dfbd d261 243d 5b75 6a3d
000000e0: 8a77 0c3e a611 f63d d881 683a c074 d73d
000000f0: 7451 d13d 0be0 a1bc f3e9 cc3d 4d4e bb3d
00000100: 7795 8bbc e24d a73d 5753 c33d 1ed3 033d
00000110: 5cd0 303c bc2a a83d ab6e 8d3d b258 bd3d
00000120: eb9b 84bd 8814 cc3c 0b7f 323d a1eb 5ebd
00000130: 7ad8 b73c ffc4 43bd 113d 87bd 8a45 b73d
00000140: 6a6f 9dbd 3f80 7fbc 0826 113e 519b e33d
00000150: 99ec ae3d 8c78 023e e699 683d 6ca1 2d3d
00000160: 8b5e 583d f29c a03d 3899 e3bd 498e d5bd
00000170: 6c2b 5dbd aa39 37bc 3b14 2b3d 0f76 78bd
00000180: c6fb ccbd 34da cebd f424 a3bc 91b8 3ebd
00000190: d4ec 23bc 32d4 4fbd caac 5c3d 9634 8fbc
000001a0: 2153 57bd 05a7 283d 9d12 153c 7bb7 8b3d
000001b0: caf1 753d dcba bd3d dd8e ab3d ff4a 213c
000001c0: 1989 063e 19b4 8c3d 049c 4d3d 58d6 893d
000001d0: 36d5 063e ff64 953d e89d a83d 7145 41bd
000001e0: 101d 93bc 824f be3c e0c4 14bc 849c 41bc
000001f0: d0f9 913d 8956 3dbd b001 aebd efe3 b3bc
00000200: 1d41 bebd 6c71 58bd ba3b 88bd addf 463d
00000210: 8926 afbd 32be 4fbd 6384 a039 e22a c3bd
00000220: 3aea 1cbc e355 67bd ac5f 85bd f700 973c
00000230: 260c bb3c 5de1 783d 8b5e c43d 5c0d d73c
00000240: c29d 15bb 934a 49bd 012b dabc 82cb adbd
00000250: 6e56 acbd 4588 90bd 2b85 7c3d 297f 1b3d
00000260: 95ce a83d 7c8b 803d 92d6 833d dee9 a53c
00000270: 8a27 393d e913 023d 7075 95bd 1b35 94bd
00000280: 92e7 943d a090 673d 1cb6 bbbc 1588 54bd
00000290: d493 82bd 585d 8fbd 25bd eebc 8d68 f83b
000002a0: 8457 253b 4a8b 093d 47aa 343c da24 b93c
000002b0: 7ddd 893d 7942 a63c d068 c6bb 38b6 363d
000002c0: e9ef fb3c 9701 1d3d e7ba ccbc c4fe b9bd
000002d0: 8da4 fabc 0671 993d b685 f8bc 0f13 3abd
000002e0: 60a2 1ebd 6537 643d 9e69 ae3d 7fa4 b0bd
000002f0: 2846 ffbc 8bea 973d 9f06 b93c df9c 763d
00000300: d061 90bd b803 623d 7604 39bd d071 6abd
00000310: 5c64 19bd 8f5b 8bbd b550 d13c 4db1 7d3d
00000320: 618d 76bd 75e3 f73c 015a 8cbd e346 483d
00000330: 2cb6 09bc 90a4 a53b 2b79 94bd a89d 053d
00000340: 44d3 093d cce5 06bd a153 22bd 9a12 913d
00000350: e1aa 833d 1752 40bd bc8a 023d c3cb 20bd
00000360: 275c afbd 82a6 8ebb ab82 9ebd f974 30bd
00000370: 9e57 e4bb ebc4 71bd 20b4 583d d3b0 e0bc
00000380: 92a3 92bd 8457 713c 50db b13c 67bd c4bc
00000390: 2106 8fbd ed7c 203d 567d 01bd ebb0 1bbd
000003a0: 0829 963d 4217 51bd 7b1a 543d fe0c 4a3a
000003b0: a6b2 a2bc 5e40 69bd 0b70 b43d 9fb7 0e3c
000003c0: 7aef 4f3c ec38 95bd 44bd 833d 1b4e 3aba
000003d0: 766e 263d c148 7c3d e6c2 b23c 2051 5b3d
000003e0: 5b26 2dbd b949 1c3d d990 183d c16d 3c3d
000003f0: b501 f9bc 68ea 503d 8230 a13d 00a4 3abd

conv3.bias f4 [16]
0.031523045 -0.01642016 0.040239543 0.024463082 -0.0051451446 0.05881028 0.03422265 0.06711699
0.07250632 -0.0069061783 0.02875563 0.009006089 0.13295361 0.012087447 0.0015507535 -0.023045037
00000000: 4f1e 013d 9283 86bc 38d2 243d cd66 c83c
00000010: 9a98 a8bb 0ce3 703d 0d2d 0c3d a274 893d
00000020: 327e 943d 394d e2bb ed90 eb3c 468e 133c
00000030: fe24 083e 6d0a 463c a742 cb3a f2c8 bcbc

conv4.weight f4 [16, 16, 3, 3]
0.016638702 -0.073928125 0.058012832 0.044200715 0.025009522 -0.0116506945 0.0881226 -0.070146896
0.054893278 0.079759754 0.03231342 0.075503886 -0.055720296 0.081966124 0.06733477 -0.038408354
0.07784109 -0.041452292 -0.07178801 0.09200371 0.032626633 0.055459727 0.0274718 0.018677937
0.0323052 0.03621671 -0.05772101 0.07591028 0.029611556 0.07055684 -0.07693914 -0.052443705
-0.035148535 -0.07286686 0.073228486 0.016614338 -0.05706858 -0.042001244 -0.0018275307 0.079498276
-0.033147696 0.08773737 0.05131916 -0.06394359 -0.080764 0.029116085 0.06500021 -0.015928306
-0.07767987 0.035584737 -0.028854813 -0.04215495 0.009067111 0.0695556 -0.0807015 0.021519983
-0.0039241007 -0.06132868 0.07737503 -0.013582498 0.08811132 -0.06379457 0.0062835785 -0.023936344
0.01951279 -0.08767754 0.02878463 -0.046563156 0.053181585 -0.03653055 0.0017228482 -0.06822406
-0.057814326 0.044022348 0.08151629 0.076227196 -0.07470056 -0.03025536 0.06276004 0.03610632
0.050930243 0.082264416 -0.025288893 -0.030968545 0.0073454618 -0.08254295 -0.01939577 0.08622825
-0.0075499206 -0.033463098 -0.034523275 -0.017723074 -0.00042319836 -0.07893352 0.070545435 -0.08627593
-0.04336383 -0.07360592 -0.051714 0.029369893 -0.053569388 -0.031818997 -0.062279746 -0.0012969453
0.085226454 0.038803022 0.0556914 -0.07223733 -0.02165278 0.054293584 0.006204009 0.07441249
-0.05984084 -0.082343906 -0.06787042 -0.042370364 0.06824949 -0.029908411 -0.043304246 -0.0011812657
0.052049182 -0.08868282 -0.01970796 -0.03215709 -0.056372624 -0.026088163 0.00077099627 -0.06712321
0.0887135 0.0311151 0.0065228776 0.003702253 0.01582496 0.08450262 0.018787686 0.0030651693
-0.002282456 -0.06184167 -0.090832986 -0.018062651 -0.08238472 0.039461248 -0.04914633 0.013353762
0.09463466 0.0031046446 0.03623632 -0.011269736 0.03858863 0.12518106 0.10273563 0.12238286
0.0042302045 -0.08212767 -0.042593617 -0.038777452 0.053357787 -0.04722791 0.05907032 -0.07006378
0.02670629 0.012297553 0.08363272 0.08282664 -0.04834161 0.11034372 0.04987147 0.11173451
0.063613474 -0.056312215 0.03717401 -0.027751565 0.031247398 -0.04152167 -0.00188329 -0.057736363
0.0010910694 -0.054262046 0.023960255 -0.08012838 -0.0040760944 0.015886376 0.0026486588 0.09978175
-0.061480094 0.07464155 -0.09406902 -0.03842767 -0.04842975 -0.048300244 0.028040227 -0.037426766
-0.021629643 0.08078732 0.03410388 0.034646254 -0.015525172 0.029755916 -0.03645582 0.024507672
-0.07576067 -0.08176756 0.04598357 0.049626213 0.058112204 -0.042306814 -0.014635467 -0.04948721
-0.047671184 0.004252142 -0.012908313 0.061111707 0.07914764 0.090168186 -0.014380656 0.019246668
-0.038880803 0.010882148 -0.0917735 -0.021015117 -0.011447077 0.01856266 0.041219506 -0.014469666
-0.04861238 0.08120972 -0.020467129 -0.017636966 -0.05172127 0.043354563 0.051573273 0.05005614
0.013110512 -0.06334193 0.09591484 0.074912205 0.07143239 0.04900108 0.024987495 0.0613034
-0.011664457 -0.078769684 0.013785678 -0.06352635 0.07199972 -0.083331384 -0.035292454 0.026102595
0.03828388 0.08796496 0.07306288 0.011443956 0.08291651 0.023853805 -0.02393323 0.020686591
00000000: e34d 883c a167 97bd dd9e 6d3d cf0b 353d
00000010: c5e0 cc3c 8ee2 3ebc 9f79 b43d 2da9 8fbd
00000020: c6d7 603d 1559 a33d 145b 043d c8a1 9a3d
00000030: f73a 64bd dbdd a73d d0e6 893d 1452 1dbd
00000040: 266b 9f3d e1c9 29bd 9805 93bd 716c bc3d
00000050: 81a3 053d bd29 633d 8a0c e13c 7902 993c
00000060: 7552 043d f957 143d de6c 6cbd d976 9b3d
00000070: ef93 f23c 1b80 903d 4592 9dbd 36cf 56bd
00000080: e9f7 0fbd 383b 95bd d1f8 953d cb1a 883c
00000090: bec0 69bd 7f09 2cbd c189 efba fecf a23d
000000a0: e1c5 07bd a6af b33d 0a34 523d dbf4 82bd
000000b0: 9967 a5bd db84 ee3c d51e 853d 147c 82bc
000000c0: a016 9fbd 4dc1 113d ee60 ecbc abaa 2cbd
000000d0: 388e 143c 2b73 8e3d d446 a5bd ad4a b03c
000000e0: be95 80bb c833 7bbd cd76 9e3d 2089 5ebc
000000f0: b573 b43d baa6 82bd 7ae6 cd3b 2716 c4bc
00000100: 49d9 9f3c 4890 b3bd bfcd eb3c 02b9 3ebd
00000110: efd4 593d 0fa1 15bd 31d1 e13a 0eb9 8bbd
00000120: b7ce 6cbd c750 343d 03f2 a63d 011d 9c3d
00000130: 9bfc 98bd 17da f7bc 5688 803d 38e4 133d
00000140: 3b9c 503d 3f7a a83d a72a cfbc bfb1 fdbc
00000150: 33b2 f03b 470c a9bd e1e3 9ebc 7098 b03d
00000160: 5365 f7bb 9a10 09bd 4768 0dbd fb2f 91bc
00000170: b9e0 ddb9 e6a7 a1bd 207a 903d 6fb1 b0bd
00000180: 459e 31bd b3be 96bd 0fd2 53bd 2199 f03c
00000190: 936b 5bbd a354 02bd 0c19 7fbd 43fe a9ba
000001a0: 358b ae3d ebef 1e3d aa1c 643d 2af1 93bd
000001b0: 2c61 b1bc f362 5e3d 004b cb3b 9365 983d
000001c0: ab1b 75bd eca3 a8bd a6ff 8abd 8c8c 2dbd
000001d0: 63c6 8b3d 7c02 f5bc cb5f 31bd b3d4 9aba
000001e0: 8631 553d 579f b5bd 9672 a1bc 27b7 03bd
000001f0: fbe6 66bd d8b6 d5bc af1c 4a3a e577 89bd
00000200: 6caf b53d 18e5 fe3c ddbd d53b 80a1 723b
00000210: 59a3 813c b60f ad3d a2e8 993c 02e1 483b
00000220: 4295 15bb b14d 7dbd a506 babd 20f8 93bc
00000230: 52b9 a8bd 1ea2 213d aa4d 49bd bdc9 5a3c
00000240: d1cf c13d 4b77 4b3b 896c 143d b3a4 38bc
00000250: 1c0f 1e3d 772f 003e 0f67 d23d dda3 fa3d
00000260: 879d 8a3b 8d32 a8bd a576 2ebd 1bd5 1ebd
00000270: b28d 5a3d 0e72 41bd b8f3 713d 997d 8fbd
00000280: 26c7 da3c ad7b 493c a247 ab3d 03a1 a93d
00000290: da01 46bd e3fb e13d 0746 4c3d 10d5 e43d
000002a0: c847 823d a3a7 66bd c643 183d 4057 e3bc
000002b0: 8bfa ff3c a012 2abd bad8 f6ba f77c 6cbd
000002c0: 3702 8f3a e141 5ebd 4c48 c43c 591a a4bd
000002d0: c290 85bb 2524 823c 1f95 2d3b 605a cc3d
000002e0: 8dd2 7bbd abdd 983d 42a7 c0bd 5566 1dbd
000002f0: 465e 46bd 7ad6 45bd 9eb4 e53c cf4c 19bd
00000300: a630 b1bc d373 a53d 83b0 0b3d 3be9 0d3d
00000310: 4b5d 7ebc aec2 f33c b352 15bd 50c4 c83c
00000320: 6928 9bbd c075 a7bd 4559 3c3d db44 4b3d
00000330: 1007 6e3d e949 2dbd 99c9 6fbc 1ab3 4abd
00000340: dc42 43bd 8d55 8b3b 647d 53bc 4550 7a3d
00000350: 2818 a23d 19aa b83d d89c 6bbc 30ab 9d3c
00000360: 7a41 1fbd 094b 323c bff3 bbbd e527 acbc
00000370: 858c 3bbc b810 983c c9d5 283d 2e12 6dbc
00000380: c61d 47bd 4851 a63d aeaa a7bc 667b 90bc
00000390: afd9 53bd 8e94 313d 7f3e 533d ab07 4d3d
000003a0: 79cd 563c 6ab9 81bd 006f c43d 926b 993d
000003b0: 254b 923d 5bb5 483d 93b2 cc3c 4619 7b3d
000003c0: 471c 3fbc 0052 a1bd 53dd 613c 1a1a 82bd
000003d0: 9774 933d a5a9 aabd d28e 10bd 1cd5 d53c
000003e0: 8fcf 1c3d f926 b43d fea1 953d 6e7f 3b3c
000003f0: 22d0 a93d 0e69 c33c 9f0f c4bc ed76 a93c

conv4.bias f4 [16]
-0.006815292 0.07071743 0.0377973 0.02105033 0.05761117 0.08281235 -0.06316067 0.0023874762
0.033941388 -0.003509862 0.05004787 0.007425327 0.10942736 0.06875846 0.05844139 -0.018132016
00000000: d052 dfbb 4dd4 903d 57d1 1a3d be71 ac3c
00000010: b1f9 6b3d 8599 a93d 625a 81bd 3477 1c3b
00000020: 2006 0b3d b705 66bb fffe 4c3d 2850 f33b
00000030: 741b e03d 3cd1 8c3d 3d60 6f3d 9889 94bc

conv5.weight f4 [16, 16, 3, 3]
0.07226374 0.025453007 0.06438398 0.0595041 0.05146833 0.054201216 -0.08259972 0.017362114
-0.019218039 0.014676711 -0.051446572 0.073737085 -0.048567966 0.019031506 0.05854369 -0.101248026
-0.06140323 -0.09804007 0.087010466 -0.05137395 0.06196292 -0.02987005 -0.10070929 -0.060246248
-0.0011513323 0.08940927 -0.07966281 -0.09802546 0.007776992 -0.0810011 -0.08684484 -0.0063112583
-0.08096969 -0.0678715 0.069319054 -0.028689396 0.043098535 -0.025473505 0.075890236 0.03128508
0.0873947 0.053485457 0.13125595 0.12916465 -0.012386952 0.18022498 0.21908985 0.2872439
0.16867886 0.160759 0.013725268 0.07874802 0.07795675 0.18891129 0.08082508 -0.08679582
-0.017672122 -0.047007516 -0.061979324 -0.06305462 -0.07408835 0.07174057 -0.0006105092 0.070318386
-0.061309043 0.06748007 -0.0074402937 0.0648492 0.044189937 -0.0043114093 0.056783915 -0.019227797
-0.010513048 -0.015351871 -0.030011315 -0.033463623 0.053145397 -0.008842634 -0.0656076 0.04743905
-0.062700406 0.06208697 0.08532498 -0.032375414 0.019169515 0.039970502 0.026983175 -0.07412392
0.081039704 -0.052859843 0.014981529 -0.037895128 -0.07655119 0.02458745 -0.030821275 0.037881434
0.019867165 -0.03378429 0.014684551 0.09783031 0.03951191 -0.06101498 -0.043952104 0.07347185
-0.049141098 0.036319394 0.040304255 0.073697284 0.17094009 0.11102521 0.12876587 0.0224167
0.01857763 0.07246596 -0.036773805 -0.031333037 0.0251473 -0.0204151 0.09514474 0.11054622
-0.011568918 -0.021866504 -0.025471043 0.113968566 0.0008297843 0.028946294 0.05703311 0.14030457
0.124298 0.07575473 0.03048078 0.08910302 -0.008916599 0.074064225 -0.017805595 0.07447597
-0.0024051575 0.009414671 -0.03701317 -0.060079288 -0.05179804 -0.06773743 0.054546393 0.043906804
-0.005753539 0.043779794 0.034848236 0.07736785 0.08008644 0.086573124 -0.037485845 0.07787662
-0.08999045 0.032208554 -0.05510347 0.06047822 0.0206682 -0.08091794 0.018693345 -0.055517107
0.07819586 -0.029287035 -0.075712666 -0.042522952 0.08094843 0.01837138 0.021299835 0.06622595
-0.03032326 0.060618762 0.040218137 0.0043830425 0.080833174 -0.0068979985 -0.05301542 -0.08859492
-0.061296362 -0.054416116 0.03393244 0.038574766 -0.02534303 0.0054128165 0.07984019 -0.0030683002
0.050975922 0.03246228 0.08681418 0.08838044 -0.061671857 -0.04892485 -0.052168284 -0.041575693
-0.07013474 -0.0761869 0.059608266 0.04920977 0.07680152 -0.010602628 0.04447165 -0.08904403
0.020506851 -0.010762258 0.021484992 -0.020989416 0.03661696 -0.023619536 -0.03033751 -0.008517654
-0.01431564 -0.055128373 0.08828742 0.06736405 0.059724998 -0.03841542 0.06593581 -0.06345637
0.065041974 -0.011553631 -0.016804302 -0.04974714 0.0006895209 -0.0010036535 -0.0039784997 0.051456816
-0.077037714 -0.059109423 -0.04147978 -0.078659974 -0.04935631 0.060630508 0.022866871 -0.05874564
-0.082072906 0.059733786 -0.09056059 0.05574263 0.060650557 -0.0727629 0.023335122 -0.032009017
-0.028295795 0.013074851 -0.083579585 -0.06650944 0.030621894 -0.02379153 -0.071257174 -0.003811937
-0.00038727387 0.033760954 0.05329683 -0.07235839 -0.04037698 0.0859308 -0.075910844 0.081131086
00000000: 03ff 933d d382 d03c c0db 833d 92ba 733d
00000010: 75d0 523d 1802 5e3d 0b2a a9bd fe3a 8e3c
00000020: 266f 9dbc 9676 703c a4b9 52bd 7803 973d
00000030: 34ef 46bd f6e7 9b3c 82cb 6f3d 205b cfbd
00000040: f481 7bbd 3bc9 c8bd 8b32 b23d 7e6d 52bd
00000050: d5cc 7d3d 09b2 f4bc ac40 cebd c5c4 76bd
00000060: 4de8 96ba 351c b73d 4126 a3bd 93c1 c8bd
00000070: 23d6 fe3b e8e3 a5bd b5db b1bd acce cebb
00000080: 70d3 a5bd 3700 8bbd 26f7 8d3d 0606 ebbc
00000090: 1788 303d d0ad d0bc 576c 9b3d c924 003d
000000a0: fefb b23d 9113 5b3d f667 063e bd43 043e
000000b0: a4f2 4abc e68c 383e 1759 603e a211 933e
000000c0: 27ba 2c3e 029e 243e f2df 603c a446 a13d
000000d0: caa7 9f3d f671 413e 9f87 a53d 02c2 b1bd
000000e0: 20c5 90bc f48a 40bd 08de 7dbd c822 81bd
000000f0: a2bb 97bd b8ec 923d 940a 20ba 1603 903d
00000100: 311f 7bbd fe32 8a3d b5cd f3bb a8cf 843d
00000110: 8200 353d b946 8dbb 4096 683d 9d83 9dbc
00000120: eb3e 2cbc 6a86 7bbc 4ada f5bc 2711 09bd
00000130: fdae 593d b2e0 10bc 475d 86bd 734f 423d
00000140: 1269 80bd e84e 7e3d ddbe ae3d 159c 04bd
00000150: 6309 9d3c 1cb8 233d d20b dd3c 48ce 97bd
00000160: 25f8 a53d 9083 58bd 1675 753c ec37 1bbd
00000170: dfc6 9cbd 9f6b c93c e67c fcbc 9029 1b3d
00000180: 77c0 a23c 6561 0abd 7997 703c 425b c83d
00000190: 3ed7 213d d8ea 79bd 1f07 34bd 6978 963d
000001a0: 2d48 49bd a5c3 143d 1316 253d 9aee 963d
000001b0: eb0a 2f3e 2f61 e33d 33db 033e 3aa3 b73c
000001c0: 1d30 983c 0969 943d 21a0 16bd 1257 00bd
000001d0: b601 ce3c 913d a7bc 3fdb c23d 0e66 e23d
000001e0: 8f8b 3dbc 6221 b3bc a6a8 d0bc 5a68 e93d
000001f0: e285 593a c720 ed3c 8d9b 693d 00ac 0f3e
00000200: f38f fe3d 4c25 9b3d d4b2 f93c a57b b63d
00000210: ed16 12bc fcae 973d 0add 91bc db86 983d
00000220: d99f 1dbb fe3f 1a3c 1f9b 17bd b315 76bd
00000230: 2e2a 54bd ecb9 8abd 0a6c 5f3d 9fd7 333d
00000240: 2f88 bcbb 7152 333d 06bd 0e3d 0973 9e3d
00000250: 5c04 a43d 404d b13d c28a 19bd c77d 9f3d
00000260: ea4c b8bd 1eed 033d 2db4 61bd 03b8 773d
00000270: 5b50 a93c 4eb8 a5bd c922 993c e865 63bd
00000280: 2725 a03d 5deb efbc 3e0f 9bbd 8c2c 2ebd
00000290: 4ac8 a53d 947f 963c fe7c ae3c 79a1 873d
000002a0: 7c68 f8bc 614b 783d c6bb 243d a09f 8f3b
000002b0: dd8b a53d 9b08 e2bb b226 59bd 4171 b5bd
000002c0: e511 7bbd 6fe3 5ebd befc 0a3d 9300 1e3d
000002d0: 309c cfbc ff5d b13b 4183 a33d 8915 49bb
000002e0: 21cc 503d 2bf7 043d a2cb b13d ce00 b53d
000002f0: a19b 7cbd 6c65 48bd 69ae 55bd 464b 2abd
00000300: cda2 8fbd e107 9cbd cc27 743d 2f90 493d
00000310: 1e4a 9d3d a5b6 2dbc e827 363d b75c b6bd
00000320: fcfd a73c 2f54 30bc 4b01 b03c fff1 abbc
00000330: aafb 153d c27d c1bc 5f86 f8bc a18d 0bbc
00000340: 258c 6abc 4ace 61bd 09d0 b43d 2af6 893d
00000350: 33a2 743d 7d59 1dbd 5b09 873d 6af5 81bd
00000360: ba34 853d 714b 3dbc 2da9 89bc a8c3 4bbd
00000370: f7c0 343a 068d 83ba 135e 82bb 62c4 523d
00000380: f3c5 9dbd b91c 72bd b4e6 29bd 7b18 a1bd
00000390: d829 4abd b257 783d 4e53 bb3c 459f 70bd
000003a0: d715 a8bd 6aab 743d d577 b9bd 6252 643d
000003b0: b86c 783d b704 95bd 4c29 bf3c e31b 03bd
000003c0: 95cc e7bc e637 563c c62b abbd 1a36 88bd
000003d0: c4da fa3c 74e6 c2bc 48ef 91bd b1d1 79bb
000003e0: 050b cbb9 ed48 0a3d c74d 5a3d a330 94bd
000003f0: 5562 25bd 7dfc af3d 2577 9bbd 0e28 a63d

conv5.bias f4 [16]
0.016088407 -0.040592544 0.00016829035 0.006052054 0.16366051 -0.092683315 0.08251748 0.0056774737
-0.035530485 -0.008417458 0.011840107 0.10242734 -0.014352468 0.026684772 0.100693054 0.05613393
00000000: d6cb 833c 5e44 26bd 1977 3039 4f50 c63b
00000010: 9f96 273e c0d0 bdbd edfe a83d 1a0a ba3b
00000020: 6a88 11bd 61e9 09bc 02fd 413c 6dc5 d13d
00000030: 9d26 6bbc 069a da3c 2938 ce3d b1ec 653d

conv6.weight f4 [16, 16, 3, 3]
0.026088344 0.0667701 0.0758784 0.06697928 -0.04550452 0.019139882 0.12533252 -0.028445957
0.035540856 0.03603495 -0.061309453 -0.03272942 0.041392617 0.064150624 0.04213113 0.05261819
0.024699537 0.066867426 0.025959695 0.067681596 -0.019981809 -0.0018366657 0.010144354 0.06859317
-0.02643241 0.007759132 -0.08203279 0.011144126 0.06456216 0.025014697 -0.048685905 0.00041457376
0.0760427 0.041414432 -0.05908955 -0.04122141 -0.05964944 0.09533738 0.012657862 -0.04756781
-0.05440158 -0.077491194 -0.0345654 -0.02128652 -0.05919076 -0.054210775 -0.072050095 0.047832523
-0.06219904 0.016299311 0.090769134 0.05046017 -0.012411461 0.071809605 0.0380907 -0.082673974
0.035324432 -0.01694326 0.057267047 0.02221095 0.033405405 -0.04515687 -0.0015686135 -0.059700377
0.08126772 0.06331803 0.066248156 0.030619344 0.053973407 0.04804863 -0.057435837 0.08300306
-0.07486594 0.067059435 -0.068068355 -0.043422297 -0.030320395 -0.07619158 0.04661831 0.07852165
-0.027439749 -0.007957978 0.053061586 0.06377222 0.037005488 -0.012907976 -0.04866482 -0.012446082
-0.034564864 -0.010978123 0.02398208 -0.08320215 0.03644709 -0.082771115 -0.04269371 0.08475316
-0.04781253 -0.077927426 -0.059680577 0.014421292 0.042600527 -0.027674323 0.052270707 -0.1126088
-0.11870148 0.118806124 0.03869818 0.1288213 0.08561399 0.0027581318 0.08430527 0.012758683
-0.04766876 -0.061690684 0.01718173 -0.06044563 -0.01763332 -0.03918733 0.071340464 -0.014993956
0.056825895 -0.020965615 -0.08647344 0.026721055 0.07535994 0.10237445 -0.007866651 -0.015762458
0.06240174 0.07837959 -0.0627452 0.038478497 -0.024266165 0.060885645 -0.090650216 -0.011670221
0.057609722 0.01881626 0.027353413 -0.06767532 -0.015836162 0.09030411 -0.0066335686 0.07412982
-0.046069514 0.001586611 -0.08460725 -0.0049957572 0.045705028 0.07273395 0.074344456 0.008576139
0.04593433 -0.012043131 0.019696089 0.0012532881 0.053025626 0.07821694 0.079262905 0.036089543
0.021878434 -0.05030788 -0.09009518 0.069587894 -0.013429294 -0.080483 0.08164382 -0.025985332
-0.082424276 0.008855627 -0.0068264008 0.032992907 -0.031661738 -0.061438907 0.032493737 0.06159731
0.07084376 -0.08172608 0.006870492 -0.03692202 0.01618792 -0.0073455763 0.033915088 0.0313291
-0.0675099 0.062984504 0.08250963 -0.0017101903 -0.07567122 -0.009920956 0.0017397375 -0.006679038
-0.05536991 0.04647702 0.051872216 0.063246444 0.049170278 0.043620873 0.08199229 -0.035175163
-0.01136141 -0.039935324 -0.04562132 0.06364676 -0.053289823 0.05605963 -0.07924917 0.05424766
0.07052184 -0.082425065 0.08576381 -0.064674824 -0.03671541 0.050123427 -0.08419992 -0.0042799697
0.07157746 0.0028605487 -0.07694952 0.018443717 -0.065695226 0.044357195 0.06423305 -0.08734047
0.078786284 -0.039644506 0.0006078252 0.08349915 -0.025766801 0.031967293 0.063429706 -0.046290573
0.088845246 -0.072648235 0.07276265 0.064038016 -0.08206518 0.023471411 0.043704167 0.076573946
0.0139718475 -0.011397121 -0.010983925 -0.059196603 -0.018621603 -0.025629759 -0.08623781 0.075955115
-0.019935707 0.0139278835 -0.068332344 0.037580248 -0.00023945211 0.06573683 0.048624896 -0.044048753
00000000: 39b7 d53c c3be 883d 2266 9b3d 6f2c 893d
00000010: f362 3abd 3ecb 9c3c 2b57 003e 7f07 e9bc
00000020: 4a93 113d 6299 133d 9f1f 7bbd 490f 06bd
00000030: 4e8b 293d 6761 833d b191 2c3d 2c86 573d
00000040: af56 ca3c caf1 883d 6da9 d43c a69c 8a3d
00000050: e4b0 a3bc 46bc f0ba 8134 263c 937a 8c3d
00000060: c888 d8bc 5140 fe3b cf00 a8bd da95 363c
00000070: 2a39 843d 9feb cc3c df6a 47bd 265b d939
00000080: 46bc 9b3d 2ea2 293d e207 72bd c8d7 28bd
00000090: f952 74bd 3f40 c33d ec62 4f3c 77d6 42bd
000000a0: 31d4 5ebd b4b3 9ebd 7394 0dbd 1161 aebc
000000b0: 0372 72bd 1e0c 5ebd 008f 93bd 09ec 433d
000000c0: 6cc4 7ebd 2286 853c 2be5 b93d 53af 4e3d
000000d0: 7159 4bbc ea10 933d fe04 1c3d f950 a9bd
000000e0: 5ab0 103d 97cc 8abc da90 6a3d bdf3 b53c
000000f0: 1bd4 083d 69f6 38bd ef99 cdba 6288 74bd
00000100: b16f a63d e2ac 813d 1dad 873d 6bd5 fa3c
00000110: 3813 5d3d a4ce 443d d741 6bbd 82fd a93d
00000120: 5053 99bd 7556 893d 6c67 8bbd 94db 31bd
00000130: 7a62 f8bc 550a 9cbd d7f2 3e3d f5cf a03d
00000140: 53c9 e0bc 2e62 02bc 1b57 593d 029b 823d
00000150: 1193 173d fa7b 53bc c354 47bd a7ea 4bbc
00000160: e393 0dbd 96dd 33bc 1176 c43c e465 aabd
00000170: 8b49 153d e783 a9bd 9adf 2ebd 1193 ad3d
00000180: 12d7 43bd 6a98 9fbd 9f73 74bd 4847 6c3c
00000190: e47d 2e3d 43b5 e2bc cf19 563d 719f e6bd
000001a0: c319 f3bd a050 f33d fc81 1e3d bbe9 033e
000001b0: 6356 af3d c6c1 343b 3ea8 ac3d cc09 513c
000001c0: 5140 43bd 5faf 7cbd b3c0 8c3c d695 77bd
000001d0: c173 90bc e582 20bd f31a 923d 36a9 75bc
000001e0: 45c2 683d 15c0 abbc fd18 b1bd 1de6 da3c
000001f0: 5056 9a3d b2a9 d13d 20e3 00bc 4520 81bc
00000200: f898 7f3d 7a85 a03d 8e80 80bd a19b 1d3d
00000210: d6c9 c6bc 3a63 793d d2a6 b9bd 7434 3fbc
00000220: 2cf8 6b3d 8f24 9a3c 4414 e03c 5c99 8abd
00000230: d7ba 81bc 5cf1 b83d 685e d9bb 60d1 973d
00000240: 63b3 3cbd d5f5 cf3a 9146 adbd 73b3 a3bb
00000250: 3235 3b3d 8af5 943d e841 983d ef82 0c3c
00000260: a325 3c3d 8d50 45bc b159 a13c 5f45 a43a
00000270: 6631 593d 3430 a03d 9754 a23d a1d2 133d
00000280: 673a b33c a30f 4ebd d283 b8bd 1984 8e3d
00000290: 8b06 5cbc 45d4 a4bd e034 a73d 31df d4bc
000002a0: 0fce a8bd 3117 113c 00b0 dfbb 9223 073d
000002b0: bdaf 01bd 5da7 7bbd 2718 053d 764d 7c3d
000002c0: 8916 913d 0160 a7bd dd21 e13b 8b3b 17bd
000002d0: 879c 843c 29b3 f0bb 8cea 0a3d f152 003d
000002e0: a142 8abd 05fe 803d cffa a83d 7728 e0ba
000002f0: 83f9 9abd 818b 22bc e707 e43a d5db dabb
00000300: 8fcb 62bd b05e 3e3d f677 543d 5a87 813d
00000310: c666 493d cdab 323d 93eb a73d d513 10bd
00000320: 3525 3abc 3993 23bd 6cdd 3abd 3c59 823d
00000330: 6e46 5abd c89e 653d 644d a2bd cb32 5e3d
00000340: c16d 903d 79ce a8bd f0a4 af3d 3c74 84bd
00000350: e662 16bd 394e 4d3d 0271 acbd fd3e 8cbb
00000360: 3497 923d 0b78 3b3b b697 9dbd 4717 973c
00000370: 388b 86bd e4af 353d 9e8c 833d 8fdf b2bd
00000380: b45a a13d 4762 22bd 7556 1f3a 9a01 ab3d
00000390: e614 d3bc 23f0 023d 6fe7 813d 2f9b 3dbd
000003a0: 7ff4 b53d 99c8 94bd 9604 953d 5d26 833d
000003b0: ca11 a8bd 1e47 c03c 2403 333d cdd2 9c3d
000003c0: 2dea 643c fdba 3abc ecf5 33bc 2378 72bd
000003d0: 558c 98bc 80f5 d1bc 739d b0bd 5b8e 9b3d
000003e0: 3550 a3bc c731 643c d4f1 8bbd bfed 193d
000003f0: 7015 7bb9 08a1 863d e62a 473d 776c 34bd

conv6.bias f4 [16]
0.048865054 -0.06612938 0.033131134 -0.1163358 0.032015104 -0.02426552 -0.03885801 -0.03331279
-0.02864803 0.13780396 -0.011825344 0.045318186 0.29744187 -0.034558114 0.05242232 -0.022452425
00000000: b926 483d d76e 87bd 83b4 073d 7741 eebd
00000010: 4522 033d 7cc8 c6bc 9429 1fbd fe72 08bd
00000020: 46af eabc 7b1c 0d3e 16bf 41bc 909f 393d
00000030: 4d4a 983e cf8c 0dbd c9b8 563d 26ee b7bc
