data/output/Simple_Cnn_Full_NoRot_LR0005_b200_nodrop.pt (torch_old, 89379 bytes, 20 tensors)

conv0.weight f4 [3, 3, 5, 5]
-0.07720032 -0.03848035 0.0041959216 0.13366552 0.0014371381 0.10825669 0.0866145 -0.095931515
0.069672674 -0.12234458 -0.12929252 0.014399204 0.03415232 0.11886308 -0.063837096 -0.050833568
0.05528954 -0.15693355 0.099116 -0.1357663 -0.04083699 -0.04059363 -0.088343784 -0.009348043
0.122377716 -0.06264419 -0.09119005 -0.0554738 -0.14199565 0.062689826 -0.1043391 -0.10228673
-0.085401006 0.10670776 0.08439054 0.081026666 0.05079431 -0.06847466 -0.033415347 0.047769785
0.096874386 0.041108232 -0.0762889 -0.07627286 -0.14192429 -0.0028279035 -0.090438776 -0.14542072
0.12095741 -0.11533847 -0.026472963 0.040393878 0.016058337 -0.10058237 -0.13506858 0.105464384
0.024326995 0.14487295 -0.043909457 0.049966257 -0.065144815 -0.016100258 -0.09663989 0.066332355
0.061067846 -0.027480744 -0.042519 -0.09047627 0.104440026 -0.10468975 0.0456057 -0.05078485
-0.068114825 0.012871667 -0.07668816 -0.1464277 -0.02367763 -0.094395824 -0.052177075 -0.20675054
0.21613328 0.32294336 0.11479864 0.09037412 0.23681487 -0.35775408 -0.09485178 -0.21273325
-0.2500485 -0.25861776 0.33500272 0.2742316 0.22681339 0.03593553 0.052146588 -0.020757103
0.08539159 0.021152146 -0.12457456 -0.10713807 0.041496176 -0.13361901 -0.1258106 -0.0041778865
0.07979749 0.254651 -0.40444982 0.26677153 -0.08395142 0.19469024 0.1555118 -0.15076315
-0.13083269 -0.08151042 0.16285734 0.07118459 -0.10788232 0.10151348 -0.09769111 0.26150876
0.08514193 -0.1824629 -0.029895898 -0.13797218 0.05825187 0.09534921 0.14261945 0.2900973
0.086822756 0.13704185 -0.45198435 0.14579491 -0.32155037 -0.0068680337 -0.37473962 0.25309652
0.28001902 0.40162832 0.3196044 0.114364505 -0.44020912 -0.19980726 -0.34767637 -0.021967847
-0.26094732 -0.0075808754 0.081218824 -0.02306865 0.19951959 0.07347445 -0.04349648 -0.13024618
0.31693015 -0.41607112 0.012217451 0.17279331 -0.23203357 0.19509737 -0.19388007 0.17820586
-0.23319457 0.020943072 0.19567382 -0.28088906 0.054758802 0.045396548 -0.27009058 0.26880723
0.022304907 0.13638774 -0.13610406 0.05766316 0.30380455 -0.2759257 0.10276868 -0.04750257
0.37215608 -0.41653356 0.64336807 -0.25065225 -0.2022366 0.42224467 -0.30415878 0.2449265
-0.054482255 -0.1081987 0.108711936 -0.23270181 0.4838261 -0.27506644 -0.12296672 0.56815445
-0.40714726 0.33748442 -0.19494553 -0.018319342 0.25206402 -0.35737106 0.317084 -0.29300225
0.109426774 -0.18104309 0.10908836 -0.21799529 0.24225315 -0.022574363 -0.22317344 0.092615694
-0.05124265 -0.14923365 0.32373905 -0.19152816 0.057103872 -0.19594598 0.26210028 0.13124484
-0.32312343 0.21370311 -0.35814986 0.068631455 0.13157244 -0.32065672 0.09268962 -0.024419585
0.18471213
00000000: 341b 9ebd 929d 1dbd f17d 893b 9ddf 083e
00000010: 5a5e bc3a afb5 dd3d f162 b13d be77 c4bd
00000020: 8cb0 8e3d cc8f fabd 4265 04be a4ea 6b3c
00000030: 4ee3 0b3d 7d6e f33d 06bd 82bd dc36 50bd
00000040: 4977 623d 30b3 20be 54fd ca3d 5206 0bbe
00000050: b044 27bd 8245 26bd 96ed b4bd 8928 19bc
00000060: 2ba1 fa3d 994b 80bd d9c1 babd 7f38 63bd
00000070: 4f67 11be 8663 803d bdaf d5bd b57b d1bd
00000080: b9e6 aebd 9989 da3d f3d4 ac3d 4ff1 a53d
00000090: b20d 503d 713c 8cbd 88de 08bd 40aa 433d
000000a0: 1466 c63d 1b61 283d 5b3d 9cbd f234 9cbd
000000b0: 9a54 11be 5954 39bb f737 b9bd 2be9 14be
000000c0: 85b8 f73d 9336 ecbd d4dd d8bc 0d74 253d
000000d0: c68c 833c 21fe cdbd 6b4f 0abe b6fd d73d
000000e0: 6849 c73c 9359 143e 67da 33bd 6ba9 4c3d
000000f0: a56a 85bd b0e4 83bc 22eb c5bd 42d9 873d
00000100: 4722 7a3d 4c1f e1bc 6728 2ebd 9f4b b9bd
00000110: a7e4 d53d 9467 d6bd 0bcd 3a3d c603 50bd
00000120: c97f 8bbd afe3 523c af0e 9dbd 25f1 15be
00000130: 97f7 c1bc 9952 c1bd a1b7 55bd 6ab6 53be
00000140: 0b52 5d3e d558 a53e 8d1b eb3d 1116 b93d
00000150: 997f 723e 8b2b b7be a641 c2bd bfd6 59be
00000160: 5b06 80be 8c69 84be 7a85 ab3e 1668 8c3e
00000170: c541 683e 2231 133d a997 553d cd0a aabc
00000180: c9e1 ae3d 4447 ad3c f220 ffbd 346b dbbd
00000190: e5f7 293d 6cd3 08be 7ed4 00be a7e6 88bb
000001a0: de6c a33d 9e61 823e 0c14 cfbe 4796 883e
000001b0: b9ee abbd e15c 473e 7c3e 1f3e a861 1abe
000001c0: 01f9 05be efee a6bd 13c4 263e 3ac9 913d
000001d0: 68f1 dcbd 4de6 cf3d 4712 c8bd 7ae4 853e
000001e0: e45e ae3d 8ed7 3abe 3ee8 f4bc 9448 0dbe
000001f0: 8399 6e3d 7246 c33d d50a 123e a287 943e
00000200: 21d0 b13d b354 0c3e 7e6a e7be 434b 153e
00000210: 40a2 a4be 3e0d e1bb dfdd bfbe de95 813e
00000220: a75e 8f3e 3aa2 cd3e 30a3 a33e f037 ea3d
00000230: 1763 e1be 469a 4cbe a302 b2be eaf5 b3bc
00000240: e39a 85be fe68 f8bb 0e56 a63d 77fa bcbc
00000250: dd4e 4c3e c679 963d 5d29 32bd 415f 05be
00000260: ab44 a23e 4607 d5be b42b 483c bbf0 303e
00000270: 359a 6dbe 9bc7 473e 7f88 46be 997b 363e
00000280: 8fca 6ebe ce90 ab3c b85e 483e b1d0 8fbe
00000290: c44a 603d bbf1 393d 5049 8abe 1aa1 893e
000002a0: c8b8 b63c 3aa9 0b3e dd5e 0bbe 3530 6c3d
000002b0: 458c 9b3e 2246 8dbe 6378 d23d 0e92 42bd
000002c0: 3e8b be3e e343 d5be c5b3 243f 7e55 80be
000002d0: 1c17 4fbe 7430 d83e b3ba 9bbe 03ce 7a3e
000002e0: c928 5fbd 4897 ddbd 5da4 de3d 6249 6ebe
000002f0: 0eb8 f73e 82d5 8cbe fad5 fbbd 9272 113f
00000300: 9b75 d0be c2ca ac3e cd9f 47be 7212 96bc
00000310: 890e 813e 57f9 b6be d658 a23e 6404 96be
00000320: 251b e03d 5c63 39be b869 df3d 283a 5fbe
00000330: 3611 783e dfed b8bc 9487 64be 4cad bd3d
00000340: d0e3 51bd b5d0 18be 20c1 a53e f51f 44be
00000350: c0e5 693d 10a6 48be 0232 863e 0c65 063e
00000360: 6f70 a5be fdd4 5a3e 6b5f b7be a68e 8c3d
00000370: edba 063e 1e2d a4be 0ed4 bd3d 950b c8bc
00000380: 2d25 3d3e

conv0.bias f4 [3]
-0.0036297836 -0.0009887365 0.041707475
00000000: aae1 6dbb 7e98 81ba 75d5 2a3d

conv1.weight f4 [30, 3, 5, 5]
-0.00024919587 -0.000120914774 -0.00025550145 0.00024260854 -3.8426137e-05 -0.00017943271 -0.00014031243 -0.00020627616
0.0004969996 0.000100099125 -0.00010794669 -9.505128e-05 -0.79468584 0.7954035 -7.4350887e-06 -0.00023482095
-0.00024271675 -8.323229e-05 0.00066111446 -0.00016204249 -0.0004201055 -0.00018698593 -4.5650064e-05 0.00063688535
-0.00020246784 0.008034994 0.011817029 0.009837215 0.009063545 0.0038382532 0.011107804 0.015433165
0.80669487 0.012211217 0.0063874153 0.0022647218 0.0039512753 -0.79218155 0.0024672723 -0.0025738722
-0.010395449 -0.008327908 -0.010821586 -0.010006474 -0.01492177 -0.007906242 -0.006373838 -0.00933414
-0.007219983 -0.012864969 0.0005129354 -0.0039768196 -0.0014405578 -0.009341981 -0.0045477506 0.0009675543
-0.0011737236 -0.00078895 -0.008757846 -0.0041823904 0.0026385586 0.7949972 -0.79343385 -0.007093777
-0.0019623234 0.0026367374 -0.002162742 -0.00023011923 -0.008314433 -0.0029609946 0.0013906808 -0.0052227783
-0.0025306223 -0.009872365 -0.003524092 -0.00016336874 2.5666839e-05 -6.215626e-05 0.0002967023 -5.08711e-05
-0.0002456101 -0.00025355376 -0.00026654886 9.494294e-05 -0.0001958491 -0.000118813616 -4.0174264e-06 -0.7945785
0.00045021554 -4.32068e-05 -0.00016039779 7.4662275e-05 0.7946498 0.00036451232 1.659191e-05 -6.783909e-05
0.00029908988 0.00015800649 0.000350732 1.514856e-05 0.001767966 0.00545176 0.007284239 0.014154204
0.009336968 0.0002797726 0.0038436134 0.005481817 0.8089668 0.009141784 -0.0014067007 -0.0031346197
-0.7962969 0.0067878994 0.0036976729 -0.014083071 -0.014451974 -0.016611714 -0.008727187 -0.012650345
-0.0071837106 -0.007196265 -0.009569228 -0.0039987285 -0.008844516 0.010945963 0.0026747086 0.0037746076
-0.012446325 -0.008504958 0.008595344 0.7972934 0.0017071622 -0.012463944 -0.007669601 0.0060433717
-0.0015633878 -0.79479784 -0.014053934 -0.008977284 0.001981267 -0.0072997557 -0.005233552 -0.017720692
-0.011886439 0.0035698987 -0.0077271806 -0.0030011123 -0.015618765 -0.0069639934 -0.0021813149 -0.0025737197
-0.0014245963 -0.0019438007 -0.001776582 -0.0018048575 -0.0019311004 -0.0011793758 -0.0017117378 -0.0013733332
-0.0016759691 -0.0019443393 -0.7960005 -0.0019710597 -0.0013427116 -0.0019079254 0.7918505 -0.0017888566
-0.0020604585 -0.001478618 -0.0018889852 -0.002660647 -0.0018311327 -0.0021707448 -0.0015928191 0.041761022
0.031312127 0.049430195 0.024974393 0.04766787 0.027212543 0.014273051 0.033199243 0.0038615079
0.030553678 0.014130321 0.0071045416 -0.77702326 -0.008982381 0.012628555 0.006497449 -0.009520188
0.0031706414 0.766907 -0.0019716003 -0.00847527 -0.020461068 -0.005143684 -0.03297525 -0.009260396
-0.016807865 0.034132205 -0.025674153 0.044110063 -0.018743267 -0.009583276 0.034734342 -0.016760016
0.042823523 -0.015943602 -0.006281086 0.83279157 -1.6023017 0.83620065 -0.014417103 -0.008514213
0.038828302 -0.019960992 0.039999727 -0.01764473 -0.018594323 0.03525545 -0.031971693 0.03339823
-0.027746934 -0.00072627503 -0.00039215563 -0.00072605035 -0.0006358832 -0.00048518163 -0.00069584185 -0.00035702606
0.79398084 -0.00046596638 -0.00038602506 -0.00063664763 -0.00025016925 -1.5894706 -0.00050161977 -0.00050931395
-0.00074839965 -0.0004030301 0.79386264 -0.00060057355 -0.0006124349 -0.00070561044 -0.00039915295 -0.00053521286
-0.0005713567 -0.0005307496 -0.0048281937 -0.0054234294 0.012138094 0.009450399 0.018941892 -0.0053174826
00000000: 81a6 82b9 a093 fdb8 d3f4 85b9 bc64 7e39
00000010: c02b 21b8 1a26 3cb9 d520 13b9 d64b 58b9
00000020: 1449 023a 4fec d138 7061 e2b8 4456 c7b8
00000030: 8870 4bbf 909f 4b3f ed7a f9b6 453a 76b9
00000040: c881 7eb9 ff8c aeb8 a44e 2d3a f3e9 29b9
00000050: 9b41 dcb9 a711 44b9 6278 3fb8 a7f4 263a
00000060: 8c4d 54b9 35a5 033c 369c 413c 452c 213c
00000070: 437f 143c 348b 7b3b 82fd 353c 63db 7c3c
00000080: 8e83 4e3f 8e11 483c 864d d13b ba6b 143b
00000090: b379 813b 69cc 4abf f6b1 213b 69ae 28bb
000000a0: ac51 2abc c771 08bc 054d 31bc 32f2 23bc
000000b0: 717a 74bc 2f89 01bc a1db d0bb 39ee 18bc
000000c0: 9b95 ecbb 97c7 52bc 8376 063a fb4f 82bb
000000d0: 19d1 bcba 1c0f 19bc 4c05 95bb 78a3 7d3a
000000e0: a1d7 99ba 8ad1 4eba 127d 0fbc 6f0c 89bb
000000f0: abeb 2c3b f084 4b3f 7b1e 4bbf ea72 e8bb
00000100: 539a 00bb 1dcd 2c3b cabc 0dbb 294c 71b9
00000110: 4239 08bc 3f0d 42bb 8147 b63a d723 abbb
00000120: ccd8 25bb b3bf 21bc 74f4 66bb f64d 2bb9
00000130: 1e4f d737 e359 82b8 b58e 9b39 6d5e 55b8
00000140: 3bc5 80b9 69ef 84b9 95bf 8bb9 1a1c c738
00000150: d85c 4db9 932b f9b8 6ecd 86b6 7f69 4bbf
00000160: e80a ec39 f338 35b8 7430 28b9 0194 9c38
00000170: 2b6e 4b3f 041c bf39 db2e 8b37 d644 8eb8
00000180: 2acf 9c39 8bae 2539 74e2 b739 9226 7e37
00000190: 18bb e73a ada4 b23b a0b0 ee3b 09e7 673c
000001a0: 15fa 183c 71ae 9239 22e5 7b3b d0a0 b33b
000001b0: 7318 4f3f 6cc7 153c 0b61 b8ba 316e 4dbb
000001c0: 1dda 4bbf 076d de3b a854 723b aebc 66bc
000001d0: f9c7 6cbc 4a15 88bc 7afc 0ebc 6543 4fbc
000001e0: 5565 ebbb a5ce ebbb 40c8 1cbc c407 83bb
000001f0: 97e8 10bc b256 333c 2a4a 2f3b 685f 773b
00000200: aceb 4bbc 6158 0bbc 7cd3 0c3c 6c1b 4c3f
00000210: dcc2 df3a 9235 4cbc 4751 fbbb 7a07 c63b
00000220: 97ea ccba df77 4bbf 7942 66bc 7515 13bc
00000230: 25d8 013b ca32 efbb 377e abbb fc2a 91bc
00000240: 57bf 42bc f6f4 693b 4a34 fdbb 4fae 44bb
00000250: d9e5 7fbc 3632 e4bb 64f4 0ebb daab 28bb
00000260: 85b9 baba 21c7 feba 33dc e8ba f890 ecba
00000270: fa1c fdba 4995 9aba 645c e0ba 6a01 b4ba
00000280: 31ac dbba 33d9 feba b0c6 4bbf e52c 01bb
00000290: edfd afba 5a13 faba b7b6 4a3f 1178 eaba
000002a0: c208 07bb 30ce c1ba d397 f7ba 405e 2ebb
000002b0: 9e02 f0ba 0e43 0ebb 24c6 d0ba 9b0d 2b3d
000002c0: 2541 003d 5177 4a3d 1997 cc3c 623f 433d
000002d0: d7ec de3c 84d9 693c eefb 073d 5a11 7d3b
000002e0: b54b fa3c dd82 673c 37cd e83b ffea 46bf
000002f0: d62a 13bc 00e8 4e3c 8de8 d43b 90fa 1bbc
00000300: 89ca 4f3b 0454 443f f735 01bb dcdb 0abc
00000310: f89d a7bc 598c a8bb 0e11 07bd eab8 17bc
00000320: a6b0 89bc 36ce 0b3d 9a52 d2bc c1ac 343d
00000330: 7b8b 99bc 2c03 1dbc 9945 0e3d 4d4c 89bc
00000340: b867 2f3d 289c 82bc 91d1 cdbb d431 553f
00000350: 3918 cdbf 3f11 563f b635 6cbc 337f 0bbc
00000360: 6d0a 1f3d 3c85 a3bc c1d6 233d ae8b 90bc
00000370: 1f53 98bc 0568 103d c0f4 02bd 95cc 083d
00000380: 8a4d e3bc 7e63 3eba 3d9a cdb9 6a54 3eba
00000390: 66b1 26ba fa5f feb9 2869 36ba 3a2f bbb9
000003a0: 5442 4b3f f34c f4b9 6863 cab9 b3e4 26ba
000003b0: 2629 83b9 c673 cbbf 227f 03ba 7b83 05ba
000003c0: 4030 44ba c94d d3b9 953a 4b3f cf6f 1dba
000003d0: cf8b 20ba b7f8 38ba 6745 d1b9 874d 0cba
000003e0: 19c7 15ba 0122 0bba d335 9ebb 06b7 b1bb
000003f0: dbde 463c d9d5 1a3c 072c 9b3c 473e aebb

conv1.bias f4 [30]
-0.04024736 -0.04039311 0.0083477 -0.014194259 -0.03207065 -0.033546723 0.04313701 0.010995152
-0.092134304 -0.07451267 -0.0050434503 -0.042345352 0.008403506 -0.022837255 -0.022466252 -0.03972266
0.01707057 -0.035226475 0.0019806488 -0.07328561 -0.008595656 -0.010170934 0.080994904 -0.029404461
0.02181911 -0.028871391 0.056452062 -0.036152326 -0.13696042 0.04179244
00000000: 6ada 24bd 3f73 25bd cbc4 083c 0a8f 68bc
00000010: 845c 03bd 4a68 09bd 6fb0 303d 0325 343c
00000020: e9b0 bcbd 199a 98bd 8743 a5bb 5272 2dbd
00000030: dcae 093c 3215 bbbc 250b b8bc 3ab4 22bd
00000040: 94d7 8b3c a349 10bd c6cd 013b c416 96bd
00000050: cbd4 0cbc fda3 26bc a8e0 a53d a0e1 f0bc
00000060: fdbd b23c b283 ecbc 473a 673d 7614 14bd
00000070: 5a3f 0cbe 8d2e 2b3d

conv2.weight f4 [16, 30, 3, 3]
0.061324243 0.010381855 0.101459324 -0.07776809 -0.037707448 0.041104853 0.067003116 -0.03155994
0.045561902 -0.034573894 -0.03997095 0.07101339 0.012170357 -0.05217733 0.013438043 0.10068345
0.0368977 -0.0042929864 -0.051398207 -0.088822976 0.022912301 -0.032095585 -0.0792005 -0.02391406
-0.006517098 -0.02961988 -0.041108925 -0.11104016 -0.020647023 -0.046630632 -0.020575874 -0.07466252
0.02073764 -0.07830478 -0.04942487 -0.06378133 -0.059478443 -0.0045615262 -0.047249548 -0.05029723
0.0066633066 0.035391815 -0.055712517 0.0417822 0.021253107 0.05756392 -0.0010167799 0.070185885
-0.100591324 0.019657748 -0.09183995 0.024041943 -0.053772904 -0.03527284 0.10356213 0.11376671
0.0069996365 -0.024698354 0.08066311 -0.014619118 -0.010563958 -0.044393253 0.12170804 -0.039609827
-0.021869827 -0.09405171 0.0027503169 -0.1263239 -0.06555617 -0.058803137 0.01058735 -0.049860656
0.049151555 0.106079794 0.07753789 0.12099028 0.015604808 0.09677979 0.038945377 0.030269967
0.05577696 0.08716159 0.0017904671 0.0038354185 -0.024298921 -0.045765933 0.061918452 0.015554763
-0.009651959 0.037000712 0.019368807 -0.009830426 0.08669075 0.062128272 0.029527519 -0.040259644
-0.03741106 0.08455573 0.021248385 -0.07018382 0.003604322 0.03852216 0.042340357 0.09747537
0.018630765 0.0035759322 0.081344 -0.00070489605 0.0023010338 -0.09878935 -0.0611329 -0.0994973
-0.014851086 -0.09945408 0.043828342 -0.06982452 -0.09290601 -0.010772488 -0.058513213 -0.06919967
0.05558562 0.019543298 0.004660943 0.032870103 -0.0455612 -0.0051402887 0.07250599 -0.05755585
0.022989929 0.06169364 -0.028041769 0.06227465 -0.045062575 -0.039392594 0.006417102 -0.028004257
-0.032523267 -0.024470022 0.008906322 -0.057941884 -0.07967688 -0.08788905 0.08041048 -0.00958697
0.0698866 -0.06407263 0.017863393 -0.0400243 0.023317313 0.11456969 0.10727553 -0.0041813217
-0.023112496 -0.1170838 -0.08046559 0.0012536324 -0.09245274 0.022950187 -0.06533332 0.051568482
-0.060079955 -0.049825795 0.0981018 0.10887142 0.125779 0.115041025 -0.03679776 0.09909563
0.006051578 0.109777056 0.116625525 -0.012494629 0.03509537 0.03558149 0.057081427 0.08094759
0.036399473 0.0069416785 0.02947324 0.030199602 -0.07778515 0.03460161 -0.059352092 0.0619445
0.08878853 0.014456027 0.08027601 0.0018093161 0.059486557 0.06107931 -0.06519901 -0.060608897
-0.0075185234 0.05449174 -0.001774894 -0.0042164056 0.07067844 0.09866928 0.01786916 0.009407852
0.03111284 -0.010355464 -0.10450281 -0.11205212 -0.116414964 -0.10800873 0.049791414 -0.024896622
-0.08140336 0.007156316 -0.015265339 -0.07002173 -0.10405817 0.0067911977 -0.013778712 -0.05086614
-0.07366226 -0.042058486 0.06780274 -0.09540918 -0.051848963 -0.04629014 0.066112414 -0.01599081
0.04639408 -0.02939482 -0.02960768 0.041179772 -0.054207258 0.04434153 0.06932388 0.019520508
0.038139485 -0.093758404 0.1275844 -0.01609177 0.10223953 0.07655053 0.052391823 0.069813654
-0.043104075 0.13559642 0.037523415 0.051491495 -0.026288286 -0.06588586 0.028501013 -0.027036037
-0.08716515 -0.020869212 -0.12806597 -0.0876568 -0.035555452 0.04876592 -0.0033168127 0.048336685
00000000: 212f 7b3d a818 2a3c e8c9 cf3d e044 9fbd
00000010: 2073 1abd 905d 283d ee38 893d ff44 01bd
00000020: 1e9f 3a3d 5b9d 0dbd 94b8 23bd 786f 913d
00000030: 2d66 473c e5b7 55bd 3d2b 5c3c 2033 ce3d
00000040: 0b22 173d 2eac 8cbb ed86 52bd d2e8 b5bd
00000050: 94b2 bb3c a976 03bd df33 a2bd 6be7 c3bc
00000060: 618d d5bb 64a5 f2bc d561 28bd 0669 e3bd
00000070: f223 a9bc c3ff 3ebd bc8e a8bc aae8 98bd
00000080: fce1 a93c 425e a0bd bc71 4abd c99f 82bd
00000090: ab9f 73bd db78 95bb be88 41bd 7804 4ebd
000000a0: de57 da3b 02f7 103d cf32 64bd d023 2b3d
000000b0: ff1a ae3c 25c8 6b3d 7945 85ba 9ebd 8f3d
000000c0: d302 cebd 4909 a13c 9516 bcbd 9cf3 c43c
000000d0: fa40 5cbd 417a 10bd 6218 d43d 85fe e83d
000000e0: 355d e53b 3454 cabc b332 a53d 0685 6fbc
000000f0: 7414 2dbc b3d5 35bd 1142 f93d ea3d 22bd
00000100: 5a28 b3bc 2f9e c0bd a93e 343b 0d5b 01be
00000110: 5042 86bd 8fdb 70bd 9176 2d3c b03a 4cbd
00000120: 2453 493d 5d40 d93d 2fcc 9e3d c0c9 f73d
00000130: 4fab 7f3c 7c34 c63d 3085 1f3d b9f8 f73c
00000140: 6276 643d c781 b23d 1bae ea3a a55b 7b3b
00000150: 880e c7bc 0f75 3bbd 349e 7d3d 68d9 7e3c
00000160: 4023 1ebc 0f8e 173d 55ab 9e3c cc0f 21bc
00000170: ec8a b13d 377a 7e3d b2e3 f13c 4ce7 24bd
00000180: 573c 19bd 8e2b ad3d 1811 ae3c 89bc 8fbd
00000190: 7d36 6c3b 6ac9 1d3d 156d 2d3d 2ba1 c73d
000001a0: 8c9f 983c 305a 6a3b af97 a63d c6c8 38ba
000001b0: f1cc 163b 1252 cabd 7e66 7abd 3ec5 cbbd
000001c0: f851 73bc 95ae cbbd 5985 333d 2800 8fbd
000001d0: 8245 bebd 177f 30bc 8dab 6fbd 8eb8 8dbd
000001e0: bfad 633d 4419 a03c d3ba 983b cda2 063d
000001f0: 619e 3abd de6f a8bb 057e 943d afbf 6bbd
00000200: 6055 bc3c 78b2 7c3d dab7 e5bc b413 7f3d
00000210: 8993 38bd 215a 21bd 8e46 d23b 2f69 e5bc
00000220: 1e37 05bd 5b75 c8bc d2eb 113c 7854 6dbd
00000230: a22d a3bd 2dff b3bd 40ae a43d ab12 1dbc
00000240: b520 8f3d 8338 83bd 4056 923c 85f0 23bd
00000250: f303 bf3c 83a3 ea3d 46b3 db3d 7803 89bb
00000260: 6b56 bdbc a2c9 efbd 25cb a4bd ec50 a43a
00000270: dd57 bdbd 0802 bc3c 7acd 85bd 7939 533d
00000280: 6616 76bd 2216 4cbd 99e9 c83d fbf7 de3d
00000290: 36cc 003e a19a eb3d 3fb9 16bd a6f2 ca3d
000002a0: 514c c63b cbd2 e03d 5dd9 ee3d 46b6 4cbc
000002b0: 2ac0 0f3d e5bd 113d 37ce 693d dac7 a53d
000002c0: 9d17 153d 0577 e33b dd71 f13c 2865 f73c
000002d0: d24d 9fbd 6bba 0d3d 2e1b 73bd 84b9 7d3d
000002e0: c3d6 b53d f9d8 6c3c c067 a43d 9326 ed3a
000002f0: 2da8 733d 4c2e 7a3d 0f87 85bd 0941 78bd
00000300: f25d f6bb bb32 5f3d 8fa3 e8ba c629 8abb
00000310: dcbf 903d 1f13 ca3d 5862 923c 6423 1a3c
00000320: 5be0 fe3c f7a9 29bc 9205 d6bd 957b e5bd
00000330: f86a eebd ae33 ddbd 15f2 4b3d 00f4 cbbc
00000340: ceb6 a6bd 887f ea3b 791b 7abc 8e67 8fbd
00000350: 731c d5bd b288 de3b 1bc0 61bc 0359 50bd
00000360: 3ddc 96bd 8545 2cbd 2adc 8a3d e365 c3bd
00000370: 945f 54bd bb9a 3dbd f265 873d 29ff 82bc
00000380: b807 3e3d 68cd f0bc ce8b f2bc 1fac 283d
00000390: 6e08 5ebd 779f 353d aef9 8d3d 79e9 9f3c
000003a0: 2638 1c3d 6804 c0bd 7ca5 023e e3d2 83bc
000003b0: f562 d13d 86c6 9c3d cf98 563d 76fa 8e3d
000003c0: e68d 30bd cad9 0a3e 27b2 193d bfe8 523d
000003d0: 885a d7bc 2aef 86bd f57a e93c ae7a ddbc
000003e0: a483 b2bd e9f5 aabc ba23 03be 6985 b3bd
000003f0: 98a2 11bd c6be 473d e25e 59bb b0fc 453d

conv2.bias f4 [16]
-0.08063095 -0.020657778 -0.0700445 -0.017972818 -0.043017358 0.03349628 0.02505762 -0.05326593
0.008234431 -0.03693647 0.04388957 -0.038163386 -0.0207144 -0.037529763 -0.026033077 0.03376175
00000000: d721 a5bd 803a a9bc 7e73 8fbd bb3b 93bc
00000010: f832 30bd 6533 093d a345 cd3c 602d 5abd
00000020: b5e9 063c b24a 17bd 8dc5 333d 3651 1cbd
00000030: 3fb1 a9bc cfb8 19bd 5243 d5bc c349 0a3d

conv3.weight f4 [16, 16, 3, 3]
0.17184058 0.02455412 -0.03570785 0.1802495 0.10126469 0.102669045 0.029848855 0.18359862
0.17409748 -0.09896696 0.04226307 0.09268133 -0.091509685 0.026923282 -0.061835196 0.07826221
0.07430849 0.04939522 -0.031372067 0.090738416 -0.028849222 0.0734492 0.04947905 -0.09808941
-0.07857766 -0.015118656 -0.0996347 -0.025227966 0.0685599 0.10903072 0.0020025105 -0.01643253
-0.07549679 0.047985293 0.025751526 0.060735457 -0.10959455 -0.0018142847 -0.06389951 -0.07581101
0.04834245 -0.10379671 -0.08370349 0.069813125 -0.09218454 0.019248933 -0.09306817 -0.14059646
-0.06395147 -0.123456605 -0.037413087 0.0023340434 -0.1624416 -0.15986194 0.019824257 0.03460167
0.13742553 0.12453106 -0.03244368 0.10465672 0.103887685 -0.055183157 0.102376185 0.108036935
-0.028597124 0.096773416 0.10799985 0.027533729 0.0016409551 0.094427 0.07723731 0.10736799
-0.075876996 0.039768748 0.06857295 -0.07308576 0.023027712 -0.06097559 -0.084271535 0.111004375
-0.092750855 -0.056095295 0.14392518 0.1211312 0.076649174 0.12975349 0.056034382 0.01923334
0.033161405 0.07600031 -0.119894564 -0.11171229 -0.049410205 0.0026039856 0.06753731 -0.06258937
-0.10750511 -0.111403726 -0.01081722 -0.074693315 -0.02802775 -0.07608717 0.049086653 -0.04096112
-0.08228901 0.033271093 -0.007295123 0.06862895 0.031592578 0.06985929 0.0648123 -0.036046796
0.11455936 0.04327098 0.015666317 0.03982222 0.12990546 0.086388014 0.099470176 -0.06247778
-0.026522057 0.026335454 -0.013501382 -0.018967645 0.088288054 -0.05905508 -0.079462945 0.0025321988
-0.07156724 -0.07883051 -0.099436164 0.06147829 -0.09375614 -0.045302846 0.037587106 -0.10571333
0.00069228595 -0.054306198 -0.08138984 0.016650798 0.0280093 0.06984959 0.10920415 0.025198707
-0.00044954158 -0.06000579 -0.03112948 -0.10418718 -0.102824375 -0.08712794 0.08282233 0.050759144
0.10666225 0.07740341 0.079634 0.023524804 0.059659407 0.043106586 -0.08945565 -0.089581296
0.094234586 0.07337508 -0.028323622 -0.06522039 -0.08012335 -0.08802432 -0.03654646 0.00966473
0.0036137009 0.042474475 0.014015299 0.029459657 0.0860627 0.026546651 -0.006691471 0.05748259
0.03997282 0.04895193 -0.030362241 -0.11391022 -0.03891714 0.093733594 -0.038977545 -0.0572459
-0.04847963 0.07065981 0.10772999 -0.10818567 -0.03900715 0.09504585 0.031206582 0.077554114
-0.08916532 0.06962817 -0.056521174 -0.07355869 -0.047321726 -0.08498788 0.035896104 0.08174023
-0.0728781 0.042241387 -0.0844633 0.06438687 -0.0068006227 0.01090383 -0.08740462 0.042205073
0.043794073 -0.04010932 -0.049015757 0.090336196 0.082053915 -0.058281645 0.041186646 -0.04858857
-0.107271165 -0.0052441997 -0.09688553 -0.05284581 -0.006878514 -0.07298365 0.06815336 -0.03337367
-0.0890851 0.019349162 0.028898286 -0.029577563 -0.08567082 0.053084426 -0.037527926 -0.045839883
0.09572447 -0.063124426 0.06481115 0.00065239985 -0.025738033 -0.07222122 0.11057324 0.010655274
0.015420747 -0.0921329 0.0803628 -0.0011231691 0.050929222 0.077831335 0.027352825 0.06717771
-0.053361796 0.048059493 0.04688024 0.05777254 -0.036834158 0.06622804 0.10133936 -0.054812834
00000000: faf6 2f3e b925 c93c 6542 12bd 5393 383e
00000010: dd63 cf3d 2644 d23d 9685 f43c 4701 3c3e
00000020: 9c46 323e 31af cabd 0a1c 2d3d b6cf bd3d
00000030: 6e69 bbbd 378e dc3c e746 7dbd f047 a03d
00000040: 0d2f 983d a452 4a3d ff7f 00bd 10d5 b93d
00000050: 3455 ecbc 896c 963d 8baa 4a3d 1ae3 c8bd
00000060: 53ed a0bd 3db4 77bc 470d ccbd e1aa cebc
00000070: 2269 8c3d 804b df3d 8d3c 033b 839d 86bc
00000080: 109e 9abd 3a8c 443d ddf4 d23c bec5 783d
00000090: 1c73 e0bd 4bcd edba bfdd 82bd ce42 9bbd
000000a0: bc02 463d 5f93 d4bd bc6c abbd 2ffa 8e3d
000000b0: 40cb bcbd f0af 9d3c 869a bebd 85f8 0fbe
000000c0: fdf8 82bd d1d6 fcbd 773e 19bd c0f6 183b
000000d0: 1757 26be d9b2 23be 7b66 a23c 7bba 0d3d
000000e0: 47b9 0c3e 240a ff3d aae3 04bd 4356 d63d
000000f0: 11c3 d43d bc07 62bd 9baa d13d 7842 dd3d
00000100: 8444 eabc 2431 c63d 062f dd3d 6a8e e13c
00000110: 5115 d73a f162 c13d 982e 9e3d c0e3 db3d
00000120: 6665 9bbd 8ee4 223d fa6f 8c3d fdad 95bd
00000130: 9da4 bc3c 8ac1 79bd 8e96 acbd 4356 e33d
00000140: 29f4 bdbd 2ec4 65bd 1f61 133e a213 f83d
00000150: 3efa 9c3d 19de 043e 4f84 653d 3d8f 9d3c
00000160: 41d4 073d 0da6 9b3d 488b f5bd 6ac9 e4bd
00000170: 5b62 4abd a1a7 2a3b 0051 8a3d db2e 80bd
00000180: a42b dcbd a327 e4bd b63a 31bc cff8 98bd
00000190: 749a e5bc 97d3 9bbd 160f 493d d9c6 27bd
000001a0: 2487 a8bd 4547 083d ed0b efbb 568d 8c3d
000001b0: 3867 013d 6312 8f3d 50bc 843d cea5 13bd
000001c0: 199e ea3d e93c 313d a656 803c a01c 233d
000001d0: f005 053e 33ec b03d 05b7 cb3d b3e8 7fbd
000001e0: c944 d9bc 73bd d73c e734 5dbc 0962 9bbc
000001f0: 5ed0 b43d bde3 71bd 78bd a2bd 3ff3 253b
00000200: d891 92bd e471 a1bd 30a5 cbbd a9d0 7b3d
00000210: 3803 c0bd 7a8f 39bd f0f4 193d 3b80 d8bd
00000220: 867a 353a 2d70 5ebd b7af a6bd 4167 883c
00000230: c273 e53c 4d0d 8f3d 6da6 df3d 856d ce3c
00000240: 73b0 ebb9 a2c8 75bd 4003 ffbc 1760 d5bd
00000250: 9695 d2bd 2270 b2bd c19e a93d d2e8 4f3d
00000260: bd71 da3d ae85 9e3d 2717 a33d 17b7 c03c
00000270: 6c5d 743d 8890 303d 8634 b7bd 6676 b7bd
00000280: 10fe c03d ad45 963d f106 e8bc 4592 85bd
00000290: b617 a4bd 1846 b4bd beb1 15bd d158 1e3c
000002a0: d7d3 6c3b b7f9 2d3d 6da0 653c 6155 f13c
000002b0: a441 b03d 5d78 d93c 2144 dbbb dd72 6b3d
000002c0: 8aba 233d d281 483d 3cba f8bc c349 e9bd
000002d0: 9467 1fbd 66f7 bf3d eba6 1fbd ad7a 6abd
000002e0: 9492 46bd 17b6 903d 8aa1 dc3d 7390 ddbd
000002f0: f6c5 1fbd 66a7 c23d f2a4 ff3c b1d4 9e3d
00000300: 4f9c b6bd 3799 8e3d bf82 67bd f0a5 96bd
00000310: 6dd4 41bd 200e aebd cb07 133d 6c67 a73d
00000320: 1d41 95bd 4e05 2d3d 18fb acbd 43dd 833d
00000330: c2d7 debb faa5 323c 3201 b3bd 3adf 2c3d
00000340: 6a61 333d ac49 24bd bfc4 48bd 2f02 b93d
00000350: e20b a83d bcb8 6ebd 54b3 283d cf04 47bd
00000360: fcb0 dbbd 89d7 abbb ec6b c6bd d974 58bd
00000370: 2865 e1bb 7478 95bd fd93 8b3d d4b2 08bd
00000380: 4072 b6bd 2282 9e3c 19bc ec3c a54c f2bc
00000390: 2f74 afbd 0e6f 593d e2b6 19bd 9ac2 3bbd
000003a0: 310b c43d 6147 81bd b5bb 843d d005 2b3a
000003b0: 91d8 d2bc b8e8 93bd 3974 e23d 7593 2e3c
000003c0: 4da7 7c3c 2db0 bcbd 4095 a43d 4d37 93ba
000003d0: 299b 503d 0966 9f3d 0813 e03c 7894 893d
000003e0: e691 5abd 08da 443d 7f05 403d e6a2 6c3d
000003f0: 6adf 16bd 91a2 873d 038b cf3d 6c83 60bd

conv3.bias f4 [16]
0.055716835 0.0042769737 0.09551618 -0.03148421 -0.05073778 -0.035949443 0.011909305 0.10909062
0.0879809 0.025735578 0.04695153 0.0014655648 0.09415585 0.015090931 -0.01586082 0.0020306262
00000000: 5637 643d db25 8c3b fd9d c33d 96f5 00bd
00000010: 6bd2 4fbd b93f 13bd 3f1f 433c e76a df3d
00000020: 552f b43d 6bd3 d23c 3f50 403d 3218 c03a
00000030: c8d4 c03d f43f 773c 8dee 81bc 4114 053b

conv4.weight f4 [16, 16, 3, 3]
0.014033591 -0.09990439 0.06658615 0.04824969 0.023273103 -0.023523273 0.10470461 -0.09537923
0.060550522 0.1002454 0.040181696 0.094026685 -0.070194885 0.10284931 0.08414976 -0.04812922
0.09809481 -0.052026182 -0.09709459 0.10791509 0.035347007 0.06365651 0.028089013 0.016672514
0.037829995 0.04229215 -0.07692191 0.07545111 0.008087737 0.050866753 -0.09943935 -0.07050809
-0.050872847 -0.09337849 0.089108326 0.017706292 -0.0832385 -0.07019663 -0.025988257 0.09766761
-0.047070395 0.10284503 0.06257711 -0.08284729 -0.103098735 0.0325674 0.07775616 -0.023359053
-0.10090768 0.04236695 -0.038513597 -0.054367572 0.0098380735 0.085625604 -0.103115685 0.025855076
-0.005295685 -0.07915833 0.09609453 -0.017588364 0.10915752 -0.08181368 0.006523209 -0.0306242
0.024083644 -0.110830076 0.034015264 -0.06116289 0.06438652 -0.049424317 -0.00082767796 -0.088893645
-0.07365779 0.054582737 0.10239337 0.09560732 -0.09432185 -0.03782788 0.07882204 0.045250434
0.06415029 0.10395369 -0.031500097 -0.038519893 0.00923627 -0.10401663 -0.024655258 0.1086318
-0.009442997 -0.04206287 -0.044521216 -0.022995243 -0.0006309577 -0.10086158 0.08738938 -0.110711016
-0.05599977 -0.094251804 -0.06688436 0.034303673 -0.07112412 -0.045504626 -0.080208704 -0.0053847185
0.10221129 0.048219256 0.06977414 -0.091175415 -0.03888464 0.05270546 -0.011183547 0.08930303
-0.080803014 -0.110281944 -0.089231424 -0.0580532 0.08095655 -0.04008137 -0.056225806 -0.0044272663
0.06321187 -0.11354265 -0.02667803 -0.042256765 -0.072996795 -0.035080533 -0.010655677 -0.10113657
0.0903631 0.03650937 0.004049399 -0.00044971576 0.018934626 0.10538261 0.022219436 0.0038830668
-0.0029054708 -0.07793634 -0.11297981 -0.021960972 -0.10382348 0.047346912 -0.064166844 0.014567711
0.08603808 -0.03368831 0.008462211 -0.03998384 0.022329811 0.13523205 0.10369622 0.13021998
-0.013898992 -0.103422515 -0.053784966 -0.04882551 0.068393625 -0.05820654 0.0750512 -0.08757754
0.033799168 0.015667578 0.096355975 0.0913509 -0.07443436 0.12093352 0.042165905 0.1253647
0.06541673 -0.0854619 0.040224858 -0.029254332 0.04029257 -0.053712133 -0.013778255 -0.09357566
-0.01730075 -0.0754338 0.023467878 -0.09715724 -0.0052053584 0.014119578 0.00012258875 0.11497058
-0.08986343 0.08969388 -0.11673896 -0.045931026 -0.051824927 -0.061301928 0.034720834 -0.04911882
-0.03700575 0.09013609 0.032280374 0.032600902 -0.03175841 0.029767247 -0.05301326 0.025376266
-0.10117695 -0.105949424 0.0557883 0.059781022 0.06884901 -0.05724939 -0.022222338 -0.06284068
-0.061451223 0.004204035 -0.01499422 0.07349799 0.09655923 0.108897336 -0.022453673 0.016592607
-0.03235338 0.02998033 -0.10199875 -0.012739641 -0.0021832096 0.03310414 0.06500814 -0.005071038
-0.050282344 0.10391648 -0.024240335 -0.02058572 -0.06222516 0.057463203 0.06750966 0.06304174
0.016308453 -0.07973172 0.11766489 0.092625625 0.086148664 0.055713665 0.026592176 0.07068723
-0.021407446 -0.10431633 0.009154038 -0.08414243 0.088407695 -0.103321984 -0.04973128 0.02778809
0.046241827 0.10532117 0.08661258 0.009708822 0.094978735 0.018291974 -0.03999587 0.0085471505
00000000: 26ed 653c ac9a ccbd 525e 883d 78a1 453d
00000010: 3ca7 be3c e1b3 c0bc 5f6f d63d 3056 c3bd
00000020: d303 783d 764d cd3d 9095 243d 1091 c03d
00000030: 56c2 8fbd a9a2 d23d b656 ac3d 2523 45bd
00000040: efe5 c83d 6819 55bd 87d9 c6bd 9602 dd3d
00000050: 06c8 103d 585e 823d ee1a e63c cc94 883c
00000060: a0f3 1a3d 893a 2d3d 3c89 9dbd 1d86 9a3d
00000070: 6d82 043c a859 503d dca6 cbbd 8c66 90bd
00000080: 0c60 50bd 393d bfbd 6d7e b63d c90c 913c
00000090: f278 aabd 40c3 8fbd 53e5 d4bc f505 c83d
000000a0: e3cc 40bd 6aa0 d23d 6e28 803d d7ab a9bd
000000b0: 6e25 d3bd 6565 053d 9f3e 9f3d 7c5b bfbc
000000c0: b0a8 cebd f888 2d3d 6fc0 1dbd 88b0 5ebd
000000d0: df2f 213c 7a5c af3d 512e d3bd 06ce d33c
000000e0: 6d87 adbb c31d a2bd 35cd c43d 7915 90bc
000000f0: fa8d df3d ee8d a7bd a5c0 d53b 9adf fabc
00000100: 104b c53c e1fa e2bd 9753 0b3d f085 7abd
00000110: 14dd 833d 2771 4abd 87f8 58ba df0d b6bd
00000120: e5d9 96bd 2692 5f3d 9db3 d13d c5cd c33d
00000130: d02b c1bd 68f1 1abd 736d a13d 8558 393d
00000140: 3a61 833d ace5 d43d 3f06 01bd 09c7 1dbd
00000150: b953 173c ac06 d5bd d3f9 c9bc 597a de3d
00000160: cdb6 1abc 1e4a 2cbd e15b 36bd 8560 bcbc
00000170: db66 25ba 8490 cebd 34f9 b23d 75bc e2bd
00000180: 0460 65bd 1707 c1bd abfa 88bd 0282 0c3d
00000190: 86a9 91bd 0f63 3abd 7644 a4bd 4b72 b0bb
000001a0: 2754 d13d 8e81 453d bfe5 8e3d 2dba babd
000001b0: 8045 1fbd aee1 573d 323b 37bc 82e4 b63d
000001c0: 0d7c a5bd 80db e1bd f7be b6bd 31c9 6dbd
000001d0: 8ccc a53d 5d2c 24bd 084d 66bd 9a12 91bb
000001e0: 3a75 813d 0d89 e8bd e28b dabc 6e15 2dbd
000001f0: 587f 95bd 9bb0 0fbd 2695 2ebc b120 cfbd
00000200: 4a10 b93d d98a 153d d2b0 843b d4c7 ebb9
00000210: ca1c 9b3c d6d2 d73d 8905 b63c 0d7b 7e3b
00000220: b669 3ebb 169d 9fbd f561 e7bd 7fe7 b3bc
00000230: 68a1 d4bd d6ee 413d e869 83bd 69ad 6e3c
00000240: bc34 b03d c1fc 09bd 16a5 0a3c 18c6 23bd
00000250: 02ed b63c 457a 0a3e af5e d43d 6358 053e
00000260: 99b8 63bc 2fcf d3bd a04d 5cbd 42fd 47bd
00000270: f511 8c3d fb69 6ebd 72b4 993d da5b b3bd
00000280: ff70 0a3d 4b59 803c 4856 c53d 2e16 bb3d
00000290: 0b71 98bd feab f73d 28b6 2c3d 9b5f 003e
000002a0: 35f9 853d a606 afbd d2c2 243d c8a6 efbc
000002b0: d209 253d 4101 5cbd 31be 61bc 98a4 bfbd
000002c0: 4dba 8dbc 097d 9abd b53f c03c 60fa c6bd
000002d0: b691 aabb cd55 673c 2b8b 0039 b275 eb3d
000002e0: 510a b8bd 6db1 b73d d614 efbd 2c22 3cbd
000002f0: 6046 54bd bb17 7bbd 6f37 0e3d d130 49bd
00000300: 5793 17bd 4599 b83d 6d38 043d 8688 053d
00000310: 1b15 02bd 71da f33c 6f24 59bd e3e1 cf3c
00000320: dc35 cfbd 03fc d8bd 4682 643d f2dc 743d
00000330: b600 8d3d 567e 6abd 9f0b b6bc 9db2 80bd
00000340: 47b4 7bbd 00c2 893b 51aa 75bc 1d86 963d
00000350: d8c0 c53d 9105 df3d c4f0 b7bc 38ed 873c
00000360: fa84 04bd 4f99 f53c b8e4 d0bd edb9 50bc
00000370: 2e14 0fbb 3598 073d fd22 853d f32a a6bb
00000380: dcf4 4dbd 2ad2 d43d ab93 c6bc 62a3 a8bc
00000390: cfdf 7ebd 895e 6b3d 8142 8a3d 071c 813d
000003a0: 4e99 853c 624a a3bd 4afa f03d 81b2 bd3d
000003b0: b66e b03d 0334 643d d6d7 d93c 77c4 903d
000003c0: ab5e afbc cda3 d5bd d1fa 153c de52 acbd
000003d0: 180f b53d 7a9a d3bd 07b3 4bbd d9a3 e33c
000003e0: 1268 3d3d a0b2 d73d f061 b13d c011 1f3c
000003f0: 3684 c23d 0dd9 953c b6d2 23bd 5909 0c3c

conv4.bias f4 [16]
-0.03695818 0.07742768 0.05196582 -0.076065294 0.040540878 0.07450151 -0.065538816 -0.04006884
0.078999124 -0.004671352 0.050058506 0.030724408 0.118778385 0.06414074 0.07013607 -0.008168135
00000000: 7661 17bd 6792 9e3d 1dda 543d 1fc8 9bbd
00000010: 310e 263d 3f94 983d 3739 86bd 391f 24bd
00000020: 4bca a13d 2412 99bb 260a 4d3d c1b1 fb3c
00000030: 1542 f33d 385c 833d 80a3 8f3d a4d3 05bc

conv5.weight f4 [16, 16, 3, 3]
0.08655514 0.027342068 0.07469129 0.07258202 0.06251373 0.06685626 -0.09803898 0.02795402
-0.01939033 0.017970717 -0.06965158 0.08947742 -0.052184403 0.030083513 0.07573351 -0.121461324
-0.072535835 -0.11937976 0.107856385 -0.061801363 0.08461333 -0.030500086 -0.11728263 -0.06833167
-0.0035222922 0.11459325 -0.09661132 -0.10935109 0.021060206 -0.09920267 -0.09919607 -0.01266556
-0.109914154 -0.11256688 0.05108633 -0.075416535 0.025760796 -0.052959736 0.0694017 0.02298885
0.10668112 0.05641616 0.13276097 0.13835244 -0.04310283 0.09955551 0.16633879 0.21422502
0.19401367 0.20189932 -0.020935139 0.066028714 0.07087653 0.17510334 0.09842831 -0.11202282
-0.023643622 -0.05950325 -0.07669775 -0.075494856 -0.09704297 0.0870257 -0.002101929 0.0828313
-0.081869245 0.07558141 -0.0028622497 0.08821639 0.055062883 -0.0042102654 0.06925288 -0.033744227
-0.00041353962 -0.0066341 -0.022434311 -0.030184133 0.07317843 -0.0045320126 -0.101686895 0.034794334
-0.0989157 0.07778348 0.10713251 -0.041022547 0.023789668 0.05074641 0.034429003 -0.0933076
0.10192098 -0.06661442 0.030601306 -0.03795558 -0.08854641 0.025663327 -0.045311198 0.04420457
0.009315591 -0.056582976 0.007346667 0.117750004 0.041826896 -0.08608823 -0.0754758 0.07067387
-0.0782308 0.0486423 0.06130397 0.109009564 0.13635425 0.073292166 0.087369636 0.02014177
0.026214436 0.09074738 -0.059324887 -0.050344575 0.016019369 -0.047842517 0.10304457 0.11446694
-0.033044692 -0.03728747 -0.04170814 0.11167515 -0.02551321 0.0035002492 -0.024411766 0.08128286
0.04823007 0.06418804 0.01700693 0.08503484 0.016942598 0.13146068 0.0080565065 0.093615904
-0.0028994957 0.0133621255 -0.047602307 -0.07624551 -0.06513103 -0.08593473 0.069198295 0.056360513
-0.0072657145 0.055257678 0.043904416 0.097430326 0.100882195 0.109043 -0.04714651 0.09822164
-0.113352165 0.041005906 -0.06843613 0.07837642 0.026589109 -0.10062065 0.025454061 -0.06931839
0.099448115 -0.0354974 -0.09556053 -0.053780016 0.102127604 0.023167726 0.027142942 0.08367007
-0.038166422 0.07633951 0.051027518 0.005299322 0.10230268 -0.007271921 -0.067196414 -0.11141816
-0.07604266 -0.06891162 0.04278567 0.04954578 -0.029327242 0.008470929 0.10096425 -0.002695089
0.06386879 0.03966138 0.10679755 0.10659128 -0.08084054 -0.05534316 -0.063100025 -0.05036876
-0.087218836 -0.09991565 0.07164271 0.05118665 0.08353151 -0.02228453 0.056363203 -0.111960374
0.02614905 -0.013170036 0.027041452 -0.02635424 0.04629499 -0.029627612 -0.038306627 -0.010679458
-0.018306829 -0.069563136 0.10905223 0.08239738 0.07390472 -0.05149732 0.08067375 -0.080428265
0.08272627 -0.013168173 -0.01947196 -0.061201066 0.0022240789 0.00016655761 -0.0042603114 0.065729216
-0.096248455 -0.074402094 -0.05220921 -0.09897871 -0.062141746 0.0763177 0.02881012 -0.073935516
-0.10332196 0.07524356 -0.11406624 0.07033925 0.07693157 -0.091595836 0.029465185 -0.03989996
-0.035483528 0.01684323 -0.105039336 -0.08360218 0.03885115 -0.02969126 -0.08946785 -0.0044140755
-1.4321554e-05 0.042740874 0.06728513 -0.09094865 -0.047165 0.10991396 -0.09422571 0.104949415
00000000: d243 b13d 79fc df3c bff7 983d e2a5 943d
00000010: 3307 803d efeb 883d a9c8 c8bd d4ff e43c
00000020: 78d8 9ebc 5337 933c 7da5 8ebd f03f b73d
00000030: 50bf 55bd b371 f63c 2c1a 9b3d b7c0 f8bd
00000040: ab8d 94bd 607d f4bd cfe3 dc3d 6d23 7dbd
00000050: c149 ad3d 51db f9bc e031 f0bd 79f1 8bbd
00000060: 42d6 66bb deaf ea3d 28dc c5bd 77f3 dfbd
00000070: 7486 ac3c c52a cbbd 4f27 cbbd 3583 4fbc
00000080: ac1a e1bd 7789 e6bd e63f 513d fc73 9abd
00000090: 4e08 d33c 4fec 58bd 7a22 8e3d 1d53 bc3c
000000a0: a27b da3d a214 673d 7ef2 073e 43ac 0d3e
000000b0: 988c 30bd c2e3 cb3d b754 2a3e ce5d 5b3e
000000c0: 85ab 463e b2be 4e3e 2b80 abbc 103a 873d
000000d0: b727 913d 4a4e 333e c894 c93d 386c e5bd
000000e0: 45b0 c1bc aeb9 73bd b613 9dbd 0c9d 9abd
000000f0: 77be c6bd 883a b23d 84c0 09bb 75a3 a93d
00000100: 10ab a7bd 6dca 9a3d 9594 3bbb cbaa b43d
00000110: 9e89 613d 44f6 89bb 74d4 8d3d 6337 0abd
00000120: 59d0 d8b9 dd62 d9bb 29c8 b7bc b744 f7bc
00000130: 93de 953d 4781 94bb 3841 d0bd 8184 0e3d
00000140: 5194 cabd f24c 9f3d 4a68 db3d 4207 28bd
00000150: 8de2 c23c 78db 4f3d 6d05 0d3d 0e18 bfbd
00000160: f2bb d03d 246d 88bd 97af fa3c 4f77 1bbd
00000170: d257 b5bd e63b d23c 3c98 39bd da0f 353d
00000180: 6ca0 183c 8dc3 67bd 4fbc f03b ea26 f13d
00000190: ae52 2b3d 074f b0bd 0e93 9abd 76bd 903d
000001a0: 7837 a0bd 263d 473d df19 7b3d 6840 df3d
000001b0: 73a0 0b3e 341a 963d daee b23d 5a00 a53c
000001c0: a8bf d63c c3d9 b93d a7fe 72bd 1d36 4ebd
000001d0: 0d3b 833c 84f6 43bd 0809 d33d a56d ea3d
000001e0: df59 07bd bfba 18bd 28d6 2abd f1b5 e43d
000001f0: 1401 d1bc 7064 653b 2ffb c7bc a177 a63d
00000200: e58c 453d 0575 833d 1e52 8b3c bf26 ae3d
00000210: 34cb 8a3c a19d 063e 70ff 033c b2b9 bf3d
00000220: 7705 3ebb d1ec 5a3c a3fa 42bd 9b26 9cbd
00000230: 6b63 85bd 8cfe afbd d6b7 8d3d 48da 663d
00000240: 3b15 eebb e055 623d 1ed5 333d 8d89 c73d
00000250: 539b ce3d f051 df3d b31c 41bd 6d28 c93d
00000260: 2e25 e8bd cff5 273d 3e28 8cbd d183 a03d
00000270: 67d1 d93c 3312 cebd 0985 d03c cdf6 8dbd
00000280: 74ab cb3d b965 11bd 3db5 c3bd 6f48 5cbd
00000290: 4728 d13d 3eca bd3c e05a de3c 375b ab3d
000002a0: 6554 1cbd e457 9c3d 3b02 513d efa5 ad3b
000002b0: 1184 d13d 4b49 eebb 469e 89bd 342f e4bd
000002c0: 41bc 9bbd 8921 8dbd 0740 2f3d 84f0 4a3d
000002d0: af3f f0bc a7c9 0a3c 58c6 ce3d 17a0 30bb
000002e0: a4cd 823d f973 223d adb8 da3d 874c da3d
000002f0: ba8f a5bd 82af 62bd 963a 81bd 794f 4ebd
00000300: ca9f b2bd 94a0 ccbd 6ab9 923d 18a9 513d
00000310: 9112 ab3d 0c8e b6bc 1add 663d 7b4b e5bd
00000320: 8836 d63c 22c7 57bc 0986 dd3c d9e4 d7bc
00000330: d19f 3d3d 9bb5 f2bc 69e7 1cbd e5f8 2ebc
00000340: 34f8 95bc 1e77 8ebd c756 df3d f5bf a83d
00000350: 5c5b 973d dbee 52bd 4738 a53d 93b7 a4bd
00000360: 646c a93d 52bf 57bc a983 9fbc f8ad 7abd
00000370: dac1 113b f8a5 2e39 159a 8bbb 0a9d 863d
00000380: e91d c5bd 2060 98bd 53d9 55bd 5ab5 cabd
00000390: 5888 7ebd 744c 9c3d 3303 ec3c 816b 97bd
000003a0: 779a d3bd 4c19 9a3d 909b e9bd 060e 903d
000003b0: 4d8e 9d3d 9996 bbbd f960 f13c 246e 23bd
000003c0: 2d57 11bd d0fa 893c dd1e d7bd 9f37 abbd
000003d0: 6222 1f3d 163b f3bc ec3a b7bd f3a3 90bb
000003e0: 9b46 70b7 0e11 2f3d c9cc 893d 4943 babd
000003f0: 1630 41bd 921a e13d 69f9 c0bd b8ef d63d

conv5.bias f4 [16]
0.0029835193 -0.048556697 0.035108835 0.028174395 0.14506754 -0.06505428 0.10781237 0.03923728
-0.046930265 -0.044964194 0.047065336 0.07900253 -0.0058387467 0.031727754 0.11338965 -0.00052370614
00000000: 2687 433b 63e3 46bd 48ce 0f3d fdcd e63c
00000010: 968c 143e 2e3b 85bd bbcc dc3d 45b7 203d
00000020: f339 40bd 602c 38bd 95c7 403d 14cc a13d
00000030: f552 bfbb f6f4 013d d538 e83d 5349 09ba

conv6.weight f4 [16, 16, 3, 3]
-0.009499105 0.05732038 0.046865746 0.09495782 0.003132614 0.07101679 0.107534684 -0.036590055
0.02516573 0.046585117 -0.074360125 -0.036966503 0.049954552 0.079499826 0.051869694 0.06316795
0.028516209 0.082144074 0.0020606362 0.049217 -0.06904975 0.016449321 0.039385796 0.10816281
-0.034193557 0.018841488 -0.10035731 0.0023348243 0.07231392 0.02509345 -0.059059728 0.004759552
0.09716713 0.057743415 -0.062705085 -0.041671507 -0.0839492 0.11023399 0.0117701 -0.05969162
-0.07302527 -0.10232247 -0.038523097 -0.022735907 -0.06839169 -0.0671656 -0.08787027 0.06521765
-0.08318492 0.018086685 0.11227113 0.065103024 -0.010871595 0.09412632 0.054052617 -0.09096422
0.054103687 -0.019682677 0.08306038 0.033992346 0.051630076 -0.039107725 0.006959497 -0.09217172
0.097876035 0.05729438 0.091663115 0.08099416 0.09809607 0.017486898 -0.08323808 0.07833853
-0.0940514 0.08431988 -0.08562275 -0.05496727 -0.03845509 -0.09611274 0.058819126 0.09883575
-0.034341168 -0.016537061 0.06138506 0.07702379 0.045928344 -0.016010521 -0.060854178 -0.013678703
-0.042468373 -0.015325834 0.024805306 -0.10940705 0.04159434 -0.10117311 -0.049426794 0.108001664
-0.049246028 -0.08402895 -0.062738836 0.0056868396 0.06193446 -0.038804695 0.06930862 -0.09585986
-0.10940153 0.089018404 0.015188466 0.114680834 0.107822314 0.0034428623 0.106272005 0.016222464
-0.060033165 -0.077634364 0.021820825 -0.076063864 -0.02213279 -0.051588938 0.09408554 -0.01951221
0.075798534 -0.010846207 -0.09620645 0.015341011 0.08376883 0.110750705 -0.022434307 -0.030830743
0.05643005 0.11316177 -0.04955893 0.07103412 -0.030469088 0.09200733 -0.10870893 -0.03080393
0.076731786 0.021914108 0.022209136 -0.0661547 -0.0012677856 0.06106573 -0.030946309 0.06638735
-0.05491321 0.009517401 -0.09800599 -0.0059020133 0.060139913 0.089324 0.08677948 0.0049092644
0.049552742 -0.015719663 0.024713254 0.0011310828 0.067762814 0.098838285 0.10042338 0.045642346
0.02796083 -0.062748834 -0.11038634 0.09049378 -0.012367361 -0.09843358 0.10558545 -0.032171834
-0.10696462 0.009157275 -0.01202546 0.03602333 -0.042720605 -0.078316554 0.04013411 0.08051687
0.093640454 -0.10678196 0.0065482412 -0.0468291 0.018117115 -0.010412127 0.044355802 0.03971385
-0.08266188 0.0836656 0.105683506 0.000884049 -0.09037942 -0.015739683 0.0005883414 -0.009871254
-0.07356225 0.05731169 0.064371176 0.07579819 0.05947814 0.054966457 0.10086209 -0.04267077
-0.011851734 -0.054835238 -0.058432907 0.080136575 -0.07256473 0.067437895 -0.10017069 0.07245162
0.093528785 -0.10052958 0.105845824 -0.08182728 -0.049367834 0.057616815 -0.11115854 -0.010137327
0.08991973 0.0034133475 -0.096825495 0.023052396 -0.08304184 0.055559278 0.08074503 -0.110118456
0.0989161 -0.053068943 -0.0012212186 0.10499775 -0.033772863 0.040559594 0.080191016 -0.05941006
0.1122117 -0.09048884 0.08838029 0.07981634 -0.10284454 0.027135542 0.055297907 0.09829519
0.014436179 -0.01650164 -0.014934116 -0.07273959 -0.016969072 -0.027518183 -0.11325482 0.09174918
-0.03045826 0.014195952 -0.089764625 0.043986417 -0.00038563806 0.08270674 0.061256222 -0.055485852
00000000: 22a2 1bbc c6c8 6a3d 4cf6 3f3d 3f79 c23d
00000010: 8b4c 4d3b 4071 913d 253b dc3d 74df 15bd
00000020: 5c28 ce3c 09d0 3e3d 1f4a 98bd 306a 17bd
00000030: 259d 4c3d ced0 a23d 5175 543d 335e 813d
00000040: d39a e93c 273b a83d bd0b 073b c497 493d
00000050: f569 8dbd bac0 863c 0053 213d 7784 dd3d
00000060: 8b0e 0cbd 7759 9a3c 2288 cdbd da03 193b
00000070: 5219 943d c790 cd3c 9de8 71bd 04f6 9b3b
00000080: 8fff c63d 5c84 6c3d 866b 80bd beaf 2abd
00000090: 8fed abbd 5cc2 e13d 61d7 403c 337f 74bd
000000a0: 468e 95bd 718e d1bd 65ca 1dbd a740 babc
000000b0: f110 8cbd 1e8e 89bd 54f5 b3bd d590 853d
000000c0: db5c aabd 872a 943c 68ee e53d bc54 853d
000000d0: c61e 32bc 4dc5 c03d 4766 5d3d 734b babd
000000e0: d49b 5d3d 913d a1bc 8f1b aa3d 8f3b 0b3d
000000f0: 0f7a 533d 6c2f 20bd 7e0c e43b 87c4 bcbd
00000100: 3b73 c83d 83ad 6a3d dfb9 bb3d 44e0 a53d
00000110: 98e6 c83d af40 8f3c ba78 aabd f46f a03d
00000120: 059e c0bd e7af ac3d fb5a afbd 5c25 61bd
00000130: 1683 1dbd c2d6 c4bd 53ec 703d 666a ca3d
00000140: 53a9 0cbd bb78 87bc e76e 7b3d a6be 9d3d
00000150: 5c1f 3c3d 7f28 83bc 3b42 79bd a41c 60bc
00000160: 51f3 2dbd 3519 7bbc 7f34 cb3c ce10 e0bd
00000170: d45e 2a3d d933 cfbd c073 4abd fa2f dd3d
00000180: 34b6 49bd 5f17 acbd 387d 80bd ab58 ba3b
00000190: fdae 7d3d acf1 1ebd aef1 8d3d 2d52 c4bd
000001a0: e90d e0bd 484f b63d 0bd9 783c c9dd ea3d
000001b0: f2d1 dc3d a5a1 613b 23a5 d93d f9e4 843c
000001c0: 56e5 75bd c4fe 9ebd 96c1 b23c 5fc7 9bbd
000001d0: d34f b5bc ec4e 53bd ebaf c03d 12d8 9fbc
000001e0: 433c 9b3d 4ab4 31bc e307 c5bd dd58 7b3c
000001f0: fe8e ab3d 44d1 e23d 27c8 b7bc c190 fcbc
00000200: 3223 673d 5cc1 e73d 4efe 4abd 567a 913d
00000210: 4f9a f9bc 576e bc3d caa2 debd 8658 fcbc
00000220: 8e25 9d3d 3785 b33c efef b53c 1e7c 87bd
00000230: d32b a6ba 0f20 7a3d 1d83 fdbc 17f6 873d
00000240: adec 60bd e0ee 1b3c 5db7 c8bd ad65 c1bb
00000250: 4555 763d 80ef b63d 71b9 b13d e5dd a03b
00000260: d1f7 4a3d 86c6 80bc 7373 ca3c d740 943a
00000270: 3bc7 8a3d ba6b ca3d c6aa cd3d 78f3 3a3d
00000280: 1c0e e53c 7682 80bd 3c12 e2bd ce54 b93d
00000290: 79a0 4abc 8b97 c9bd 2f3d d83d 9dc6 03bd
000002a0: 4410 dbbd 6508 163c 6f06 45bc 338d 133d
000002b0: cdfb 2ebd 6e64 a0bd aa63 243d 07e6 a43d
000002c0: 91c6 bf3d 80b0 dabd a192 d63b dfcf 3fbd
000002d0: 586a 943c a097 2abc 6eae 353d fdaa 223d
000002e0: a24a a9bd df58 ab3d 9870 d83d 86bf 673a
000002f0: d818 b9bd 82f0 80bc ec3a 1a3a 0abb 21bc
00000300: cea7 96bd aabf 6a3d 09d5 833d 153c 9b3d
00000310: 5a9f 733d 8224 613d c990 ce3d 8cc7 2ebd
00000320: c62d 42bc ea9a 60bd 5857 6fbd a51e a43d
00000330: d19c 94bd e11c 8a3d 4a26 cdbd 8461 943d
00000340: 058c bf3d 74e2 cdbd b2c5 d83d 1095 a7bd
00000350: ed35 4abd 9cff 6b3d 17a7 e3bd 0817 26bc
00000360: d627 b83d 78b2 5f3b 724c c6bd 61d8 bc3c
00000370: d711 aabd 2092 633d a65d a53d c985 e1bd
00000380: 8694 ca3d d25e 59bd 4c11 a0ba 0f09 d73d
00000390: 6a55 0abd d121 263d 303b a43d f757 73bd
000003a0: 3fcf e53d 3752 b9bd ba00 b53d c076 a33d
000003b0: 28a0 d2bd 5b4b de3c 0f80 623d fd4e c93d
000003c0: b985 6c3c 732e 87bc 39ae 74bc 7ff8 94bd
000003d0: b902 8bbc d06d e1bc 25f2 e7bd fee6 bb3d
000003e0: 9a83 f9bc 2396 683c 84d6 b7bd 1a2b 343d
000003f0: 772f cab9 2762 a93d cee7 7a3d 2245 63bd

conv6.bias f4 [16]
0.06531317 -0.0765516 0.08831105 -0.07329522 0.016918402 -0.02853507 -0.021443844 -0.03490244
-0.037529193 0.14892517 -0.01444139 0.05415666 0.23571691 -0.0442312 0.055956334 -0.015923377
00000000: e9c2 853d 16c7 9cbd 6cdc b43d ce1b 96bd
00000010: 7698 8a3c 61c2 e9bc 00ab afbc dcf5 0ebd
00000020: 36b8 19bd d77f 183e 949b 6cbc 60d3 5d3d
00000030: c65f 713e c62b 35bd 7832 653d be71 82bc
