data/output/Simple_Cnn_Full_NoRot_LR0001_b200_nodrop.pt (torch_old, 89379 bytes, 20 tensors)

conv0.weight f4 [3, 3, 5, 5]
00000000: d669 90bd 9f14 01bd e42f 7d3c da19 1b3e
00000010: 7196 ce3c 6dd8 ef3d 2db4 bc3d 7b89 c0bd
00000020: a8cc 6e3d d6c6 07be 7051 f8bd d5f0 d93c
00000030: ad01 343d 8ace ed3d 0705 9bbd 72b6 42bd
00000040: d13b 6e3d bd12 2dbe aeee ef3d 74f6 16be
00000050: 97e2 d6bc b6da 26bd dbaf ccbd ec43 163c
00000060: bcb9 0b3e efd7 7cbd 5956 d0bd bdd3 59bd
00000070: 88d2 1dbe 3117 ac3d 4549 d7bd 5834 ebbd
00000080: e319 b7bd b307 a43d c766 a03d fe75 b43d
00000090: eb7a 503d d3ab 8dbd e5b1 5bbd d00f 1f3d
000000a0: 7f11 cf3d 092a 153d 349d a9bd dbde 98bd
000000b0: 14e8 1cbe 2344 3a3c 6572 c7bd 7b8d 24be
000000c0: 6032 093e f92e e1bd 3577 00bd d796 333d
000000d0: cbe1 473c 7860 cfbd 8912 05be 4ded dc3d
000000e0: 9c43 b33c 2e29 113e 342e 8dbd 1a16 143d
000000f0: ec53 9abd b970 92bc b51a e1bd 061d 513d
00000100: 1d77 253d 88d8 21bd ba1b 52bd 7eac d5bd
00000110: 5ba6 f33d 9d18 fabd 0b15 423d 3594 76bd
00000120: e05a b0bd 240e a93c eccc a5bd 0d3b 81be
00000130: 3d9c 7cbe f8d6 9bbe f688 17be d9d5 adbe
00000140: deb6 0e3f 5eaa 523e 3cba 0e3c 6097 763e
00000150: ea49 b53e 62ba 01bf bcc3 45be 5b0f a1ba
00000160: 88e3 d0bd a195 c2bd 500b 723e 4f3e 0f3e
00000170: bd85 e6bd 21e0 ac3c f78d 3f3e 709b 99bb
00000180: 604c a33d f2a9 973e 8b88 033d 09b9 28bc
00000190: 91b4 1e3e 4de4 85bb 1b9a 63bc e588 5ebd
000001a0: 2aea bfba 0291 55be db68 44be b8df bf3d
000001b0: d17f 063d c4b7 c8bc 98c4 cb3d a431 cebc
000001c0: 772f 17be a5c8 d6bd eee5 113d 63e1 853c
000001d0: bf8f 90bc 6e0c 283e 5121 b53d 9da7 0b3e
000001e0: 23c7 93bd 58ae 2a3d d52a 72bd a12d 7c3d
000001f0: e7eb c3bd e998 ec3d 355b 883e 88ed 9d3e
00000200: b3a0 353e efd4 a73e cfec b9be 49e0 a6bb
00000210: 6feb f6bd d589 96be da58 b3be 884e c23e
00000220: 8740 2e3e b048 0a3e 0bcc 523e 5371 393d
00000230: eaad 87be a962 fabd abe1 42bd 986f b7bd
00000240: 01cd a4be c350 aa3d 1b91 ddbd 6e5c 5dbe
00000250: ffd3 9fbd cb90 f23d a622 15be 601b 82be
00000260: 3afc 00be 30ff cebe d156 81be 176d aa3e
00000270: 7ef0 653e 1bd6 a03e 9971 0f3e f4cc ba3d
00000280: c1c4 71be 1b8b 133d b7f7 45bd 0e70 e8bc
00000290: e5c8 64bd a79f 6cbd 8bdb 3d3c f27a 913c
000002a0: 1910 5b3e b51f 333d 61fc e8bc b47c 4e3e
000002b0: 2eb6 803e 5bbd 22bb d384 133d 7d2a 9e3e
000002c0: 6a1e c13d 2bc1 f23d 501a 803e 9cba 833d
000002d0: 866a 97be 4e9b 5f3d 3b4a 92bd 811c 49bd
000002e0: 8406 8b3d a3be c8bc 321c 42be 156f d2bc
000002f0: ef47 babd 4948 e0bd 5543 aebb 7c69 863e
00000300: 551d 9e3c a9ff f53c 96f9 d53d e69f 9a3c
00000310: 3a41 82bd e87d 58be b552 98bd f911 3abe
00000320: b196 31be 3795 193e c12c a13b 0f3b 243e
00000330: ae9e 3f3e 44cf a5bc 97be 95be 01ac 75be
00000340: 8498 c2bd 6a07 1ebe 309f 963e 0023 533e
00000350: 39c3 bb3d 5acd ca3d 461d 3a3e 2b1c 903d
00000360: 820b 86be cdf3 debc 5482 85be 2b99 16be
00000370: 1f26 cebb 115e 23be f2bb 37bd dad5 a13d
00000380: 4499 0e3e
-0.070514366 -0.031513806 0.015453313 0.1514658 0.02521822 0.11711202 0.09214053 -0.09401222
0.058300644 -0.13259444 -0.12124908 0.026604095 0.04394691 0.1161166 -0.07569318 -0.047537275
0.058162514 -0.1690168 0.117154464 -0.14742452 -0.026231093 -0.040735923 -0.09994479 0.009171467
0.13645071 -0.061729368 -0.101727195 -0.053180445 -0.15412343 0.08402861 -0.10512022 -0.11484593
-0.089404844 0.08009281 0.07832103 0.08811568 0.050898474 -0.069175385 -0.05363645 0.03883344
0.10110759 0.03641704 -0.08281937 -0.07464381 -0.15322906 0.011368784 -0.09738616 -0.16069596
0.13398123 -0.109952874 -0.031363685 0.043845024 0.012199829 -0.10125822 -0.12995352 0.10787449
0.021882825 0.14175865 -0.06893578 0.03615389 -0.07535538 -0.017876016 -0.10991422 0.05105307
0.0403968 -0.03951314 -0.051295973 -0.10433291 0.11896964 -0.12211726 0.04738335 -0.060199935
-0.08611083 0.020636626 -0.08095726 -0.25240365 -0.24668975 -0.30437446 -0.1479834 -0.33952215
0.55747783 0.20572802 0.008711394 0.24081182 0.35407954 -0.5067502 -0.19312948 -0.0012287901
-0.10199648 -0.09501196 0.23637128 0.13988613 -0.11255977 0.021102967 0.18706499 -0.004687719
0.07973552 0.29621845 0.03211264 -0.010298022 0.15498568 -0.0040860535 -0.013891722 -0.05432977
-0.001464193 -0.20856097 -0.19180624 0.09368843 0.03283674 -0.024501689 0.09949607 -0.025170155
-0.147642 -0.10487489 0.03561967 0.016342824 -0.017646668 0.16410992 0.08844245 0.13638158
-0.07215717 0.041670173 -0.05912288 0.061566953 -0.09566479 0.11552603 0.26632085 0.30845284
0.17737083 0.32779643 -0.36313483 -0.005092655 -0.12056624 -0.29402032 -0.35028726 0.3795054
0.17016803 0.1350429 0.20585649 0.04527409 -0.26499873 -0.12225849 -0.047578495 -0.08956832
-0.32187656 0.08316185 -0.10818692 -0.2161729 -0.07804107 0.11844023 -0.14563999 -0.2541151
-0.12596217 -0.40429068 -0.25261548 0.33286354 0.22455022 0.3141335 0.14008178 0.09121123
-0.23610212 0.036021333 -0.048331942 -0.028373744 -0.05585565 -0.057769444 0.011587988 0.01775882
0.2139286 0.04373141 -0.028440656 0.20164758 0.25138992 -0.0024832103 0.036015343 0.3089179
0.09429629 0.1185325 0.25020075 0.06432077 -0.29573458 0.05459147 -0.071430646 -0.04909945
0.06788352 -0.024504965 -0.18956068 -0.025687734 -0.090957515 -0.10951287 -0.005318085 0.26252353
0.019301096 0.030029135 0.10447995 0.018875074 -0.06360097 -0.2114178 -0.0743765 -0.18170919
-0.1734264 0.14998327 0.004918665 0.16038154 0.18712875 -0.020240434 -0.2924697 -0.23991396
-0.09501746 -0.15432516 0.29418325 0.2061882 0.09168095 0.09902449 0.1817523 0.070366226
-0.26180655 -0.027215863 -0.26075995 -0.14706866 -0.0062911655 -0.15953852 -0.044856973 0.07902117
0.13925654

conv0.bias f4 [3]
00000000: 6f5f a3bc 0ab2 333e c30c 233e
-0.019942967 0.17548385 0.15922837

conv1.weight f4 [30, 3, 5, 5]
00000000: d9b2 dfb8 0b24 3038 5336 fcb7 1159 b239
00000010: 3cb8 2b39 0963 97b7 7adc 2539 8ab5 1238
00000020: d0af 163a f7d0 4d39 2e90 66b7 6077 4138
00000030: b0cb 54bf b202 553f e2aa 3d39 f108 dbb8
00000040: 3f51 f337 8ea2 5b37 6959 e639 a5cf 86b8
00000050: 2247 d8b8 cfe0 3738 a635 3f39 4ee5 063a
00000060: ed09 6f36 3533 953d 69aa 863d 544a 903d
00000070: 2bfd 843d 4385 a13d 0f50 043d 3244 013d
00000080: 482a 5c3f 5617 cb3c f723 f73c 0b91 a3bb
00000090: f260 56bb 0e59 53bf 2568 89bb ca16 3ebb
000000a0: 03cd 87bd 848d 35bd f764 eabc 40c2 04bd
000000b0: 11ec 49bd e9e4 5fbd 232f 42bd 7843 44bd
000000c0: d81f 46bd 0c79 60bd 9732 003d b0ec 023d
000000d0: 96f0 c9bb 7c81 72bc 1e0b c93c b0bd d73c
000000e0: c45a f73c d940 413b 5f72 febb b147 af3c
000000f0: aa7b f73c c1d1 5d3f 979a 52bf e9ad 903b
00000100: a072 013d 59a3 3f3b e0c4 613c 73f6 13bc
00000110: b2a0 b8bc 0569 3d3b 25c3 87bc 69d3 4abc
00000120: 8e62 4abd c77c 85bd 789b 1bbd 7dbb 1539
00000130: 9911 4c39 157b b038 0623 bf39 b63f fb38
00000140: bc83 dfb8 2ca8 4938 748d 00b9 6105 2939
00000150: 1b91 89b8 e4b8 5937 06ce 0439 c3ca 54bf
00000160: 41e3 6439 954a 7d38 7de9 b638 5104 a539
00000170: a5e7 543f 0053 b939 12e6 9ab7 dd7a 1139
00000180: 7a6f bb39 6895 033a e2c2 b139 5ee1 7437
00000190: 6dc1 c03d ff8f 9f3d 6a2d ae3d 5712 a23d
000001a0: 57f1 b63d 288f 963c d415 383c b386 0b3c
000001b0: 6731 583f 844f 523c 49a8 40bb 87cb 4abc
000001c0: 8c8e 55bf 1efa f8bb 51ad 13bc ebe6 5abd
000001d0: 8e53 27bd 17ad e7bc f1a9 b3bc 19a1 37bd
000001e0: a36f 7cbd 1ea1 80bd 564b 6abd 7ada 4cbd
000001f0: 3cfe 49bd 60d0 743d 8ce1 753d 8023 9a3c
00000200: d7ac ba39 378e a03c 969a 4f3d 460f 613f
00000210: f0ce fa3b a2fd 0bbc d0a9 8d3b 9098 413d
00000220: c042 513d a725 52bf 64ab b5bb 418d 7c3b
00000230: 4457 c83b 655b b73c dfe4 63bc b2c1 29bd
00000240: 05da 22bd 05da 00bd aa09 c4bc 82f6 71bd
00000250: 9477 9bbd 317a 87bd 0c2c 10ba 77d1 24ba
00000260: ae48 c6b9 fdae d4b9 5356 c5b9 cad5 dfb9
00000270: 7274 03ba a190 9ab9 7c7b b3b9 fe4a abb9
00000280: 6492 b7b9 6040 01ba 43e4 54bf c3c5 c2b9
00000290: 7bc1 8fb9 b12c d7b9 83a2 543f 5de6 c9b9
000002a0: b3c0 bfb9 7f64 9cb9 9511 efb9 7464 16ba
000002b0: e404 e7b9 6b95 d1b9 c801 b7b9 78c9 463c
000002c0: 9b3a 993c 3ba0 833c b02e 993c ca23 873c
000002d0: e16c f63a 9b6b 9f3b efd5 ac3b 902c 553b
000002e0: 7be5 f53b 43e8 5a3b dd13 213c be74 53bf
000002f0: bd7f ae3b d8f6 a43a 6b7e d5bb 584f c6bb
00000300: 968f b0bb 347f 533f c5c8 05bb 907b 4fbc
00000310: 402b 34bc 6557 74bc f361 60bc e58b 88bc
00000320: 34da 543c 705a 863c c4c1 5f3c 5b11 943c
00000330: 6c50 363c 44f9 dd3b ea50 fb3b d44f c43b
00000340: efc3 233c 0c5a e93b c411 533c c2f5 583f
00000350: 316b d3bf f51f 583f 8a29 e63b 324a 073c
00000360: 5cfb 333c 3325 b03b 0773 043c eade 913b
00000370: c6ca 843b 8213 1d3c c891 213b 5b71 7f3b
00000380: 258c 1dbb 82e6 2d3a 7fb2 283a 9dc3 0f3a
00000390: 2ce3 bd39 54e2 dc39 1425 093a 9ed0 113a
000003a0: d2f1 543f ac4b ce39 9eae b839 c21b 223a
000003b0: c21d 1d3a 86bd d4bf 225b 1d3a b6e3 023a
000003c0: 2d9d fb39 6620 083a f2f0 543f 924f 153a
000003d0: 3b93 c139 fe64 b939 f8fb 013a 48bc d139
000003e0: 123e 033a 6c6a 9939 a935 f9bb 886e 84bb
000003f0: 0d81 55bb ec98 f9bb aeed 20bc bc1d d23a
-0.000106667816 4.1995238e-05 -3.0066038e-05 0.00034017165 0.00016376463 -1.804672e-05 0.0001581776 3.4978184e-05
0.0005748244 0.00019628169 -1.3742638e-05 4.6125962e-05 -0.831233 0.8320724 0.00018088103 -0.00010444399
2.900569e-05 1.3091265e-05 0.00043935634 -6.428295e-05 -0.00010312932 4.383997e-05 0.00018235165 0.00051458634
3.5619553e-06 0.072851576 0.06575472 0.07045427 0.064936005 0.07886746 0.032302912 0.031559177
0.86002016 0.0247914 0.030168517 -0.0049916557 -0.0032711593 -0.8255776 -0.004193323 -0.0029005283
-0.066309 -0.044324413 -0.028612597 -0.032411814 -0.049297396 -0.054661665 -0.047408234 -0.047915906
-0.048370212 -0.05480294 0.031298246 0.031964004 -0.0061627133 -0.014801379 0.024541434 0.026335567
0.030194648 0.0029488115 -0.007765099 0.02139649 0.030210335 0.86648184 -0.82267135 0.004415263
0.031603456 0.002924165 0.013779849 -0.009030926 -0.022537563 0.0028901708 -0.016572544 -0.012379506
-0.049410395 -0.0651794 -0.037990063 0.00014279592 0.00019461512 8.41526e-05 0.00036456453 0.0001198048
-0.00010658006 4.8078757e-05 -0.00012259727 0.000161191 -6.559697e-05 1.2977256e-05 0.0001266525 -0.8312189
0.00021828433 6.038936e-05 8.721927e-05 0.00031474468 0.8316596 0.0003534779 -1.8465365e-05 0.00013874048
0.00035750476 0.00050195167 0.0003390527 1.4596006e-05 0.09411893 0.07791137 0.08504756 0.07913654
0.08932751 0.01837881 0.011235673 0.0085160015 0.8445038 0.012836341 -0.002939718 -0.012377626
-0.83420634 -0.0075981757 -0.00901349 -0.053442877 -0.04085117 -0.028280778 -0.02193162 -0.04483137
-0.061629903 -0.06280731 -0.057200752 -0.050013043 -0.049314722 0.059769034 0.06002955 0.018815756
0.0003560546 0.019599063 0.050684534 0.8791393 0.0076540634 -0.0085443575 0.0043232217 0.047264636
0.05108905 -0.820887 -0.005544113 0.0038536342 0.0061139185 0.022382447 -0.013909548 -0.041444488
-0.0397587 -0.03145792 -0.02393039 -0.05907298 -0.07591167 -0.06615103 -0.00054997276 -0.0006287316
-0.00037819654 -0.00040566167 -0.00037639085 -0.0004269316 -0.0005014605 -0.00029480926 -0.00034233544 -0.00032671535
-0.0003501355 -0.0004930552 -0.831608 -0.00037149907 -0.0002741924 -0.00041041293 0.83060473 -0.00038509342
-0.0003657393 -0.00029829514 -0.00045598732 -0.00057370146 -0.00044063397 -0.00039974911 -0.00034905807 0.012132995
0.018704703 0.016067615 0.01869902 0.016496558 0.0018800759 0.0048651225 0.0052745263 0.0032527782
0.007504163 0.00334026 0.009831396 -0.8260001 0.005325286 0.0012585772 -0.0065153143 -0.006051939
-0.0053882105 0.8261597 -0.0020413857 -0.012663737 -0.01099664 -0.014913415 -0.013695228 -0.01666827
0.012991477 0.016400546 0.013657037 0.018074682 0.0111275725 0.0067740995 0.007669558 0.0059909616
0.009995445 0.00712133 0.012882654 0.84749997 -1.6517087 0.8442376 0.007023995 0.008257436
0.010985222 0.0053755282 0.008084065 0.0044516223 0.004052493 0.009587171 0.0024653543 0.0038977477
-0.0024039831 0.00066337746 0.00064352894 0.0005484166 0.00036218145 0.00042130298 0.00052316603 0.00055623974
0.8318149 0.00039347762 0.00035225315 0.0006183946 0.0005993509 -1.6620338 0.00060026546 0.0004993038
0.00047991556 0.0005192816 0.83180153 0.0005695756 0.00036921524 0.00035361195 0.0004958506 0.00040003867
0.00050065026 0.00029261725 -0.0076052737 -0.0040414967 -0.003257814 -0.0076171067 -0.009822292 0.001603059

conv1.bias f4 [30]
00000000: 1505 d4bc 4718 55bd 80cc d3bc 1694 113d
00000010: 6d9a 14bd 79ec 50bd 80e5 703d 788f 9cbc
00000020: 71c2 23be c6f4 69bd 3afa 613d 897f 99bd
00000030: 4b5f 01be 9c13 35bd 94ae 37bd 0982 8dbd
00000040: 344c 103d f82f e4bc 20a8 623d 61e7 48bd
00000050: a8f4 f7bb 1557 873c 6c3a 64bc 4a89 2dbd
00000060: 7128 56bd ef51 1b3d a2f0 583d 9dfb 5fbc
00000070: 1153 8bbd 7bb8 03bd
-0.02588133 -0.052025106 -0.02585435 0.035541616 -0.036280084 -0.051006768 0.05881262 -0.01911138
-0.15992142 -0.0571182 0.055170275 -0.074950285 -0.12634008 -0.044208154 -0.044844225 -0.06909568
0.035228923 -0.027854905 0.055336118 -0.049048785 -0.007567007 0.016521016 -0.0139299445 -0.042367257
-0.05228466 0.037919935 0.05296386 -0.013670829 -0.06802953 -0.032158356

conv2.weight f4 [16, 30, 3, 3]
00000000: e9f9 973d 7bb9 a03c 51d1 ec3d f396 90bd
00000010: e744 eabc 6d64 603d 31ac ab3d 9d63 a0bc
00000020: 38b2 7b3d dea2 dcbc 6a84 08bd 90ee a83d
00000030: 0ad5 be3c 55f1 31bd 0eaf cf3c c75f f13d
00000040: 55e3 563d 5314 183c 09ed 89bc e799 6ebd
00000050: 2228 733d 0d01 183b 238d 4dbd 49a0 ef3b
00000060: 1d23 fe3c 333e 8d3b 00ac 28bc 5972 d1bd
00000070: 7dfd 1bbc 4c52 15bd f2f5 afbb d1b8 81bd
00000080: 6669 0d3d 968d 97bd 4a2c 3bbd 7af8 86bd
00000090: 05e0 56bd f0b9 41ba 7191 38bd 0eff 36bd
000000a0: 516a 323c 2328 2c3d 82d2 45bd f769 523d
000000b0: bfb5 d83c 31f4 8b3d 61a3 823a 98ea 993d
000000c0: e47b c4bd ce89 cd3c a06e b7bd eb90 0f3d
000000d0: 0fc1 41bd 0307 05bd 4759 a63d d91d bc3d
000000e0: 15dd cbbc cb79 6cbd 125c 693d 2f25 2dbd
000000f0: 96cc 52bd 8788 a8bd 44aa b63d 4e67 d43b
00000100: 23a5 ac3c 8261 57bd d4ac 3c3d 5a92 bfbd
00000110: c773 dcbc 127e 97bc 3647 5b3d 75a9 6dbc
00000120: cbff 103c 7f4a 8d3d 7666 e43c 6d43 943d
00000130: 403f 0dbd dbab 533d b0c2 afbc 588a 89bc
00000140: 56f8 1e3c d827 fa3d 7695 d53c de43 a93c
00000150: d8c4 4fbc a65b febc 27e1 ac3d 4e59 4dba
00000160: 9cf3 c5bc b285 1e3d 2573 da3c 9e06 c6bb
00000170: 03b2 c23d 02f1 933d d7e5 133d 7250 11bd
00000180: 8713 06bd 29f2 c03d 9461 dc3c b814 a3bd
00000190: 241c 48bb 5316 083d dedf 1e3d 4a97 c53d
000001a0: b20d 673c 2728 63ba cbfc a63d 10a6 8dbb
000001b0: 1949 0d3d c202 97bd f726 0bbd 4300 98bd
000001c0: b5b1 313c 899f 9ebd 7042 9f3d b755 30bd
000001d0: a90e 8abd 1fc4 a93a 7b0c 53bd 6414 80bd
000001e0: 8e71 903d 4e84 fd3c 1756 773c 0690 393d
000001f0: e1c3 1dbd f80d 473b 4cfb bb3d 4205 44bd
00000200: c253 1c3d 5c50 a53d 442b 88bc 8d59 a33d
00000210: 16b5 f4bc 5b73 d1bc e59a 993c 45bc cebc
00000220: 0c42 13bd ea42 e2bc dea2 593c d5d2 7abd
00000230: f8d1 a7bd ef00 b3bd 7858 b43d c0b4 2bbc
00000240: 44d7 513d a1d0 b2bd 6f0a 81bb bd86 8abd
00000250: b310 8e3b de23 d13d 2084 a13d 23ef 03bd
00000260: d940 5abd 7c2e aebd 60f1 56bd ac49 0c3d
00000270: 58fa 80bd 7b28 5a3d 4ccb 1ebd 6685 b73d
00000280: fd57 f2bc 5db1 c3bc 43e5 693d 4d7b 8c3d
00000290: 2cb6 953d 3984 823d 6271 b9bd 6db2 3a3d
000002a0: ee03 94bd dea4 2f3d 69a9 383d 063d 633c
000002b0: a811 683d 41d5 4b3d 1b96 8b3d 2a27 c63d
000002c0: 21e7 5a3d 1a1a 86bc a576 213c 76fb cb3c
000002d0: af62 96bd 0a28 2f3d 8e98 5dbd 03de 993d
000002e0: 04b6 d13d 6780 d73c 2e3f c23d 371b 3f3c
000002f0: 9b98 923d c84a 803d ce30 8dbd 8fda 82bd
00000300: ccfa 91bb 5b76 7b3d 1f2d 423b 45e1 3fbb
00000310: 2818 9e3d e12a d43d 2e2d 423d 6306 0d3d
00000320: 2eea 683d 63e7 8f3c aab8 afbd 283c c2bd
00000330: 9fe4 b9bd 5b96 afbd 466c 9c3d 32c9 58bc
00000340: 88ab 9abd 7b4a 8d3c e42a 91bb a280 82bd
00000350: cf63 cbbd c01e 8f3c 84a7 aabb 4f8d 34bd
00000360: 55a2 73bd b2ab f3bc cb42 b03d e2c7 a8bd
00000370: 2597 25bd d38c 06bd 47a2 b63d ed23 013b
00000380: 7ea0 803d 4a90 49bc d26f 84bc 841c 723d
00000390: afe0 10bd 2d47 843d 25a7 bd3d 8476 023d
000003a0: 8429 513d c540 c2bd 9132 d23d 749a 4abd
000003b0: f836 8c3d ab90 2c3d 4fc1 a03c b047 193d
000003c0: 7c8b bfbd 3256 c73d f152 fdbb 6305 b83d
000003d0: 5d17 4d3b 14c2 16bd a30d 7e3d 74ce 17ba
000003e0: 33ab 80bd 540d 333c 39e1 d3bd fb94 87bd
000003f0: 6346 b8bd 9590 a3bb d5c4 85bd d681 87bc
0.074207135 0.019619694 0.115633614 -0.07060041 -0.028597308 0.054783273 0.08382452 -0.01957875
0.06144926 -0.02693313 -0.033329405 0.08248627 0.023294944 -0.043443043 0.025352027 0.11785846
0.052462894 0.009282189 -0.01683666 -0.05825224 0.059364446 0.0023193986 -0.050183427 0.0073128087
0.031022603 0.0043103932 -0.010294914 -0.10226888 -0.009520886 -0.036455438 -0.005369895 -0.06334079
0.034524344 -0.07400052 -0.045696534 -0.06590362 -0.052459735 -0.00073900726 -0.04506058 -0.044676833
0.010889606 0.042030465 -0.04829646 0.051370587 0.02645385 0.06833685 0.0009966904 0.07515448
-0.09593943 0.025090124 -0.08956647 0.035050314 -0.047303256 -0.03247739 0.08122497 0.091853805
-0.024885694 -0.05773334 0.05697257 -0.04227179 -0.05146464 -0.082291655 0.08919194 0.0064820414
0.021074837 -0.052583225 0.04606326 -0.09354086 -0.026910676 -0.018492732 0.05353471 -0.014505734
0.008850048 0.068989746 0.027880888 0.07239423 -0.034484148 0.051677566 -0.021455139 -0.0167896
0.009702763 0.12214631 0.026072245 0.020662244 -0.012681209 -0.03104956 0.08441382 -0.0007833437
-0.024164014 0.03870172 0.026666233 -0.0060432693 0.09506609 0.07223703 0.036107864 -0.03547711
-0.032733466 0.094211884 0.026901998 -0.07962936 -0.0030534351 0.033224415 0.038787715 0.09647997
0.014102386 -0.0008665346 0.08153685 -0.0043227747 0.03449354 -0.07373573 -0.033972707 -0.07421925
0.010845591 -0.07745273 0.07776344 -0.043050494 -0.067410775 0.0012952125 -0.051525574 -0.06253889
0.07052909 0.030946877 0.015096209 0.045303367 -0.038516883 0.0030373316 0.091787905 -0.047856577
0.038165815 0.08071968 -0.016622193 0.07976065 -0.029871505 -0.025567701 0.018750617 -0.025236258
-0.03595166 -0.027619798 0.0132834595 -0.06123622 -0.08194345 -0.087404124 0.088059366 -0.010480106
0.051230684 -0.08731199 -0.0039380114 -0.067639805 0.004335487 0.10211919 0.07886529 -0.03221048
-0.0532845 -0.0850496 -0.052476287 0.034249946 -0.06297749 0.05326126 -0.038768098 0.089609906
-0.029582972 -0.023888284 0.057103407 0.06859455 0.07310137 0.06372876 -0.09054829 0.045580316
-0.07227312 0.04288184 0.045083437 0.01386953 0.056657463 0.04976392 0.0681574 0.09675439
0.053443078 -0.016369868 0.009854947 0.02490018 -0.07343041 0.042762794 -0.054100566 0.075130485
0.10239795 0.026306344 0.09484707 0.011664203 0.071580134 0.062642634 -0.068940744 -0.06389343
-0.004454946 0.06139217 0.0029628945 -0.0029278558 0.07719451 0.10359741 0.047406368 0.03442992
0.056863956 0.017566388 -0.08580144 -0.0948413 -0.09076809 -0.085736 0.07637839 -0.013231562
-0.07552248 0.01724743 -0.004430162 -0.06372191 -0.09931146 0.017470717 -0.0052079577 -0.044080075
-0.059480984 -0.029744957 0.0860649 -0.082412496 -0.040427346 -0.032849144 0.08917671 0.0019705251
0.062806115 -0.012302468 -0.016166601 0.059109226 -0.035370525 0.06458888 0.09260396 0.031851307
0.051064983 -0.0948501 0.10263551 -0.049463704 0.06846422 0.042130154 0.019623427 0.037421882
-0.093527764 0.09733237 -0.0077308347 0.089854024 0.0031294443 -0.03680618 0.062024724 -0.0005790957
-0.06282654 0.010928471 -0.10345692 -0.06620213 -0.089978 -0.0049916008 -0.06531683 -0.016541403

conv2.bias f4 [16]
00000000: 2108 28bd 0916 eebc f4b9 9ebd c4dc aabd
00000010: 9ee6 84bd 28ed 423c c37e 2fbc aae7 5fbd
00000020: f341 863b 0fe9 bdbd 09f5 16bd f634 78bc
00000030: cb45 af3c ed3b 053b 09a6 8abb 3320 55bd
-0.041023377 -0.029063242 -0.077503115 -0.08342889 -0.06489299 0.011897363 -0.010711375 -0.05466429
0.004097217 -0.09272968 -0.036854777 -0.015149346 0.021395585 0.0020329908 -0.0042312187 -0.05203266

conv3.weight f4 [16, 16, 3, 3]
00000000: 8b96 263e 8860 203c a1b3 8bbd dcab 263e
00000010: 0857 b03d 4cca 963d bdd3 ec38 d617 223e
00000020: af31 113e ce8c 92bd c2ee 9c3d 9a84 053e
00000030: 1026 9bbd b6db 473d 792b 37bd fcf5 d03d
00000040: 44ec c93d 25d3 8a3d 2cc6 01bd 3fc0 c53d
00000050: f596 febc 6962 993d 4aad 533d c755 d5bd
00000060: 15d5 aabd f11b 8ebc 1425 dcbd 9812 1ebc
00000070: 2853 b53d 9904 053e 33ae 913c 5fd4 b8ba
00000080: 3840 89bd 9e7c 703d 0068 243d 4fff 953d
00000090: 09b2 3fbe db41 8ebd 3b6f 0abe 84dd 21be
000000a0: d726 d5bc b2ec 3dbe aa0e 23be 9deb 0c3c
000000b0: d433 29be 4881 cb3c 2721 cabd 3fb3 12be
000000c0: 6954 64bd 49b7 fbbd d906 ebbc 2d6d 883c
000000d0: 7331 23be 4292 1dbe 02cf d93c 767a 763d
000000e0: 0bff 213e 4cec 0d3e 9309 bebc addb fa3d
000000f0: 13b1 e53d 3f7c 44bd 7ddc ef3d bf7e f83d
00000100: db94 acbc 249d e33d e4d2 fa3d f6a2 223d
00000110: 31d0 4a3c 5750 db3d daf0 b93d 36c4 f93d
00000120: 1417 b8bd b95e d03c a774 5b3d 55e3 b7bd
00000130: 7ae1 033c 6dba a9bd 8836 bebd 410e dd3d
00000140: a6dd e8bd 9285 96bd f0a6 0a3e d4ad d73d
00000150: 46e4 833d 0d52 fd3d 4ca5 133d 78ed b1b9
00000160: ff7e ba3c 6b1e 6e3d 35c6 2abe 5c18 2bbe
00000170: 9b2c e7bd 4ff6 c7bc 7181 143d adbd e8bd
00000180: dcc8 1dbe 2915 27be c525 88bd 42c2 96bd
00000190: c72d d2bc 5a04 9fbd 9a0e 663d 5709 1fbd
000001a0: 3d7d abbd 6932 243d f920 5abb db12 993d
000001b0: b6be 993d 618d ea3d 75f2 c83d 94d5 98bb
000001c0: 4242 173e 1f53 853d 635e 143d 402f 793d
000001d0: 2cbc 183e 8430 a63d f49a be3d ecd4 a4bd
000001e0: bc04 00bd 3a1a ad3c d754 c7bc 3b22 c5bc
000001f0: ff82 b13d 8707 92bd 2b5b 0bbe 34bf 78bd
00000200: 8327 0fbe 414a 0abe 701f 22be 7446 4f3b
00000210: d353 0dbe 90d0 c8bd 28cc 93bc d956 17be
00000220: 23ce cfbc c5a0 aabd c65a f0bd e2fa 3dbc
00000230: be50 c13b dbbd 403d e7c5 ca3d ba4d 503c
00000240: 7ae3 0e3b b1b5 77bd 99bf fbbc 40e5 debd
00000250: 97ee dbbd db5a b9bd 42c3 b13d 96a3 5c3d
00000260: 31a9 e53d a544 b23d 486b b93d 3d8e ef3c
00000270: 001c 7a3d 1ba0 313d 9893 c8bd 82b6 b9bd
00000280: efe3 d03d af1e 9f3d e4a0 ecbc 370c 8bbd
00000290: f542 abbd 6ab2 bbbd 6ba5 1cbd 6a44 253c
000002a0: c6e0 843b 043a 353d b8fa 713c 57fd 013d
000002b0: ab88 b93d 58df d63c fac0 c4bb 986a 753d
000002c0: b820 273d e188 563d 9bb0 03bd ac21 f5bd
000002d0: e08b 14bd 001e ce3d 64d1 22bd 5dd4 75bd
000002e0: feea 59bd b9da 8e3d 753d ef3d d23b e2bd
000002f0: 0a64 22bd f215 c43d 4ff0 d53c 3052 963d
00000300: 8765 babd 2cf6 963d c24a 6ebd 3ced 97bd
00000310: 5c28 45bd 1c6c b5bd 6cc1 2f3d 2017 b93d
00000320: 08d9 96bd 948e 473d 5e3d afbd 9f77 8c3d
00000330: 305c 9dbb d742 633c c308 babd d618 343d
00000340: 3535 3a3d 2a97 2ebd ee40 51bd c367 c23d
00000350: 41c1 af3d 8317 79bd bfe5 2f3d cc93 51bd
00000360: c90f e6bd b21b d4bb 3c84 d3bd b076 6dbd
00000370: 59b6 33bc 64ed a3bd 5503 923d 1575 10bd
00000380: 819c c0bd 06d3 bf3c e555 073d e2c8 f7bc
00000390: 3885 b5bd fd3e 603d bfee 26bd 9d63 3dbd
000003a0: 3dae cf3d a787 86bd 1ae9 863d 27aa 3cbb
000003b0: ae06 01bd d167 95bd 2000 f03d d625 4d3c
000003c0: 0150 873c b96e c4bd ec7b aa3d cfd4 a1ba
000003d0: f11a 5a3d d32f a63d 340d ea3c b6d3 8f3d
000003e0: 756d 65bd 89a2 4d3d 4619 493d 6aaf 773d
000003f0: 641c 0ebd d39f 953d b3bb dd3d f4fa 58bd
0.16268365 0.00978864 -0.06821371 0.16276497 0.0861035 0.07362804 0.00011292796 0.15829405
0.14179109 -0.071557626 0.07662727 0.13038865 -0.07575619 0.048793517 -0.044719193 0.10203168
0.09859517 0.06778554 -0.031683132 0.09655809 -0.031077841 0.074894734 0.051678933 -0.10416751
-0.083414234 -0.017347308 -0.107492596 -0.009647988 0.088537514 0.12990035 0.01778326 -0.0014101377
-0.06701702 0.058712594 0.040138245 0.07324087 -0.18720259 -0.06946155 -0.13518994 -0.15807158
-0.026019497 -0.18547323 -0.15923563 0.008601096 -0.16523677 0.02484192 -0.098696046 -0.1432619
-0.055744562 -0.12290818 -0.028689789 0.016653622 -0.15936832 -0.15387824 0.026587967 0.06017538
0.15819947 0.13859671 -0.023197925 0.12248931 0.11215415 -0.047970053 0.11711977 0.1213355
-0.021067074 0.111139566 0.122472554 0.039706193 0.012378738 0.10708683 0.09079142 0.121956274
-0.08988777 0.025435792 0.053578045 -0.08978907 0.008049363 -0.08287511 -0.09287745 0.10793734
-0.11370401 -0.07349695 0.13540244 0.10531202 0.06440024 0.123691656 0.03604631 -0.00033937
0.022765635 0.058134478 -0.16677172 -0.16708511 -0.11287805 -0.024409441 0.036256257 -0.11364303
-0.15408653 -0.16316666 -0.06647829 -0.073612705 -0.025656594 -0.07764502 0.05616627 -0.038827267
-0.08373497 0.040087137 -0.0033283813 0.074742995 0.07507078 0.11452747 0.0981187 -0.0046641324
0.14771369 0.06509995 0.036222827 0.060836077 0.14915532 0.08114722 0.09306899 -0.08048424
-0.031254515 0.02113067 -0.024332447 -0.024064174 0.08667564 -0.07130342 -0.13608997 -0.06072922
-0.13979916 -0.13504888 -0.15832305 0.0031627687 -0.13801508 -0.09805405 -0.018041685 -0.14779224
-0.025366848 -0.083314456 -0.11736064 -0.01159546 0.005899518 0.04705606 0.09901028 0.012713844
0.0021803067 -0.06047601 -0.03073101 -0.1088357 -0.10738867 -0.090505324 0.086798206 0.053866945
0.11213911 0.08704499 0.090536654 0.02924263 0.06106186 0.04336558 -0.09793776 -0.09068014
0.10199725 0.07769524 -0.028885312 -0.06789439 -0.083623804 -0.09164889 -0.038243692 0.010087112
0.0040551154 0.04424478 0.014769249 0.031735744 0.090592705 0.026229545 -0.00600445 0.05991611
0.040802687 0.05237663 -0.032150846 -0.11969313 -0.036266208 0.10064316 -0.03975047 -0.06001698
-0.05320262 0.06975312 0.11681644 -0.11046566 -0.039646186 0.09574498 0.026115565 0.07339895
-0.09101396 0.07371172 -0.058176763 -0.07418296 -0.048134193 -0.08858511 0.04290907 0.09037614
-0.07365614 0.048719957 -0.08556627 0.068587534 -0.0048022494 0.013870916 -0.090837024 0.043968998
0.0454609 -0.04262463 -0.051087312 0.09492447 0.08581782 -0.06081344 0.042943712 -0.05116634
-0.112334795 -0.006473028 -0.10327956 -0.057974517 -0.010968768 -0.08004263 0.07129542 -0.035267908
-0.09404851 0.023416054 0.0330409 -0.030247156 -0.088633 0.05474757 -0.04075503 -0.046237577
0.10140655 -0.065688424 0.06587429 -0.0028787942 -0.03150051 -0.07295192 0.11718774 0.012521228
0.016517641 -0.09591431 0.083244175 -0.0012346747 0.05324835 0.081145905 0.028570749 0.070228025
-0.05601259 0.050203834 0.04909637 0.060470022 -0.034695044 0.07305875 0.108268164 -0.052973703

conv3.bias f4 [16]
00000000: 1d8c d93d 0f7b 413c 4b53 e63a d80a a83d
00000010: 5ddb 75bc fbf1 f3bc c65a 943c 228d ae3d
00000020: 6ac4 c33d ce64 4cbc 1de2 473c e1cc 653d
00000030: f5df 0d3e 9b94 83bb 5908 423c 7f8d efbb
0.106224276 0.011809125 0.0017572431 0.08205193 -0.015005914 -0.029778471 0.01810969 0.08523013
0.095589474 -0.012475206 0.012199906 0.05610359 0.13854964 -0.004015518 0.011842811 -0.007310569

conv4.weight f4 [16, 16, 3, 3]
00000000: 8060 563c ea0b dabd ea6f 8b3d 0930 453d
00000010: 68f1 ba3c 8f7e dbbc 6f64 da3d c26c d2bd
00000020: c442 7a3d 80ba d63d 5f98 2c3d c6b8 c93d
00000030: fdb8 96bd e686 dc3d 321d b53d 1de0 4ebd
00000040: fb05 d23d 404a 5fbd dcf8 cfbd 7dd5 e73d
00000050: 80b4 1e3d de6f 893d 02eb f13c 917c 943c
00000060: 9ba2 223d 3b41 363d 156f a3bd 2a87 9f3d
00000070: e00b 093c b292 583d 3ee2 d5bd 790a 98bd
00000080: 8855 5bbd 3bf8 c9bd bc47 bd3d 4411 923c
00000090: b514 b3bd dac2 96bd ff6c e1bc 32cb ce3d
000000a0: 5732 4cbd b1e5 dd3d 81e4 823d 045c b3bd
000000b0: 00f7 dfbd 0451 0c3d 7610 a83d f537 c2bc
000000c0: b8ad d7bd f990 363d c377 22bd 4305 69bd
000000d0: 71e2 283c ced7 b73d 07a7 ddbd b958 e23c
000000e0: 5f37 a1bb 5ae8 a8bd d875 cd3d 3d72 91bc
000000f0: ad30 eb3d c0b8 aebd a937 043c d6c7 02bd
00000100: a435 cd3c 7606 edbd 38d4 113d d2f6 82bd
00000110: ca3d 893d 7be0 52bd 68b8 8aba 6a6e bebd
00000120: dfdc 9dbd 53f8 693d 046d db3d e61b cd3d
00000130: 1124 cabd ef1e 22bd b209 a93d 20a4 413d
00000140: 2d71 893d ebdd de3d 190b 07bd 5936 25bd
00000150: 1b22 1e3c 9a16 dfbd 971d d4bc 9ee6 e83d
00000160: 3d58 23bc 9f86 34bd 4038 41bd dca1 c5bc
00000170: e769 19ba c394 d8bd ce42 ba3d 3931 efbd
00000180: 7667 72bd 229a c9bd 18ed 8fbd 47e3 103d
00000190: 2efb 99bd 28f7 42bd 4960 adbd 243e babb
000001a0: 2baf db3d 150f 4c3d 4656 943d 2494 c4bd
000001b0: 1feb 26bd 2ca4 5f3d 3e39 3fbc 45fb bd3d
000001c0: d774 adbd ac41 ebbd a3c5 bebd 4009 75bd
000001d0: b536 ad3d f57c 2bbd 5f42 71bd b859 94bb
000001e0: 430a 883d efe3 f3bd 0c4a e3bc b27f 34bd
000001f0: bf33 9dbd a477 14bd ed08 36bc d277 d9bd
00000200: f2ba c13d 3f17 1b3d 06c4 653b 588c 9138
00000210: c785 993c 9f80 e03d 842f b83c c914 833b
00000220: 60e4 50bb d218 a7bd a870 f2bd 8008 bdbc
00000230: b8bd debd d6da 483d c4dc 89bd d78c 763c
00000240: 5055 8d3d 1fbd 5abd 8462 87bc 44cc 9bbd
00000250: 4ed9 f1bb 2cda e23d ac2d 863d 5f65 c33d
00000260: 630e 66bd 82a6 d9bd 7c7c 62bd 0a3f 4ebd
00000270: 91d9 923d e81d 7ebd 096b 9f3d 0ff1 b7bd
00000280: c329 0f3d 4314 913c 2a8f 9d3d 707f 9c3d
00000290: 7bb7 c1bd 6ebc d63d 1d67 e43c 7731 ed3d
000002a0: 615e 403d d479 d8bd dc40 d63c b00b f0bc
000002b0: 7313 253d a959 69bd 61c3 b6bc 2491 d6bd
000002c0: b606 d8bc e98e aebd b90f bd3c d86f d9bd
000002d0: 74d1 a8bc c573 843a 50f6 f9bb 6181 ce3d
000002e0: bde5 e7bd 724d 9c3d 131f 0ebe c66a 82bd
000002f0: 8703 84bd ba1d 81bd f382 193d 6f84 4dbd
00000300: fff7 15bd 8513 c23d 4b38 0e3d 34c1 0b3d
00000310: 577d 0abd e6b5 093d d144 5bbd dcc2 ec3c
00000320: 6c6e d5bd 0d63 dbbd 6182 763d f621 823d
00000330: 42df 963d 03cc 72bd cfe3 abbc 766d 7cbd
00000340: 25fa 68bd f80d 1a3c 9f1e 49bc 32fe 9d3d
00000350: 8dc7 d43d 0474 e13d b179 d4bc d056 6e3c
00000360: 6a63 22bd 4e12 cc3c db9b e4bd 1cc1 86bc
00000370: 2085 c0bb e4f1 053d 6606 8e3d 2d97 9cbb
00000380: 2de4 4ebd e6c1 d93d 5e7e e2bc 33b0 c1bc
00000390: 270e 8fbd 35ed 663d 553f 8a3d f50b 833d
000003a0: 51e0 823c 3217 adbd 1d3a dc3d 1906 a63d
000003b0: ade2 9a3d 18de 3d3d 6c47 873c 3228 7b3d
000003c0: 4c51 0cbd f611 f5bd abff 60bb 2aa7 b1bd
000003d0: 22f4 c73d 6de7 d4bd 1f3c 43bd 3bf4 023d
000003e0: f454 563d 4104 f03d 84cc c53d cfad 923c
000003f0: 3980 bd3d b3df d23b 4404 52bd d2d1 15bb
0.013084531 -0.10646804 0.06808455 0.048141513 0.02282019 -0.026793746 0.106636874 -0.1027465
0.06109883 0.10484791 0.0421375 0.09849696 -0.073595025 0.10767917 0.08843459 -0.0505067
0.10255047 -0.05451417 -0.10154888 0.113200165 0.038746357 0.0671079 0.029531006 0.018125804
0.039705854 0.044495802 -0.079801716 0.077894524 0.008364648 0.052874275 -0.10443543 -0.074238725
-0.053548366 -0.09861799 0.09242198 0.017830499 -0.08744184 -0.07361384 -0.027517794 0.1009735
-0.049852695 0.10834826 0.0639124 -0.08757785 -0.109357834 0.03425695 0.08206265 -0.023708323
-0.10531181 0.04457185 -0.039664995 -0.056889784 0.010307894 0.08976708 -0.108228736 0.027630197
-0.004919931 -0.082474425 0.100322425 -0.017754668 0.114838935 -0.08531332 0.008069911 -0.03192886
0.025049992 -0.11573498 0.03560278 -0.063947335 0.067012385 -0.051483613 -0.0010583522 -0.092984036
-0.077081434 0.057121586 0.107141525 0.10015087 -0.0987016 -0.03958028 0.08253802 0.047275662
0.0671104 0.10882171 -0.032969568 -0.040335033 0.009651686 -0.10892983 -0.025893016 0.11372112
-0.009969768 -0.044073697 -0.047172785 -0.024125032 -0.00058522675 -0.10575249 0.09094773 -0.1167931
-0.0591807 -0.098438516 -0.07027644 0.035373 -0.07518612 -0.047598988 -0.084656306 -0.0056836773
0.1072677 0.04981907 0.07243018 -0.09598568 -0.040751573 0.054599926 -0.011671362 0.092764415
-0.08469551 -0.11487135 -0.0931504 -0.059823275 0.084577 -0.041867215 -0.058901187 -0.004527297
0.06642582 -0.11908709 -0.02774527 -0.044067092 -0.076758854 -0.03624691 -0.0111105265 -0.10618557
0.09459485 0.037863966 0.0035059466 6.94028e-05 0.018740548 0.109620325 0.022483595 0.0040002805
-0.0031874403 -0.08159031 -0.11837894 -0.023075342 -0.1087603 0.049036823 -0.06731561 0.015048227
0.06901038 -0.053403016 -0.016526468 -0.0760732 -0.007380641 0.11076769 0.0655168 0.095408194
-0.056166064 -0.10627462 -0.0552945 -0.050353087 0.07170404 -0.06204024 0.07784087 -0.08981525
0.034951936 0.017709857 0.07693322 0.07641494 -0.09458824 0.10485159 0.0278812 0.115817
0.046965007 -0.10570112 0.026153974 -0.029302448 0.04030175 -0.056970272 -0.02230996 -0.10476902
-0.026370388 -0.08523352 0.023078786 -0.106170356 -0.020607688 0.0010105303 -0.0076282397 0.10083271
-0.11323116 0.07631959 -0.13879041 -0.06368022 -0.06445985 -0.06304498 0.0374784 -0.050175127
-0.03661346 0.09476379 0.034721654 0.0341198 -0.03381094 0.033620737 -0.053532425 0.02890151
-0.10421452 -0.10712252 0.060182933 0.06354134 0.07366802 -0.059276592 -0.020982651 -0.061627828
-0.05687918 0.0094027445 -0.012275367 0.077144995 0.10389624 0.11008456 -0.025936933 0.014547065
-0.03964559 0.024911072 -0.111625396 -0.016449504 -0.0058752447 0.032701388 0.06934814 -0.0047787637
-0.050510574 0.10632686 -0.027648147 -0.023643589 -0.06985121 0.056378562 0.06750361 0.06398765
0.015976103 -0.0845169 0.10753272 0.08106632 0.07562766 0.046354383 0.016513549 0.06131763
-0.03425722 -0.119663164 -0.0034332077 -0.08674462 0.097633615 -0.103957035 -0.047664758 0.031971198
0.05232711 0.11719561 0.09658149 0.017905144 0.09252972 0.0064353584 -0.0512736 -0.0022860658

conv4.bias f4 [16]
00000000: 4c43 1ebd 84e4 843d 53d2 d73d b1b1 c13c
00000010: 3e85 423d dfff 033e f21f 77bd 51f6 5dbd
00000020: 4094 3b3d 9a88 dbbb 33fd cf3c 7832 fbbc
00000030: f8bf 153e cbcf c23d e488 133e b36f 65bc
-0.038638398 0.064888984 0.10538163 0.0236443 0.04749035 0.12890576 -0.0603332 -0.054189984
0.04579568 -0.006699634 0.02538929 -0.030663714 0.14624012 0.095122896 0.14407688 -0.014003682

conv5.weight f4 [16, 16, 3, 3]
00000000: 39d7 b83d 6f17 e33c 9bbd 9e3d b683 9a3d
00000010: 5cd7 853d 7bba 8c3d ffc7 d1bd 8f27 f03c
00000020: d98a a2bc ff5a ca3c b9cc 88bd cae4 de3d
00000030: 71f3 41bd 64f2 3e3d 3c37 c03d cad2 f0bd
00000040: 29b1 66bd 4d5a e0bd d00a c53d c6d6 b5bd
00000050: bf7a 8d3d f999 30bd f380 0bbe c0b2 acbd
00000060: 5c5c dbbc 1d6a c73d 1ff2 00be 0798 11be
00000070: f536 163b 6613 08be 508e ecbd 7604 afbc
00000080: ccd7 08be 3ada 05be b0c2 3d3d 5dc2 cbbd
00000090: 5d70 5a3c 64c1 9dbd c58b 693d 42eb f93b
000000a0: 9ccc ab3d e5a3 353d bea8 ee3d dab9 e93d
000000b0: 67b1 7bbd 3c7f 793d 26ec 073e cf07 453e
000000c0: 2cd9 273e 6084 333e 6a59 6abd 2d37 c03c
000000d0: 73b8 273d 8f0f 243e d9af d23d 9bdb f2bd
000000e0: 745d ddbc 2246 83bd 6173 a9bd c8a9 a8bd
000000f0: ec87 d1bd 6cf5 b43d 7fb7 b6bb f18f ad3d
00000100: 9ea9 afbd 607e a33d 9686 49bb b541 bd3d
00000110: e6a8 643d a346 e4bb 6123 963d 151c 14bd
00000120: eece 73bc 21ae c3bc 63c6 61bd 9a31 37bd
00000130: 9357 813d b4bd d5bc d1de e9bd fa04 de3c
00000140: 521c 01be 6a39 a63d b4c0 e43d 77ae 30bd
00000150: 6551 c73c a56c 583d ef60 123d 57bd c8bd
00000160: 8478 da3d 1491 8fbd e50f 273d 48b6 f4bc
00000170: cc69 a8bd a90f 153d a5e3 1abd 1722 613d
00000180: 352d b63c a183 3abd 1894 a93c 01f7 de3d
00000190: 7930 073d 64c8 c9bd c625 a6bd a80c 953d
000001a0: 3023 b0bd 7c4d 1a3d 8383 473d 9e23 cd3d
000001b0: 230d 0e3e d4d1 9f3d db10 a93d 77ff 1a3c
000001c0: 0741 a83c cacf bb3d 44ed 86bd d56e 7bbd
000001d0: e45c d73b bc50 1ebd 99a0 e93d acc8 063e
000001e0: 2b88 10bd ad73 36bd 6374 2dbd ceb5 f33d
000001f0: b00a c7bc fce5 b63c 8515 9ebc a4d4 bd3d
00000200: cea4 693d 1937 9e3d be18 a33c cfbe d63d
00000210: ac28 c33c 9c9e 0f3e 0021 a43c d545 c73d
00000220: b005 6fbb e534 563c 1066 4fbd fb29 a4bd
00000230: 82ec 8cbd b285 b9bd 51f1 923d dc03 6f3d
00000240: e662 fbbb 2830 6d3d 8e79 3c3d ccac d03d
00000250: ac43 d83d 4a1a ea3d 9ff1 49bd b26f d33d
00000260: 4de7 f2bd 8cc9 313d 777a 92bd 144b a83d
00000270: b26f e03c 6a06 d7bd 98d7 db3c 1133 95bd
00000280: b369 d63d f7a5 15bd 0fb1 cbbd 8dfa 69bd
00000290: e6b1 db3d fee3 ce3c e813 f63c aa53 b53d
000002a0: 9519 1bbd 178a a53d 8900 613d 3b72 2e3b
000002b0: 81b0 d63d ea84 e8bb fefc 91bd f64b f1bd
000002c0: c6bb a5bd 1894 98bd 11e9 303d de0f 543d
000002d0: c7f0 02bd 39ca 1e3c 8299 d93d ac7e 78bb
000002e0: bb7e 883d c946 2b3d cf43 e53d a93a e23d
000002f0: b6c8 acbd 42e7 6ebd 4ca3 89bd 6e23 52bd
00000300: cb6f bcbd 337f d5bd a0f9 9c3d 6d8f 513d
00000310: 03cb b13d e889 c1bc 575e 713d 85ca efbd
00000320: e8ad df3c 25fa 65bc eca9 e63c b326 e3bc
00000330: d3e6 453d cd11 fdbc d585 25bd 9bcf 40bc
00000340: 635b 9bbc 4d99 95bd c2a7 e93d 7420 af3d
00000350: 5dc8 9d3d 2108 5fbd bd04 ab3d 5962 acbd
00000360: b83b b13d 8b68 5bbc b055 9dbc 9e9a 82bd
00000370: 8122 203b 1436 0dba 9ad5 a0bb dc72 8d3d
00000380: d9c2 cdbd 936b 9fbd 58ec 5fbd b7d3 d3bd
00000390: 6242 85bd 7db1 a33d fcd5 f63c d6b0 9ebd
000003a0: c776 ddbd e72a a13d b3f7 f2bd 2efb 973d
000003b0: 0c64 a73d 0afd c2bd cb19 013d 65a4 27bd
000003c0: 5dc6 15bd 6cb7 963c e473 e0bd b65c b2bd
000003d0: b8fc 283d 92fd f9bc b11e bebd 0f3d 86bb
000003e0: dde0 b03a f5eb 393d 2a57 903d 0902 c3bd
000003f0: a5c0 40bd ecb1 e83d 2f24 ccbd e45f de3d
0.090254255 0.027721135 0.07751008 0.07544653 0.06535217 0.06871506 -0.10243224 0.029315738
-0.019841598 0.024701593 -0.06679673 0.10883482 -0.047351304 0.04661788 0.09385535 -0.11758955
-0.056321297 -0.109547235 0.09621203 -0.088788554 0.069081776 -0.04311559 -0.13623409 -0.08432531
-0.026777439 0.097370364 -0.12592362 -0.1421815 0.002292094 -0.1328865 -0.115505815 -0.021364432
-0.1336357 -0.13071528 0.046328247 -0.09949181 0.013332454 -0.07702902 0.05701806 0.007626922
0.083886355 0.044345755 0.11653279 0.114124015 -0.06144848 0.060912356 0.13273677 0.1924126
0.16391438 0.17530966 -0.05721418 0.02346381 0.04094739 0.1602156 0.102874465 -0.11858293
-0.027022101 -0.06409861 -0.0827396 -0.08235508 -0.10231003 0.08835873 -0.0055760737 0.0847472
-0.08577274 0.079830885 -0.0030750385 0.09241048 0.055825137 -0.0069664284 0.07330967 -0.036159594
-0.014880879 -0.023886742 -0.055120837 -0.044725038 0.063155316 -0.026091434 -0.11419452 0.027101982
-0.1260846 0.081164196 0.11169568 -0.043135133 0.024330804 0.052837986 0.035736974 -0.09801739
0.10667518 -0.07010093 0.040786643 -0.029872075 -0.08223304 0.036391888 -0.037814755 0.05496415
0.022238353 -0.045535687 0.0207005 0.10886956 0.03300521 -0.098526746 -0.081126735 0.072778046
-0.086004615 0.03767155 0.048709404 0.10016559 0.13872199 0.078036934 0.08255168 0.009460322
0.02053882 0.09170492 -0.065882236 -0.061384995 0.0065723527 -0.038651213 0.11407585 0.13162488
-0.03528611 -0.04454391 -0.042347323 0.11899911 -0.024297088 0.022326462 -0.01929737 0.092690736
0.057041936 0.07725353 0.019909259 0.104856126 0.023823105 0.14025348 0.020035267 0.09730116
-0.0036471896 0.0130741345 -0.050634444 -0.0801582 -0.06881048 -0.090587035 0.07174934 0.05835329
-0.0076717017 0.057907254 0.04601436 0.101892084 0.105597824 0.114307955 -0.049302693 0.103240386
-0.118605234 0.0434051 -0.071522646 0.08217445 0.02739701 -0.1049927 0.026836202 -0.07285131
0.10469379 -0.03653523 -0.099458806 -0.05712371 0.10727291 0.0252552 0.030038789 0.08853848
-0.037866194 0.08082979 0.05493215 0.002661838 0.10482884 -0.0070959227 -0.071283326 -0.117820665
-0.080924556 -0.07450122 0.04319102 0.051772945 -0.031967904 0.009691768 0.106249824 -0.00379173
0.06664797 0.041815553 0.11194574 0.11046345 -0.0843672 -0.058326013 -0.067205995 -0.05130332
-0.0920101 -0.10424652 0.076648 0.051162172 0.086812995 -0.02362533 0.05892786 -0.117085494
0.027304605 -0.01403669 0.028157197 -0.027728414 0.048315834 -0.030892277 -0.040410835 -0.011768247
-0.018964475 -0.073046304 0.114089504 0.08551112 0.07704232 -0.05445111 0.08350513 -0.08417196
0.086539686 -0.013391624 -0.019205898 -0.06377147 0.0024434628 -0.00053867814 -0.004908276 0.06906673
-0.1004693 -0.0778419 -0.054668754 -0.10343116 -0.06506802 0.079928376 0.030131333 -0.077485725
-0.108136706 0.07869511 -0.11863651 0.074209556 0.08173379 -0.095209196 0.03151874 -0.040928263
-0.036566127 0.01839801 -0.109596044 -0.087090895 0.041256636 -0.03051642 -0.09283198 -0.004096634
0.0013494749 0.04539104 0.07047875 -0.095218726 -0.04705872 0.11362061 -0.09967839 0.108581334

conv5.bias f4 [16]
00000000: cad8 333d 9c23 2bbd bf41 773d f789 a5bb
00000010: 1be7 fc3d 5885 c0bd cc8e b53d 0b3e 9a3d
00000020: 3f1b 34bd be95 45bd bcea fb3c bae0 aa3d
00000030: 7e6f e4bb b4d1 8b3d 5075 e83d 38f5 c53d
0.043907918 -0.041782007 0.060365435 -0.005051847 0.12348767 -0.09400433 0.08865127 0.07531365
-0.043971296 -0.04823851 0.030751579 0.083436444 -0.0069712987 0.06827107 0.113505006 0.096659124

conv6.weight f4 [16, 16, 3, 3]
00000000: d4b6 3bbb 2935 8f3d c359 883d e437 d23d
00000010: 4bfc 7a3c eb68 bd3d 7522 d23d f509 1ebd
00000020: 0057 143d abba 463d e9dc 9ebd 6ea3 1ebd
00000030: e0e9 533d d1f1 ab3d c66b 603d c799 853d
00000040: f83f e93c b92b b03d dddc 6e3b 5fa7 613d
00000050: 3f5b 88bd b03d 9f3c 8de3 3b3d 62c5 f03d
00000060: a3e4 14bd 173f b23c 59a2 cebd fa6e dd3a
00000070: 73dd 963d 6ae7 c33c 651a 7fbd 5196 6a3b
00000080: 8165 c83d b90d 823d 7b49 80bd 7cf8 2bbd
00000090: 8154 c4bd 0639 e03d 5627 8f3b 9dda 82bd
000000a0: 45e0 9dbd 702d e3bd 8bac 1cbd a6c9 b1bc
000000b0: 4b24 95bd 5f5d 8ebd 9394 b8bd 38a2 893d
000000c0: 1fe4 b1bd b24e b23c 8513 f43d a522 8f3d
000000d0: b6a3 3ebc 3f98 c53d 01b7 673d 4d1e bebd
000000e0: 32ab 623d 841c a0bc 01fe b93d 0104 0e3d
000000f0: 2a90 533d 2caa 2ebd 7751 5f3b 71ce a7bd
00000100: be34 ee3d ff5e a03d 7619 d53d 5dfc c83d
00000110: a75d f53d bade 823c 1bd4 abbd 004b bb3d
00000120: 0d04 c9bd 88eb b33d 2772 b7bd 0cf8 6cbd
00000130: 4948 24bd f7be cdbd cc81 7b3d 1040 d33d
00000140: 4c5e 11bd 568c 8fbc 2f5d 853d 5e2e 9e3d
00000150: 4692 543d 1b00 60bc c364 7cbd a7be 28bc
00000160: b045 28bd c421 85bc e5fc d53c fe0b e8bd
00000170: c429 2f3d e3af d1bd 402b 47bd f209 e63d
00000180: 45f8 3ebd 98e3 adbd 0130 84bd 768a 343c
00000190: 6ecc 9b3d 5a8a d2bc bfee 8f3d 68e4 c1bd
000001a0: fad4 d2bd fadc 903d 8ee6 c03b bbce f03d
000001b0: 5bb5 e63d ff92 6b3b c801 e43d e461 8a3c
000001c0: 92f3 80bd 2b83 a6bd fc24 bc3c 95d1 a2bd
000001d0: 8f4d bdbc b914 5bbd 66cc cf3d d817 8fbc
000001e0: 5c14 a33d 6540 12bc bf89 c4bd 2a55 523c
000001f0: 9700 b13d e52f ed3d 8c91 b9bc 130d e3bc
00000200: 9857 863d 405a f23d 7df1 3abd 17ef a73d
00000210: 3a96 1cbd 8899 c43d 1998 e0bd 97cb 29bc
00000220: e2dc be3d 6596 163d 571d 2b3d e734 72bd
00000230: 9ad2 2f3c f780 b53d 6652 7ebc 488a b43d
00000240: 0a2b 83bd e826 193c 9b3e d1bd fdb4 83bb
00000250: 1dab 753d 9909 bf3d eadb c53d 31a8 4b3c
00000260: 523d 5c3d 91be 90bc d9d3 d63c 61bf 8f3a
00000270: 0fc5 913d 93ff d13d 733b d83d a9db 413d
00000280: 013f ef3c b527 87bd 03d6 ecbd 7bfa c13d
00000290: bf60 56bc 015a d3bd 6414 df3d 7a81 04bd
000002a0: f5df e2bd e8a4 323c a783 3dbc 0f3d 283d
000002b0: fcae 2cbd 8c81 a7bd 69f1 303d c4aa af3d
000002c0: d4d4 ca3d e5e7 e1bd 91f6 093c 72c5 43bd
000002d0: 2864 bf3c d8d6 06bc 36a5 433d 3999 3a3d
000002e0: de49 aabd 9403 b53d 0397 e73d 5a00 683b
000002f0: a994 bcbd 399a 81bc cf83 913a 5685 1bbc
00000300: bfdc 9abd ba1c 743d b0b1 863d 934d a53d
00000310: 5ed0 843d b3b9 713d fee4 da3d 6bcb 32bd
00000320: 0730 49bc 5ba4 59bd f667 6dbd b683 ac3d
00000330: 19ef 90bd 4562 9c3d 6501 d3bd 6c78 973d
00000340: 4990 c63d f61b d3bd e3c9 ed3d 21b8 adbd
00000350: 96a8 4bbd a012 883d c42e e6bd 5b4b 0bbc
00000360: 2ce9 be3d 7f28 463b 625f cebd a765 c23c
00000370: b4a7 b3bd bd69 6e3d d446 ab3d 6cd6 ebbd
00000380: f368 d43d b8e1 65bd 1b4e 56bb 544d e13d
00000390: c06b 14bd 8b41 313d dc77 a73d 125d 78bd
000003a0: 5901 f53d 78bd c2bd 32e2 bb3d c7e5 a73d
000003b0: 6158 debd 9a9b f13c 9ba8 703d 7cae d23d
000003c0: e8ca 7e3c 2383 66bc 3d4c 59bc 3bd4 a7bd
000003d0: d095 97bc 5905 ebbc 4923 efbd 8246 cc3d
000003e0: 7efb dfbc 9d37 a23c 6a13 b5bd bc90 533d
000003f0: ed58 14ba a3a0 b03d 8b6f 833d 5c19 6ebd
-0.002864291 0.06992561 0.06657746 0.102645665 0.01531894 0.09248527 0.102604784 -0.038583715
0.036215782 0.048517864 -0.07756979 -0.038730077 0.051736712 0.08395732 0.05479028 0.06523471
0.028472885 0.086020894 0.0036447563 0.05509126 -0.06658029 0.019438595 0.045871306 0.11756398
-0.036350857 0.0217586 -0.10089559 0.0016894036 0.07366457 0.023914058 -0.06228103 0.0035795162
0.09784985 0.06350274 -0.06264015 -0.04198502 -0.0958643 0.10948376 0.004368703 -0.063893534
-0.07708792 -0.11092651 -0.038250487 -0.021702599 -0.07282313 -0.06951403 -0.09012713 0.06720394
-0.08686089 0.02176604 0.119177856 0.0698903 -0.011635711 0.09648179 0.05657101 -0.09283123
0.055339046 -0.019544847 0.090816505 0.034671787 0.051651157 -0.042642757 0.0034075656 -0.081936724
0.116311535 0.07830619 0.10405247 0.098137595 0.119807534 0.015975345 -0.08390065 0.091451645
-0.09815226 0.087851584 -0.0895732 -0.057853743 -0.040108 -0.10046189 0.06140308 0.10314953
-0.03549032 -0.017522972 0.06511914 0.077236876 0.05189731 -0.0136719 -0.06161953 -0.010299361
-0.041082084 -0.016251452 0.026121566 -0.11330412 0.04276444 -0.10238626 -0.04862523 0.11232366
-0.046623487 -0.08490676 -0.064544685 0.01101934 0.07607351 -0.025700737 0.07027959 -0.09467393
-0.10294528 0.07073398 0.0058868593 0.11758181 0.112650596 0.003594577 0.11133152 0.016892381
-0.06296457 -0.08130487 0.022966854 -0.07950131 -0.023108272 -0.05348656 0.10146408 -0.017467424
0.079628676 -0.008926486 -0.095965855 0.0128376875 0.08642691 0.11581401 -0.02265241 -0.027716195
0.06559676 0.1183362 -0.045640457 0.081999 -0.038229205 0.09599596 -0.1096651 -0.010363481
0.09319474 0.03676452 0.041776028 -0.059132483 0.010731364 0.08862489 -0.015522575 0.088154376
-0.064046934 0.009347655 -0.10217019 -0.004019378 0.05997764 0.093280025 0.09661086 0.012430237
0.053769417 -0.017668994 0.026224064 0.001096707 0.07117664 0.10253825 0.10558214 0.047328625
0.029204847 -0.065993704 -0.11564257 0.094716035 -0.0130845895 -0.10319901 0.10892561 -0.03235004
-0.11077873 0.0109035745 -0.011567033 0.041073855 -0.042159066 -0.08179006 0.043198977 0.08577493
0.09903875 -0.110305585 0.008420602 -0.04779572 0.023363188 -0.008229934 0.04776498 0.04555628
-0.0831487 0.08838573 0.113081 0.00354006 -0.09208042 -0.01582061 0.0011101904 -0.009492239
-0.07561635 0.05959771 0.0657686 0.08071437 0.064850554 0.059014987 0.10688208 -0.043651026
-0.012279517 -0.053135257 -0.057960473 0.08423559 -0.07076854 0.07635931 -0.10303 0.073960155
0.09695489 -0.103080675 0.116107725 -0.084823854 -0.049721323 0.066441774 -0.112393886 -0.008501853
0.09321818 0.003023654 -0.100767866 0.023730112 -0.08772221 0.05820631 0.08363119 -0.11515507
0.1037158 -0.056123465 -0.0032700363 0.11001077 -0.03623557 0.043275397 0.08177158 -0.060635634
0.11963148 -0.095087945 0.09174003 0.081981234 -0.10856701 0.029493142 0.058754545 0.102871865
0.015551306 -0.014069351 -0.0132628055 -0.081947766 -0.018504053 -0.028689073 -0.11676652 0.09974386
-0.0273416 0.01980191 -0.088415936 0.0516517 -0.0005659003 0.08624389 0.064177595 -0.058129653

conv6.bias f4 [16]
00000000: d061 943d 767d 84bd 67fb fc3d e04c cfbd
00000010: 235b fb3c 3e20 95bc d878 2cbc 5466 f6bc
00000020: 6f46 aabc e8e7 183e 9c0a 53bc 64a4 9c3d
00000030: 7d6a 3d3e 981d 56bd b46c 5f3d e6d4 94bb
0.07245219 -0.06469242 0.12352639 -0.101220846 0.030683106 -0.01820385 -0.010526858 -0.03007809
-0.020785538 0.14932215 -0.012880947 0.076485425 0.18497653 -0.052274317 0.054547027 -0.004541981
