data/output/pre_trained_cnn/CASIA2_WithRot_LR0001_b200_nodrop.pt (torch_old, 89379 bytes, 20 tensors)

conv0.weight f4 [3, 3, 5, 5]
000000 3c 06 ba bb a3 c1 48 bb f9 94 0c ba 4e d4 0e 3c
       -0.0056770127 -0.0030632995 -0.0005362775 0.00871761
000010 dc 13 4d 38 98 30 f6 3b c9 57 bb 3b 0b a9 01 bc
       4.8894304e-05 0.007513117 0.005717252 -0.007913838
000020 22 67 82 3b 5c c1 18 bc cc 84 01 bc 7a c8 b9 3a
       0.0039795795 -0.009323444 -0.007905196 0.0014174127
000030 a6 28 33 3b cc af de 3b 57 ac 98 bb 0c 01 50 bb
       0.002733746 0.006795859 -0.0046592164 -0.0031738905
000040 7b 06 8a 3b 3c 89 3c bc d7 9f c7 3b 79 44 1a bc
       0.0042121983 -0.011507329 0.0060920524 -0.009415739
000050 64 55 ff ba 0f 71 20 bb 7d fa ca bb c4 01 1d ba
       -0.0019480404 -0.002448145 -0.0061944113 -0.0005989338
000060 a6 2d 0c 3c 19 9d 82 bb c2 0e eb bb b8 51 82 bb
       0.008555805 -0.0039860127 -0.00717339 -0.003977027
000070 a9 f7 3f bc 3a 1e 85 3b af d1 e5 bb d3 e8 04 bc
       -0.011716762 0.004062441 -0.0070135216 -0.00811215
000080 b7 4f d1 bb a6 cb ad 3b a8 e5 9f 3b d3 ff e8 3b
       -0.0063876766 0.005303818 0.004879672 0.0071105747
000090 01 d8 4a 3b 76 cd 76 bb 78 4a 99 bb 08 56 3e 3b
       0.0030951502 -0.0037659085 -0.004678067 0.0029042978
0000a0 c8 b0 ff 3b 35 eb 16 3b c3 d4 a0 bb d8 84 f3 bb
       0.0078030564 0.0023028378 -0.0049081757 -0.0074316077
0000b0 65 fb 22 bc 21 56 ae 3a 97 27 d6 bb 30 cb 1f bc
       -0.009947632 0.0013300815 -0.006535481 -0.0097530335
0000c0 a3 9b f7 3b 3b e1 01 bc 54 25 1a bb 35 78 07 3b
       0.007556395 -0.007927234 -0.0023520784 0.0020671014
0000d0 42 18 b6 b8 e8 8c 0e bc 66 8f 31 bc 10 86 d9 3b
       -8.682955e-05 -0.008700587 -0.0108374115 0.006638296
0000e0 56 0d 3f 3a a9 4f 0d 3c 6a 85 b7 bb a8 33 c6 3a
       0.0007288059 0.0086249495 -0.005600621 0.0015121596
0000f0 ee e0 88 bb 00 64 ee ba 0a d8 ed bb c5 95 0f 3b
       -0.0041772043 -0.0018187761 -0.00725842 0.0021909338
000100 94 77 21 3b 5c b4 08 bb 52 9a 6e bb 7e e6 ee bb
       0.0024637925 -0.0020859456 -0.00364079 -0.0072906604
000110 0e de af 3b a4 66 0c bc 22 a4 47 3b cc 93 93 bb
       0.005367047 -0.008569393 0.003046282 -0.0045037027
000120 bb 94 c0 bb 21 7e ad b9 89 8f e3 bb 8f dc 71 bf
       -0.005877105 -0.00033091105 -0.006944601 -0.9447717
000130 68 08 1c bf be 65 28 bd d1 85 5e bf 11 98 a2 be
       -0.60950327 -0.041112654 -0.8692294 -0.31756642
000140 a7 77 fc 3e bc 40 6c 3f fe eb c7 3f 51 99 59 3f
       0.49310037 0.92286277 1.5618894 0.8499957
000150 5f c1 40 3f 34 eb cc be 90 2b 1d bf 04 d3 66 3f
       0.7529506 -0.40023196 -0.61394596 0.90165734
000160 f0 e4 80 bf 55 d7 62 3e a6 52 de bd c3 2f 9d bd
       -1.0069866 0.22152455 -0.10855608 -0.076751254
000170 79 6c 80 3e a1 2f a0 be ff c9 ce be 90 30 50 be
       0.25082758 -0.31286338 -0.40388486 -0.20331025
000180 a7 7b 62 be e3 b2 c3 3e 7a 4e 86 be 4b fd 81 bd
       -0.22117482 0.38222417 -0.26231748 -0.0634714
000190 f6 b8 82 bc 9f 51 3f 3e ce 31 09 3e 6a 74 ac 3c
       -0.015957337 0.1868348 0.13397905 0.021051604
0001a0 88 4b 98 3d 13 29 ac be 0a 46 f1 bd 13 a8 3a be
       0.074362814 -0.33625087 -0.11780937 -0.18228178
0001b0 b8 69 80 bd 33 ac 79 bd f4 1d eb bd ae 42 b4 3d
       -0.06270164 -0.060955238 -0.114803225 0.08801781
0001c0 07 e5 16 3e 95 01 01 be af c7 fa 3b 78 a6 04 3e
       0.14735804 -0.1259826 0.0076531987 0.12954128
0001d0 72 a5 4e 3e 46 4b 48 bd 58 d1 14 3e f5 45 07 bd
       0.201803 -0.04889991 0.14532983 -0.0330257
0001e0 2f 33 be bd d1 99 88 3d 42 f9 8b 3d 79 4b 92 bd
       -0.09287106 0.06669963 0.068346515 -0.071433015
0001f0 31 2c aa 3a f7 12 77 3f c3 3f da 3e 25 25 ad bd
       0.0012983141 0.96513313 0.4262677 -0.084543504
000200 54 bb 5b 3f c3 51 78 3e f5 27 22 be d9 ed 4e bf
       0.85832715 0.2424994 -0.15835555 -0.80831677
000210 34 38 b4 bf 42 2c 48 bf a0 03 33 bf 0d dd 05 3f
       -1.4079652 -0.7819253 -0.69927406 0.5229042
000220 0e e1 03 3f 81 28 83 bf a4 3e 90 3f f8 8d 65 be
       0.5151528 -1.0246736 1.1269116 -0.22417438
000230 05 27 80 bc b9 9f fa bd 91 80 56 be eb 93 2f 3e
       -0.015643606 -0.12237496 -0.20947482 0.1714627
000240 ed b0 db 3e 75 aa 91 3e d7 0b 27 3e 5c 43 e9 be
       0.4290842 0.2845036 0.1631311 -0.45559204
000250 b1 05 ad 3e 18 c6 87 3d c7 54 5a bb 45 b8 bd bb
       0.33793405 0.0662958 -0.0033314691 -0.005789789
000260 74 d6 dd 3b 86 f8 64 bc a5 be 1e bc 86 b7 29 3c
       0.0067699496 -0.013975268 -0.009689008 0.010358697
000270 83 3d d8 3b d5 1e 86 3c 58 7b ed 3a 2a e0 37 3b
       0.0065991296 0.016372124 0.0018118424 0.0028057196
000280 2e 16 9d bc 3a 74 b5 bb 59 fc 35 ba 27 32 38 bc
       -0.019175615 -0.005537537 -0.0006942205 -0.011242426
000290 57 8e 0a bc b8 70 9b bc c6 9a 50 bc 42 e4 4c 3b
       -0.008456788 -0.018974647 -0.012732213 0.0031263982
0002a0 0f 63 24 3b fd 61 97 bb f8 03 09 bc 99 14 ce b9
       0.0025083458 -0.0046198354 -0.008362763 -0.00039306728
0002b0 a7 1d 85 3b 3a 7e aa bb 90 c3 07 bc bd 97 66 b9
       0.0040623727 -0.0052030357 -0.008286372 -0.00021991036
0002c0 89 31 09 ba b6 58 3e bc bb 4d 56 3b ea 80 6a 3a
       -0.00052335166 -0.01161783 0.003270014 0.00089456013
0002d0 b7 93 20 bc 9e cd e6 39 9c ff 23 bc 2d 33 f1 bb
       -0.009800843 0.00044022215 -0.0100096725 -0.007360837
0002e0 72 e8 c7 3a 6e fe aa bb 50 13 7b bb e9 ad b7 bb
       0.0015251769 -0.0052183187 -0.0038311072 -0.0056054485
0002f0 44 50 b3 bb 5d 7e 12 3b 97 b2 b2 bb 62 48 ff 3b
       -0.005472215 0.002235315 -0.0054534185 0.007790611
000300 d7 c4 30 bc 4f 90 18 bc 08 d1 48 bb ff 19 a8 3a
       -0.010789118 -0.00931175 -0.003064217 0.001282513
000310 a3 cf 17 bb d5 4a 8d bc 0b e3 2c bc 0a c9 09 bc
       -0.0023164533 -0.017247597 -0.010552178 -0.008409748
000320 4c 67 48 bc bd ea a9 3a 6a 93 28 bc f8 e5 7c 3b
       -0.012231659 0.0012963634 -0.0102890525 0.003858922
000330 b8 f7 14 bb b3 4b ff bb aa 70 b3 bc 46 b4 80 bc
       -0.002273066 -0.0077910065 -0.021904308 -0.015710961
000340 1c b6 28 bc b2 63 9a bc b5 63 04 3c ef f9 8d 3b
       -0.0102973245 -0.018846367 0.008080413 0.004332773
000350 19 3d 15 bc 93 40 41 39 34 98 d5 bb e9 8a 23 3c
       -0.009108805 0.0001842997 -0.006518388 0.009981849
000360 df b2 98 bc 01 42 3c b9 eb 9a 19 bc 2d b3 b4 bb
       -0.01863998 -0.00017953666 -0.009375314 -0.0055145235
000370 89 95 d0 bb 93 b8 5c bc 32 39 1f 3b 98 9f ea 3b
       -0.006365482 -0.01347174 0.0024295566 0.0071601383
000380 67 37 ca 3b
       0.0061711553

conv0.bias f4 [3]
000000 24 71 e3 bb 8e 26 1f 3e 0f 61 b0 bb
       -0.0069409776 0.15542051 -0.005382664

conv1.weight f4 [30, 3, 5, 5]
000000 ad 48 06 b5 81 6a 66 b6 e3 e5 40 b5 bf e6 32 b6
       -5.002465e-07 -3.4334664e-06 -7.1860103e-07 -2.6658379e-06
000010 15 cb 7d b6 01 2a 86 34 0e 0a 3f b6 53 29 0d b6
       -3.7818147e-06 2.4990007e-07 -2.846707e-06 -2.1034691e-06
000020 28 96 82 b6 a3 d3 04 b7 47 c4 48 b5 0f 75 96 b6
       -3.8917824e-06 -7.917089e-06 -7.4791427e-07 -4.4839758e-06
000030 af fc 63 bd 3c f6 63 3d c5 15 02 b7 31 cf 7b b6
       -0.0556609 0.05565475 -7.753672e-06 -3.7522516e-06
000040 a5 de af b6 00 66 75 b6 cf b1 4f b6 49 5d d0 b6
       -5.2413257e-06 -3.6567217e-06 -3.0948902e-06 -6.209743e-06
000050 a6 e0 92 b5 e3 1c 5d b6 cb ca ee 33 04 6e 0c b6
       -1.0943229e-06 -3.294838e-06 1.11196265e-07 -2.0925663e-06
000060 88 b5 a2 b6 b4 51 a8 bc 6f ce c0 bc a9 95 04 bd
       -4.8491092e-06 -0.020546772 -0.023535935 -0.03236929
000070 83 9e e3 bc 3d 97 c0 bc 5a 0e e7 3c c0 68 e0 3c
       -0.027785545 -0.023509616 0.028205086 0.027393699
000080 9c 16 ab 3d 4b 0c 23 3d 3d 1d 34 3d 8e e2 01 bd
       0.08353922 0.039806645 0.043973196 -0.0317102
000090 22 d3 06 bd c9 66 a9 bd 98 2c ce bc 8e 12 e7 bc
       -0.032916196 -0.08271558 -0.025167748 -0.02820709
0000a0 37 21 3d bc 9a 45 08 3c a9 fa e4 3c b7 79 0a 3d
       -0.011543564 0.008317376 0.027951555 0.033807483
0000b0 32 56 84 3c c9 01 1d bb 77 fa c5 3b e0 4e 78 3c
       0.016154382 -0.0023957363 0.0060418206 0.015155524
0000c0 b8 63 a0 3c 3a f4 d2 3b 58 99 23 b8 23 5d 01 b8
       0.0195788 0.0064378055 -3.900504e-05 -3.0842737e-05
0000d0 1c 8a 32 b8 4d 03 65 b8 f8 df cd b7 c5 e3 e2 b7
       -4.256713e-05 -5.460093e-05 -2.4542198e-05 -2.7047363e-05
0000e0 98 05 bf b7 ff b4 4b b8 0b dc 77 b8 99 5a d4 b7
       -2.277158e-05 -4.8567537e-05 -5.909432e-05 -2.5314557e-05
0000f0 ec ab e1 36 ea 00 64 3d fe 29 64 bd 8b 72 42 b8
       6.725537e-06 0.055664934 -0.05570411 -4.635988e-05
000100 21 b4 b2 b7 60 a8 65 38 e0 7a 6a 38 c7 a4 07 37
       -2.1303133e-05 5.4754666e-05 5.5904384e-05 8.084992e-06
000110 ee 33 15 37 37 e5 8d 37 ae d6 3d 38 fb 24 6d 38
       8.893183e-06 1.6915246e-05 4.5261047e-05 5.6539644e-05
000120 ea 07 15 38 97 31 3e 38 18 19 5a 38 a1 c1 09 b7
       3.553174e-05 4.5345714e-05 5.199862e-05 -8.210919e-06
000130 e9 dd 97 b6 52 ff 5d b6 7c 4e b7 b5 cb aa e5 b6
       -4.5259844e-06 -3.3080182e-06 -1.3657404e-06 -6.8446147e-06
000140 f3 3e 44 b7 c4 62 9f b6 e9 34 a9 b6 2e 95 92 b6
       -1.1697167e-05 -4.750067e-06 -5.042752e-06 -4.368506e-06
000150 b2 c6 d8 b6 50 06 0c b7 f7 91 72 b5 a7 fd 63 bd
       -6.460433e-06 -8.34612e-06 -9.036443e-07 -0.055661824
000160 2f 38 45 b6 7b de 2b b6 39 c2 e7 b6 de 6d 26 b6
       -2.938799e-06 -2.5610486e-06 -6.906947e-06 -2.4799879e-06
000170 db f0 63 3d 90 12 f2 34 ec 86 e7 b4 45 ef fc b6
       0.05564962 4.508952e-07 -4.3125272e-07 -7.53804e-06
000180 0f 8d bd b6 d6 97 ef b6 7d 52 98 34 75 4e b3 b5
       -5.6490603e-06 -7.140431e-06 2.8372224e-07 -1.3359373e-06
000190 12 9e 9c 3e dc 48 b4 3e 18 63 ba 3e 8f 89 58 3e
       0.30589348 0.35211837 0.36403728 0.21146224
0001a0 bf 31 6b 3e a4 cb cb bd 61 e3 34 3e 00 6c e4 3e
       0.22968195 -0.09950951 0.17664863 0.44613647
0001b0 34 11 c1 3e c2 22 82 3e c6 ca 13 3d af 69 37 be
       0.37708437 0.25417143 0.03608205 -0.17911409
0001c0 47 b6 e1 be f8 d7 cb be 32 54 bf be 67 e1 42 be
       -0.4408438 -0.3981321 -0.37368923 -0.19031297
0001d0 cd 2b d9 bc 9e 84 9b 3d 4e ab 2e 3d f0 3a 5d bc
       -0.026510144 0.07593654 0.042643838 -0.013502821
0001e0 b7 b0 47 be fa 44 5e be de 12 a1 be 02 f4 89 be
       -0.19501005 -0.21706 -0.31459707 -0.26943976
0001f0 b6 34 1f be cb d6 d2 b9 5d ba d4 b9 bc 9f bd b9
       -0.15547451 -0.00040214355 -0.00040574642 -0.000361679
000200 c4 0c bb b9 1a a6 c4 b9 c7 d4 d7 b9 21 61 62 3d
       -0.0003567693 -0.00037507789 -0.00041166527 0.05526841
000210 86 3f ab b9 54 f3 ab b9 12 ab b7 b9 a6 be ce b9
       -0.0003266299 -0.00032796955 -0.00035031937 -0.00039433426
000220 a0 d4 b8 b9 dd 1b 65 bd 4c f0 90 b9 ba e2 98 b9
       -0.00035253633 -0.055934776 -0.00027644855 -0.00029160624
000230 2c 92 ce b9 f0 3f c1 b9 5d 8f a5 b9 6a 8c a7 b9
       -0.00039400288 -0.00036859466 -0.00031578066 -0.0003195734
000240 2e 45 a2 b9 0b 10 c4 b9 59 bd c3 b9 2d 64 c0 b9
       -0.0003095059 -0.00037395986 -0.00037334373 -0.0003669573
000250 69 f1 c6 b9 98 07 ba b9 f1 9e 00 37 c1 f6 fc 36
       -0.00037945368 -0.00035482342 7.666401e-06 7.538911e-06
000260 85 df ae 37 0f 4b 92 37 4b 7d 9e 37 6e 99 67 36
       2.08465e-05 1.7439508e-05 1.8893412e-05 3.451099e-06
000270 56 d2 9c 36 0d 4e 8d 37 85 dc 67 37 d4 e4 85 37
       4.6736486e-06 1.6844855e-05 1.3820017e-05 1.5961392e-05
000280 dc fa 5a 36 f3 e9 8a 35 88 eb 63 bd f0 7a 03 37
       3.263055e-06 1.0349889e-06 -0.055644542 7.836832e-06
000290 0f db 78 37 8c 13 63 b6 1c f3 63 3d 51 d5 0b 37
       1.48329555e-05 -3.3837014e-06 0.05565177 8.334712e-06
0002a0 d2 3f e1 36 c4 49 92 37 f5 c4 d5 b6 0b 39 e6 b6
       6.712952e-06 1.7438906e-05 -6.3708235e-06 -6.861175e-06
0002b0 f4 bf c5 36 c9 f2 08 37 8a 57 7d 37 e7 75 46 3e
       5.893404e-06 8.1627595e-06 1.5100357e-05 0.19380914
0002c0 8e ad 41 3e 48 e3 37 3e d7 f8 23 3e 3a c2 b8 3d
       0.18913862 0.17957795 0.16012894 0.09021421
0002d0 5a 37 ff bd 9f 02 37 be fe 09 0b be 73 c4 1a be
       -0.12461729 -0.17872094 -0.1357803 -0.15114002
0002e0 98 56 07 be cc 0c 9c bd c7 b3 d0 bd 43 39 43 be
       -0.13216627 -0.07619628 -0.1019054 -0.19064812
0002f0 d8 a6 f3 bd ee 59 8b bd 20 73 89 3d 44 78 0c 3e
       -0.11897057 -0.06804262 0.067114115 0.13717753
000300 b4 d1 fa 3d 55 6e 11 3e 51 5a 35 3d 2a 6c 5f 3d
       0.12247029 0.14202245 0.044275586 0.054546513
000310 da 27 aa 3d 2f 52 63 3d 66 44 d1 3d a5 91 42 3d
       0.08308382 0.0554983 0.10218124 0.04750218
000320 80 94 f0 b8 30 eb c2 b8 3a a8 1d b9 60 b2 c3 b8
       -0.00011471752 -9.294448e-05 -0.00015035356 -9.3315495e-05
000330 94 db 7f b8 ce dd 2e b9 22 80 2c b9 6c af 41 b9
       -6.1001236e-05 -0.00016676562 -0.00016450931 -0.00018471264
000340 d1 bf 35 b9 38 77 19 b9 e4 e7 85 b9 31 14 63 3d
       -0.00017332962 -0.0001463563 -0.0002554051 0.055439178
000350 77 63 e4 bd 81 22 63 3d db 93 3f b9 7e 62 35 b9
       -0.11151784 0.055452827 -0.0001827026 -0.00017298196
000360 ff 7b c9 b8 05 27 03 b9 23 59 bb b8 25 b0 d7 b8
       -9.607523e-05 -0.0001250767 -8.933458e-05 -0.000102848084
000370 a6 f0 66 b9 f1 e0 10 b9 3c 95 50 b9 0b 4d ec b8
       -0.00022024158 -0.00013816707 -0.0001989202 -0.00011267707
000380 cd 8f 04 b9 64 50 b2 b8 17 7e a9 b8 2b fe 65 b8
       -0.00012642071 -8.502675e-05 -8.082034e-05 -5.4834567e-05
000390 df 81 82 b8 88 a1 95 b8 be 3f a6 b8 01 48 9b b8
       -6.2230734e-05 -7.134961e-05 -7.92737e-05 -7.404388e-05
0003a0 95 c4 63 3d fb 6d 79 b8 6a e2 90 b8 f2 5b ad b8
       0.055607397 -5.9468653e-05 -6.908628e-05 -8.266409e-05
0003b0 20 2e a9 b8 b9 1a e4 bd 22 77 a1 b8 c2 5d a1 b8
       -8.0671394e-05 -0.111379094 -7.6992685e-05 -7.694542e-05
0003c0 58 c3 c6 b8 dc 0d c5 b8 67 a0 63 3d 45 b9 d2 b8
       -9.477761e-05 -9.3962735e-05 0.055572893 -0.000100480895
0003d0 f4 66 bc b8 6d 4a c0 b8 ea fb c1 b8 d6 4f ac b8
       -8.983715e-05 -9.169136e-05 -9.24988e-05 -8.21647e-05
0003e0 09 9f c3 b8 1a bc a4 b8 d2 90 de bc 8d d3 b7 bc
       -9.327947e-05 -7.855166e-05 -0.027168665 -0.022439742
0003f0 0f da df bc 41 b6 b7 bc cd 52 ee bc 89 fc 9d bc
       -0.027325658 -0.022425773 -0.029092217 -0.019285457

conv1.bias f4 [30]
000000 d9 36 b2 bc de d0 47 3c 7c de 6e bd c4 ad 0f bc
       -0.021754669 0.012195794 -0.058317646 -0.008769456
000010 d3 fd 84 3c 2e c6 59 bd 00 ca e1 3b 87 91 bc bc
       0.016234314 -0.053167515 0.0068905354 -0.023018612
000020 c8 f4 c0 bc ea 4d 96 bd 4a 54 54 3d 93 26 bd 3d
       -0.02355422 -0.0733908 0.051838197 0.09235873
000030 80 f7 0a 3c c1 fc 2b 3c ce 3f 27 bc 3a 13 86 3b
       0.00848186 0.010497273 -0.010208083 0.0040916475
000040 bf ed 11 3d d8 65 81 bb 8e 71 1c bd 82 fc ed bc
       0.035627123 -0.0039489083 -0.03819423 -0.02905107
000050 74 48 c4 3d 96 0f 9f bc 1c 90 b8 bb 90 3e 9d bc
       0.09584132 -0.019416612 -0.0056324136 -0.019194871
000060 08 71 05 bc 08 64 84 bd f0 80 0d 3d d6 db b5 ba
       -0.0081446245 -0.06464392 0.034546793 -0.001387472
000070 2c c5 78 bd 21 9e d7 3d
       -0.060734913 0.105282076

conv2.weight f4 [16, 30, 3, 3]
000000 4e 11 ab 3c c6 69 59 3c d1 77 b1 3c 10 87 39 bc
       0.020882275 0.013269847 0.021663578 -0.011323705
000010 92 9b f6 bb 8c b0 12 bb 09 2e 62 ba 10 93 a1 bb
       -0.0075258696 -0.0022383062 -0.00086280756 -0.0049308613
000020 74 0b b0 ba 6a 89 a1 3d a8 8a 98 ba db 9a 0e 3e
       -0.0013431148 0.07887538 -0.0011638002 0.1392626
000030 1b 51 26 be 0a e1 84 be 51 f2 1e be 5f 61 4d be
       -0.16241877 -0.2595294 -0.15522124 -0.20056675
000040 77 e6 97 be 8f 5f 4a be 77 fb 55 3d 42 2c 1a 3d
       -0.29668018 -0.19763015 0.05224177 0.037639864
000050 13 9f 13 3d 51 9a d0 3d 53 cd 42 3d b9 3c 75 3d
       0.036040377 0.101856835 0.047559094 0.059872363
000060 32 fc 9d bd 8b 82 e1 bd 98 0a e5 bd 29 54 a5 bb
       -0.07714118 -0.11011227 -0.11183661 -0.005045433
000070 93 62 a3 3a aa 1e 7f ba 3c b0 55 3a 6c 3c 26 bb
       0.001246529 -0.00097320473 0.0008151566 -0.0025365604
000080 f7 ce 88 3b 9b 27 6a bb f0 50 7c ba 8e 7f bb ba
       0.0041750628 -0.0035729173 -0.0009625098 -0.0014304982
000090 5a fa d9 bc 42 52 e2 bc 60 0c 2a bd fc 10 2d 3d
       -0.026608635 -0.027627114 -0.041515708 0.042252526
0000a0 08 cb 20 3d 73 9f 51 3d dd 32 76 3c fa 8c 74 3c
       0.039256126 0.051177453 0.015026775 0.01492619
0000b0 07 65 5f 3c 6f 70 0f 3d 83 b7 0e 3d c5 e1 8f 3b
       0.013634927 0.035019334 0.03484298 0.0043909275
0000c0 bb eb d1 3a c6 6c 09 3b 56 18 95 bd 67 fb 60 3c
       0.0016015688 0.0020969375 -0.07280032 0.013731814
0000d0 c7 85 7d 3b 10 a4 9a 3c b8 06 81 3c 77 0b aa 3c
       0.0038684474 0.01887706 0.015750274 0.02075742
0000e0 dd a2 b5 3b 5e 7b 8b bb 50 74 3c 3c d7 e5 6c 3b
       0.0055430965 -0.00425665 0.01150234 0.0036147737
0000f0 29 4a 80 bc 80 f9 4d bc e4 6f 90 3b 9b e4 16 bb
       -0.015660362 -0.0125716925 0.0044078697 -0.0023024443
000100 02 22 5f bb d5 f9 d1 bb c8 07 2a 3b 58 0c f9 bb
       -0.003404737 -0.006407956 0.002594458 -0.0076003484
000110 70 7d 82 bb 54 d4 9b bb 6a 32 8c 39 c2 63 99 bb
       -0.0039822385 -0.004755536 0.00026740442 -0.0046810815
000120 b3 6c 4b bc 59 80 69 bb d1 ca ae 3c 11 b3 c3 3d
       -0.012416053 -0.003562948 0.021336945 0.095556386
000130 94 f3 4d 3d 4a 77 38 3d 19 0d a4 bc 52 24 5a bd
       0.050281122 0.045035638 -0.020025777 -0.053257294
000140 34 a5 4a bc 7d a3 8f 3d 85 64 31 3d 02 38 a5 3d
       -0.012368489 0.07013605 0.043308754 0.08067323
000150 94 ec df 3c 2a 7c bd 3b 83 9e c7 3c e1 40 f3 b8
       0.027334489 0.005782624 0.024367576 -0.000115992276
000160 76 43 4b bc f7 6a 45 bc 2e 85 2f bd 83 91 3d bd
       -0.012406221 -0.012049428 -0.04285162 -0.04628135
000170 d2 a5 1b bd 12 85 2d 3d 13 42 12 3d 36 0b 15 3d
       -0.037999935 0.042363234 0.035707545 0.036387645
000180 14 b5 94 3c 1b f9 90 3c 16 3f 45 3c 29 be c1 bd
       0.018152751 0.017696908 0.012038967 -0.09460098
000190 b3 d3 b9 bd 27 2e b2 bd 67 5d 5d 3d 38 25 3c 3d
       -0.090735815 -0.08700209 0.054044154 0.045933932
0001a0 7d ed 10 3d 76 72 21 3d 9b b6 e0 3c 04 92 9f 3c
       0.035382736 0.0394158 0.027430823 0.019478805
0001b0 0f b8 0a 3e 50 6d 66 3d 94 a7 ca 3d 37 5f b2 bd
       0.13546775 0.056256592 0.09895244 -0.08709567
0001c0 7d 22 05 be 3f 77 ca bd 31 00 89 be 21 72 87 be
       -0.13001437 -0.09886026 -0.2675796 -0.2645426
0001d0 a4 9a 44 be 4d a2 66 3b 21 72 c0 3a c7 51 9b bb
       -0.19199616 0.0035191954 0.001468245 -0.004739973
0001e0 ec ef e0 3b 6c 7c 12 3c ba 51 00 3c c6 ca 58 3a
       0.0068645384 0.008940797 0.007831985 0.00082699617
0001f0 c2 38 64 bb 66 d2 cb 3a df 53 66 be 0b f8 19 be
       -0.003482387 0.0015550375 -0.22492932 -0.15036027
000200 e5 33 c4 bd 10 09 93 bd d3 22 f7 bd 7b 70 7c b9
       -0.095802106 -0.07179463 -0.12067189 -0.00024074495
000210 79 a1 e5 3d 93 37 bc 3d 10 66 09 3e 09 f0 49 3c
       0.11212439 0.091902874 0.1341784 0.012325295
000220 80 31 43 3c a6 c3 1d 3b fc 46 b6 3b 80 40 d6 3b
       0.011913657 0.0024072914 0.005562661 0.0065384507
000230 9c e6 f4 3b 7e ef b0 bc 2a 09 24 b9 60 b3 ba 3a
       0.00747378 -0.021598574 -0.00015643673 0.0014244132
000240 7f 46 32 3c e0 bb 48 3b 6f 24 5f 3b 04 d5 44 bc
       0.010881065 0.003062956 0.0034048816 -0.0120136775
000250 63 d1 6e bb 2e 80 64 3b d2 13 4e 3a a2 fe 84 bb
       -0.0036440722 0.003486644 0.000786123 -0.004058675
000260 9f df 0c bb 0e b5 d8 bb a1 cd d5 bb d9 5e 47 3b
       -0.0021495593 -0.0066133803 -0.006524757 0.0030421524
000270 f6 e9 a4 bb b0 1d dc 3a b4 99 96 bb 48 5c 92 3b
       -0.005032773 0.0016793516 -0.0045959596 0.004466567
000280 8a 6f 2d bb 4e 70 05 bb d9 63 03 3b 5b 2b 50 3c
       -0.0026464188 -0.0020361128 0.0020048528 0.012705649
000290 5c 50 cc 3c b3 36 3c 3d 4b dd 03 bc 94 4f a4 bc
       0.024940662 0.045950603 -0.008048366 -0.020057477
0002a0 ad cb 85 bb f9 5b 17 bc 76 8c 01 3c c4 e6 92 bd
       -0.004083118 -0.009238237 0.007907024 -0.07172921
0002b0 78 06 a3 bd 8b 60 80 bd 34 14 b5 3d 57 09 57 3d
       -0.07960218 -0.06268414 0.08841744 0.05249914
0002c0 b5 10 9d 3d 5d bc 85 3d 5b cc 0e 3d 9e 9b 43 3d
       0.07669202 0.06530068 0.034862857 0.04775583
0002d0 fc 5a 79 be 27 72 66 be 4c 37 1d be a3 bb bf 3d
       -0.24351114 -0.22504483 -0.15353125 0.09361961
0002e0 bc 46 8d 3d c6 0d 92 3d eb b7 11 3e 3d b4 6c 3d
       0.06898257 0.07131533 0.14230315 0.057789076
0002f0 dc 48 ab 3d b4 9e a9 3b 79 20 5f bb 0f 0d 7e bb
       0.08363506 0.0051763896 -0.0034046455 -0.0038765108
000300 49 01 31 ba d5 00 ca 3b 3d 57 89 3a ee f5 61 bb
       -0.00067522057 0.00616465 0.001047827 -0.003447886
000310 0c 40 f5 3a 93 07 91 3b db d1 46 3b e4 cf 24 3b
       0.0018711104 0.0044259517 0.0030337486 0.0025148327
000320 18 49 83 3b 37 ba 8f 3a 68 e7 ad bb af a0 be bb
       0.004006516 0.001096553 -0.005307127 -0.005817495
000330 df 6a d9 bb 99 a6 be bb bc 92 b1 3b 89 c3 bb 39
       -0.0066350545 -0.0058182 0.0054191034 0.00035813104
000340 46 22 50 bb f7 5e 36 3b 0b 4d ea 39 96 ce 1d bb
       -0.003175871 0.00278276 0.0004468936 -0.0024079434
000350 e4 63 95 bb 39 e2 ea 3a db ac b3 3a d2 c6 0c ba
       -0.004559027 0.0017920203 0.0013708131 -0.00053702027
000360 66 0c e8 bc ec 6b fa bc 43 c7 d9 bc 27 b7 6f 3c
       -0.028326225 -0.03056904 -0.026584273 0.014631069
000370 be f6 48 3c 77 eb af 3c 6a 8e f9 3c af 91 a4 3c
       0.012265859 0.021474583 0.030463416 0.020088999
000380 ac 6c ab 3c ee 4e 2c 3d 2a 4d 48 3d 00 df 1a 3c
       0.020925842 0.04206746 0.048901714 0.009452581
000390 c8 77 84 3c 17 5a 3d 3c 19 a9 88 bd 35 21 57 3c
       0.016170397 0.011557124 -0.06672878 0.013130476
0003a0 a6 fb 81 3c db f9 f9 3c 27 28 c2 3b 9e af 8a ba
       0.015867066 0.030514648 0.0059251967 -0.0010580902
0003b0 82 4f c8 bb ec 85 85 3c 63 32 99 3c 44 13 67 3c
       -0.0061129937 0.01629921 0.018700784 0.014103714
0003c0 5a c4 fd ba f1 e3 5d 3c d2 16 5d 3c b4 aa ab 3b
       -0.0019360885 0.013543115 0.01349421 0.0052388553
0003d0 ec e3 17 bb 18 c0 00 bb 1a 27 e4 3b a2 46 9d 3a
       -0.0023176624 -0.0019645747 0.006962669 0.00119992
0003e0 d4 e4 46 bb a3 9a 47 3a 42 0a da bb 5e 37 80 bb
       -0.0030348795 0.000761429 -0.006654055 -0.0039128503
0003f0 22 28 c8 bd aa a6 24 bc bc f8 43 3c b2 3f ef 3c
       -0.0977328 -0.010049501 0.011961158 0.029205177

conv2.bias f4 [16]
000000 30 da b3 3d ec d4 53 bd 48 16 ba bd 1c ab bb bc
       0.0878185 -0.05171673 -0.09086281 -0.02290874
000010 4c 9a 60 bd b4 0b 1f 3e 74 73 9a bc 88 1b 1a bc
       -0.05483465 0.15531808 -0.01885388 -0.009405978
000020 fa 54 14 bd 8e 88 95 3d 7b 47 f4 bd 88 8d 99 bb
       -0.036213852 0.07301436 -0.11927696 -0.0046860613
000030 32 46 5c bc 7b b7 06 bd 69 36 80 bd b6 dc 6a bd
       -0.01344447 -0.032889824 -0.06260378 -0.057339393

conv3.weight f4 [16, 16, 3, 3]
000000 e2 98 32 3d e6 db 91 3d 29 06 c9 3d 78 93 31 3e
       0.04360283 0.071220204 0.09815628 0.17341411
000010 d0 40 22 3e 6c 16 41 3e 5e 43 02 be ea 1d c8 bd
       0.15845037 0.1885621 -0.12721011 -0.09771331
000020 0d a7 f9 bd 27 87 e0 bd e6 84 c9 bd 94 2e 14 be
       -0.121900655 -0.10963278 -0.098398015 -0.14470893
000030 07 6c 70 bd e9 59 42 bd 71 5c 87 bd 1a 9b 1d 3e
       -0.058696773 -0.047449026 -0.06609429 0.15391198
000040 8d e9 e4 3d b5 83 33 3e 6d 70 6f be 62 71 4b be
       0.11177359 0.17530711 -0.23382731 -0.19867471
000050 47 9a 11 be c5 23 9f bd 81 b1 9b bd dd 27 08 bd
       -0.14219008 -0.07770494 -0.076022156 -0.03324114
000060 6b d8 8b bd 7f c5 b0 bd 13 1a 6c bd 61 c1 a0 bb
       -0.06828388 -0.086314194 -0.057642054 -0.004905865
000070 80 ca 08 3b c4 4e e1 3b f1 10 80 3b 82 2c 2a 3a
       0.0020872653 0.0068758447 0.0039082696 0.00064916175
000080 da 79 f0 bb 1a c0 dd 3b 85 a2 c6 3b fe 56 11 3c
       -0.0073387446 0.006767285 0.0060618543 0.008870838
000090 47 ed 18 3d d6 4b 7d 3d 7c dd b8 3d 53 8f 84 3d
       0.03733566 0.0618399 0.0902662 0.064726494
0000a0 e8 e4 55 3c b7 e6 cc bc a2 80 06 bd fe ea 21 3d
       0.013055064 -0.025012357 -0.032837518 0.039530747
0000b0 cb 0c d0 3d 89 84 1d 3d 4c 7e 7e 3c ad 76 ff bb
       0.1015869 0.038456473 0.015533041 -0.0077961297
0000c0 ab 6c f1 3d d2 b6 a7 3d 1e 08 a2 3d c6 60 a9 3c
       0.11788305 0.08189167 0.079117045 0.020676028
0000d0 2d ae e7 3b e5 59 05 3c 4a 38 a4 37 47 32 c1 3a
       0.007070324 0.008139108 1.9576535e-05 0.0014739715
0000e0 27 3c 10 3c b4 43 e6 3b ac b7 63 bb 34 6a e0 3b
       0.008803404 0.007027114 -0.0034746928 0.006848598
0000f0 53 64 0d 3c d5 ce eb ba 2f 77 1b 3c 70 37 fc 3b
       0.008629876 -0.0017990718 0.009488865 0.0076970384
000100 37 0e f7 ba 33 21 e4 3b 25 3b 00 3c 1e 4f 1f 3b
       -0.0018848841 0.0069619655 0.007826601 0.0024308632
000110 fe 1e 32 3a b7 6f ce 3b 72 4f ae 3b 4f 99 f4 3b
       0.00067947793 0.0062999385 0.005319529 0.007464565
000120 e4 9b 2a bd 03 03 17 bd 9e b1 c2 bc 2b aa e1 3c
       -0.041652575 -0.036868107 -0.023766335 0.027546963
000130 25 13 12 3d a5 9d 23 3d 89 13 cc 3d 26 42 a5 3d
       0.03566279 0.039945263 0.099646635 0.080692574
000140 91 7c 4d 3d b0 d5 3d 3d a7 ed ea 3d 9b 22 fe 3d
       0.050167624 0.046346366 0.1147111 0.12408944
000150 74 b1 3e bd bb 9c 3e bd 6d d7 ea bc 40 66 51 3d
       -0.04655595 -0.04653619 -0.028667176 0.051122904
000160 8d a9 4e bb 33 90 b9 bc 7c 87 22 bc f3 40 a4 bc
       -0.0031534166 -0.022651767 -0.009919997 -0.020050501
000170 1a 46 f1 3a b0 9c 56 bb ff b3 2e bd 03 49 bf bd
       0.0018407733 -0.0032747202 -0.042652126 -0.09340098
000180 df 93 60 3a 1e 32 17 bd bd e8 1d bd 7c 58 91 bb
       0.00085669564 -0.03691303 -0.038552035 -0.004435597
000190 be 42 dc ba 15 42 a6 bb 28 46 8f 3b 10 87 10 bb
       -0.0016804559 -0.0050737956 0.004372377 -0.002205316
0001a0 05 fc ab bb c5 fe 50 3b e6 98 7c 39 54 b9 b4 3b
       -0.005248549 0.0031890136 0.00024089552 0.005515257
0001b0 f0 66 c0 3a 07 5e 79 3b 18 88 62 3b b4 a6 52 bb
       0.0014679115 0.003805043 0.0034565981 -0.003214282
0001c0 41 53 f2 3b 64 c9 1d 3b 41 87 99 3a fe 39 5b 3b
       0.0073951785 0.0024076337 0.0011713282 0.0033451314
0001d0 f3 54 1c 3c 55 78 1a 3c 8c 70 2f 3c 2b 00 8b ba
       0.009541738 0.009428103 0.010707986 -0.0010604908
0001e0 0e 1b c8 ba 46 8c 49 3b 3c 6e b5 b9 91 da 3a 3b
       -0.0015266852 0.0030753775 -0.0003460514 0.0028511623
0001f0 42 40 4a 3c 20 35 8f 3a 83 8b b8 3d c8 11 9c 3d
       0.012344422 0.0010925867 0.09010985 0.07620579
000200 54 fd 15 3d cd da 37 3c 22 4b 56 bc f8 51 8e bb
       0.036618546 0.0112216 -0.0130794365 -0.0043432675
000210 26 cc ab 3c 34 52 d5 3c a4 3a 72 3d 4d 55 25 bc
       0.020971369 0.026040174 0.059137955 -0.010091138
000220 37 2a 6a bd 9f 1a 9b bd a4 62 54 3d 67 5e 2a 3d
       -0.057169165 -0.07573437 0.051851884 0.041593935
000230 fb 76 30 3d 0e be 98 bc a7 12 9d bc 82 bf 40 bd
       0.04308222 -0.018645313 -0.019173933 -0.047057636
000240 73 09 44 be 96 16 0b be d4 c3 16 be 71 3d 04 3e
       -0.1914423 -0.13582835 -0.1472314 0.12914063
000250 48 e4 d9 3d b6 13 02 3e 3d 94 df 3d 38 9e a6 3d
       0.10639244 0.12702832 0.10916946 0.081356466
000260 53 23 b0 3d 03 a1 88 3c ea 07 4b 3d a2 ed 8b 3d
       0.086004876 0.016678339 0.049568094 0.06832434
000270 94 42 e4 bd 79 69 ec bd 12 7e c7 bd 87 41 15 3d
       -0.11145511 -0.11543555 -0.09740843 0.036439445
000280 58 75 4a 3d 6c 7a 12 3d 19 ff 41 3d bb 8f 41 3d
       0.049428314 0.03576128 0.04736242 0.047256213
000290 40 36 c9 3d 59 ab 21 be ac 9d e4 bd d3 b8 de bd
       0.098248005 -0.1578802 -0.11162886 -0.10875096
0002a0 f2 9e 00 bc 2b f7 87 3d cc d6 ac 3d 7f 4d e5 3b
       -0.0078503955 0.066389404 0.08439407 0.0069977636
0002b0 89 64 2b 3c 47 b3 87 3b 65 f8 cf bb 55 73 0a bb
       0.010460981 0.0041412446 -0.0063467496 -0.0021125872
0002c0 dd 02 2c bb 1e e4 ec 3a d2 7f 88 bb 74 f9 19 bc
       -0.0026246824 0.0018073355 -0.004165628 -0.009397853
0002d0 ea 10 26 3d 36 9c 5f 3d e1 ee f3 3d 1f 32 e4 3c
       0.040543474 0.054592334 0.11910797 0.02785593
0002e0 00 f4 6f 3b 48 c8 23 3d 92 b1 d1 bb 3f 11 09 3c
       0.0036613941 0.039985925 -0.006399342 0.008365928
0002f0 11 e3 39 ba ba 49 9a bd bc fc 8c bd e4 7e b4 bd
       -0.00070910255 -0.075335935 -0.06884143 -0.08813265
000300 ed 96 b7 3c d5 2e 69 3d af e9 28 3d 5f f9 2c 3d
       0.022410834 0.056929428 0.041238483 0.042230006
000310 7e 72 a2 3c 23 37 ff 3c 5d ec 35 3b 6b 23 be 3b
       0.019829985 0.03115422 0.0027759292 0.005802562
000320 79 10 a0 bb 1c d8 46 3b 1d 35 c3 bb f5 50 91 3b
       -0.004884776 0.0030341214 -0.0059572593 0.0044346997
000330 49 ce 25 ba 1d 95 0c 3a 63 e6 cd bb d3 3e 39 3b
       -0.00063249894 0.0005362796 -0.0062835678 0.0028266206
000340 33 b8 44 3b 4a de 3a bb 1e 76 57 bb 5c 20 d5 3b
       0.0030017018 -0.0028513842 -0.00328768 0.0065041017
000350 fa 24 c3 3b c2 4d 89 bb fd f1 33 3b 1a c5 65 bb
       0.0059553357 -0.0041901777 0.0027457469 -0.0035060109
000360 3f 95 a0 39 22 da 50 bb 66 fa eb bc 60 4e 0e bc
       0.00030628775 -0.0031868299 -0.028805923 -0.008685678
000370 2e 7f ca 3b 83 7a c7 bc 97 94 c2 3c e7 4b 55 3c
       0.006179712 -0.02435041 0.023752494 0.013018585
000380 86 12 63 3c 76 61 11 bd 9a 51 07 bd c8 89 2b bd
       0.013859397 -0.035493337 -0.033036806 -0.041879445
000390 db 60 76 3c e4 06 68 3d 7b b3 58 3d 57 ca 0c be
       0.015037741 0.056647196 0.05290554 -0.13749062
0003a0 a9 f8 05 be b2 d2 ee bd 6b 0c 42 bc 9a a0 3f bd
       -0.13083138 -0.11661281 -0.011843781 -0.04678402
0003b0 8b 0f 26 bc a0 e4 a8 bc 95 3e 0c bd ed 5d 8b ba
       -0.010135542 -0.02061683 -0.03423937 -0.001063285
0003c0 23 5e 18 bc e2 dc 47 bc b3 23 e9 b9 5c 72 d4 b9
       -0.009299788 -0.012198659 -0.0004446782 -0.00040520995
0003d0 99 c3 4f 3b bd 08 a7 3b 4a b4 cb 3a a1 58 8a 3b
       0.0031702279 0.005097477 0.0015541401 0.004221991
0003e0 14 00 89 bb 5c d4 48 3b 08 6e 41 3b 21 cc 70 3b
       -0.0041809175 0.0030644154 0.0029515047 0.0036742764
0003f0 65 5b 60 bb 9c e6 4a 3b 11 de 8c 3b a5 ba 8e bb
       -0.0034234163 0.0030960208 0.0042989333 -0.004355746

conv3.bias f4 [16]
000000 4e 70 50 bc 2f 52 bd 3b 34 e5 48 3d a0 46 5a bd
       -0.012722088 0.0057776193 0.04904671 -0.05329001
000010 d9 f3 c5 bb 31 b2 3f bc 50 b1 04 ba ae 67 b7 3c
       -0.006041032 -0.011700199 -0.0005061822 0.022388306
000020 d6 25 85 bc b2 36 9d bd 20 58 d1 3c 4c 04 c1 3c
       -0.016253393 -0.07676448 0.025554717 0.02356162
000030 10 e1 94 bc 97 cc 68 3c 13 9a 5d bd 33 8b 0e 3b
       -0.018173724 0.014208934 -0.054102015 0.002175045

conv4.weight f4 [16, 16, 3, 3]
000000 c7 28 16 bb bc 0d 04 bc 70 a4 26 3c 90 b6 3d 3b
       -0.0022912489 -0.008059915 0.010171041 0.0028947927
000010 35 fc b1 3b ad 2c 15 3c 5e 79 f1 3a d5 9b 22 bc
       0.0054316767 0.00910489 0.0018423011 -0.009924849
000020 d1 41 ce 3b a8 15 4e 3c 51 fc f8 3b 8b 3d 47 3c
       0.006294467 0.012578405 0.007598438 0.012160669
000030 ae 3a 71 ba 98 be 2d 3c 3b f8 12 3c 60 a6 c8 ba
       -0.00092021644 0.010604523 0.008970316 -0.0015308373
000040 80 ca 03 3c f9 cf c8 ba 59 09 38 bc c3 48 ce 3b
       0.008043885 -0.001532077 -0.011232697 0.006295295
000050 fb 91 58 3b 95 1f 71 3a cb b9 31 3b df 84 7b 3b
       0.0033045996 0.00091981265 0.0027118798 0.0038378758
000060 37 42 6e 3a 0e 69 ac 3b c6 48 e1 ba 8b 6c 5a 3c
       0.0009088846 0.005261547 -0.0017187826 0.013331543
000070 8b 9c 3e 3c 5c 67 99 3c f9 67 51 bb f9 54 cb 39
       0.011634002 0.018726043 -0.0031952842 0.00038782487
000080 8a e4 d7 3b 0f bc aa 3a 6d f9 82 3c 13 7a 86 3c
       0.0065885233 0.0013026017 0.015988076 0.016415631
000090 6e 35 a7 bb 05 f5 52 bb 0e 44 00 3b 43 16 5c 3c
       -0.005102805 -0.00321895 0.0019571814 0.013433042
0000a0 8d 14 ad 3b 25 2b a0 3c fa 5a db 3b 37 db d4 ba
       0.005281991 0.019551823 0.006694195 -0.0016239648
0000b0 8a 56 a9 b9 bb b7 c3 3b 33 fd 6b 3c f8 e5 44 3c
       -0.00032298669 0.00597283 0.014403629 0.012017719
0000c0 72 0e 9f bb b1 8c 2f 3c 9f f0 1f 3c 30 b5 d1 b9
       -0.004854017 0.010714696 0.009761958 -0.00039998582
0000d0 1e e4 1b 3c 97 f3 93 3c b6 d1 18 bc c8 a2 b1 3a
       0.009514837 0.018060489 -0.009327343 0.0013552541
0000e0 96 cf d6 3a 68 11 fd bb 2c 91 eb 3b bf 29 f8 3a
       0.001638877 -0.0077230223 0.0071889367 0.001893334
0000f0 ed 28 d4 3b a7 e9 85 bb a3 7e 8d 3b 78 3e 5c b9
       0.0064746053 -0.0040866914 0.004318075 -0.00021004106
000100 b5 28 f5 3a 2b be c6 bb f7 a5 29 3b f5 27 bf bb
       0.0018704148 -0.0060651503 0.0025886276 -0.0058336207
000110 4e b5 95 3b 3a 75 73 bb 6a 57 10 bb 37 bb e6 bb
       0.0045687323 -0.003714873 -0.002202476 -0.0070413607
000120 27 1a 01 bb 89 af f8 3b 93 82 35 3c 94 9e c8 3b
       -0.0019699426 0.007589285 0.011078495 0.0061224196
000130 9e 00 d5 bb 20 33 3a bb 2c f6 2a 3b 79 ee 6b 3a
       -0.0065003177 -0.002841182 0.0026086671 0.0009000074
000140 56 7b 0f 3b 87 d0 aa 3a 63 b5 91 bc 78 09 87 bc
       0.0021893582 0.0013032117 -0.017786687 -0.016484007
000150 12 6f 06 bb 06 9d ba bc 47 db 86 bc 96 94 ef 3b
       -0.002051298 -0.022779953 -0.016461981 0.007311414
000160 fc a3 25 bc bd 2b 12 bc 4b 66 7e b8 51 a6 5c 3a
       -0.010109898 -0.008921561 -6.0653587e-05 0.0008417117
000170 4b 28 34 3a ab ee 80 bb f4 a0 ce 3b 2b 09 17 bc
       0.0006872459 -0.0039347014 0.006305808 -0.009218494
000180 0c 5f e0 ba 27 8e dc bb 6f c3 c7 bb 3a 97 1b bb
       -0.001711817 -0.006730813 -0.0060962955 -0.002374126
000190 91 ba c2 bb b8 57 8c 3a ae 1d ac bb c5 ea a1 3b
       -0.0059426506 0.0010707295 -0.0052525615 0.004941317
0001a0 cb fb a9 3c 66 18 b9 3a cd bf f6 3b e7 95 08 3b
       0.020749947 0.0014121651 0.0075301887 0.0020841302
0001b0 09 b9 29 bb cc eb 84 3b 42 73 32 3b b8 15 7d 3c
       -0.0025897643 0.0040564295 0.0027229344 0.015447073
0001c0 28 d1 8c 3b 4f 3b d9 3b 85 fe 34 bb 45 aa aa 3a
       0.0042973943 0.0066293846 -0.0027617526 0.0013020715
0001d0 da c2 73 3c 92 87 fd ba 3b 9f bc bb 7f 89 bc 38
       0.014877999 -0.0019342771 -0.0057562864 8.990149e-05
0001e0 8c 9e a5 3b 51 10 14 bc 61 8d 61 ba 8e d3 ed 37
       0.0050543007 -0.009037093 -0.0008604136 2.8351114e-05
0001f0 9e e6 4e bb b9 d6 7f 3a ca 98 86 ba ab c1 17 3c
       -0.0031570564 0.0009759474 -0.0010268923 0.009262483
000200 9f 92 eb 3c 11 b4 60 3c 71 b2 d4 3c 75 d1 03 3d
       0.028756438 0.013714806 0.025963994 0.032182176
000210 41 07 78 3b 7a 07 d1 3c af 18 db 3c 02 68 91 3b
       0.003784612 0.02551626 0.026745168 0.0044374475
000220 eb ed e4 3a 14 06 8a bb fa 3a 49 ba ef 99 87 3b
       0.0017465925 -0.0042121504 -0.00076763297 0.0041382234
000230 e7 d8 42 bb 4c 39 8d 3b 50 75 90 bb fe c3 74 ba
       -0.0029731335 0.004309809 -0.004408516 -0.00093370664
000240 20 a2 4d bb 5a 53 30 bc d9 62 e3 bb 24 c5 50 bc
       -0.0031377152 -0.01076206 -0.006939274 -0.0127423145
000250 c3 76 fe bb ff 0f 88 3a 7e 22 51 bb 27 cd 40 ba
       -0.0077656223 0.0010380744 -0.0031911428 -0.0007354789
000260 8c 4e 18 bc 58 01 81 bb f4 71 9a 3a 55 1a 47 3b
       -0.009296071 -0.0039369278 0.0011783228 0.0030380685
000270 40 e9 45 3c a2 ae 73 3b 28 01 5d 3c 96 2d c2 3a
       0.012079537 0.0037182947 0.013489045 0.0014814611
000280 33 f2 19 3c 51 67 10 3c 0c 71 45 3a 63 ce 1f 3a
       0.009396124 0.008813695 0.0007531799 0.00060961227
000290 80 61 23 bc 5b 9e 8f 3b a6 12 01 ba 5c f7 a6 3b
       -0.009971976 0.004382891 -0.00049237383 0.0050954055
0002a0 7b 0f b1 ba 9e 5d 28 bc f2 bb ef ba ad 73 21 3a
       -0.0013508642 -0.010276226 -0.0018290265 0.00061588996
0002b0 30 4e de 3a 4c ca cf bb d5 27 a2 bb 5e 21 41 bc
       0.0016960558 -0.0063412543 -0.004948596 -0.0117877405
0002c0 ac a1 ac bb 43 ca 42 bb b1 a2 7c 3b db 21 7f bb
       -0.005268296 -0.0029722608 0.003854912 -0.0038930092
0002d0 91 e4 3b ba cf 54 bb 3a ce da ff 3a 8d 11 d5 3b
       -0.0007167543 0.0014292243 0.0019520165 0.0065023364
0002e0 54 86 0c bc 42 29 9e 3b 64 7d 28 bc 80 be b8 bb
       -0.008576948 0.0048266957 -0.010283802 -0.0056379437
0002f0 f8 1b c0 bb e9 fa 91 3c d5 62 c9 3c 05 4f 9b 3c
       -0.005862709 0.017819839 0.02458326 0.018958578
000300 9f a6 b1 3c ac e0 fa 3c 57 82 d9 3c f1 29 ee 3c
       0.021685896 0.03062471 0.026551409 0.029072734
000310 4a 3d cb 3c 05 ed e9 3c 23 f2 53 ba e7 84 83 3b
       0.024809498 0.028555403 -0.00080850924 0.004013646
000320 69 92 8b bb d9 8f a9 bb 57 32 b2 3b 12 e3 b8 3b
       -0.004259397 -0.0051746187 0.00543813 0.0056423033
000330 74 d2 fc 3b 88 72 ec ba 19 77 08 3a a7 26 43 bb
       0.0077155177 -0.0018039504 0.0005205735 -0.0029777677
000340 be 5c 69 bb 5e 76 95 3a a3 e7 01 bb b3 e1 a3 3b
       -0.0035608257 0.0011403074 -0.0019821904 0.0050012707
000350 82 58 f3 3b be 62 fc 3b b0 da 8c ba 17 98 0f 3b
       0.0074263224 0.0077022007 -0.0010746326 0.002191072
000360 c5 ab a9 39 c1 de 89 3b c6 cf a9 bb e4 aa 44 3a
       0.0003236217 0.0042074625 -0.005182239 0.00075022713
000370 df 91 bf 3a 30 09 86 3b c9 9e 33 3c e5 9f ae 3b
       0.0014615617 0.0040904507 0.01096315 0.0053291195
000380 b6 7f 27 3b 4d 2e 36 3c 80 23 79 3b a1 7e d8 3b
       0.00255583 0.011119437 0.0038015544 0.006606892
000390 6b a7 30 bb c0 d6 8e 3b a0 11 ac 3b 1f 79 5e 3c
       -0.0026955258 0.0043590963 0.0052511245 0.013578682
0003a0 48 6b 07 3c b4 f9 1e 3b 12 1e f0 3c 13 69 e4 3c
       0.008265324 0.0024257721 0.029311214 0.027882135
0003b0 c6 37 f4 3c 32 c1 fc 3c 0f b5 e6 3c 31 45 00 3d
       0.029811751 0.030853841 0.028162507 0.031315986
0003c0 10 7a e3 3c 9a 5b a7 3c f2 6f df 3c 3d bd 24 bc
       0.027768165 0.020429421 0.02727506 -0.010054884
0003d0 5f cb 32 3b 9a da 2e bc d6 35 ac bb 7a 80 a2 b9
       0.0027281863 -0.010672236 -0.005255441 -0.0003099477
0003e0 b0 08 c4 3a 51 18 51 3b 79 63 c1 3a 2a b5 28 bb
       0.0014956202 0.0031905363 0.0014754377 -0.0025742748
0003f0 ca ed bd 3b 36 b6 64 3a 5d ad 95 ba 43 22 70 ba
       0.005796169 0.00087246613 -0.0011419464 -0.0009160379

conv4.bias f4 [16]
000000 0a 53 75 ba fe c8 5f bd c7 0c a3 3b 2a 9c f5 bb
       -0.0009358382 -0.05463504 0.0049758884 -0.007495423
000010 95 5a 64 3d d9 c3 f7 bb de 0a 2b bb 11 1b 07 3c
       0.05575045 -0.0075611887 -0.0026099007 0.008246199
000020 dc 19 28 bb 8f 40 f5 bd 97 c1 14 3c cd d4 bd bc
       -0.002565018 -0.11975204 0.009079359 -0.02317276
000030 0c a7 55 3c 6c 47 df 3b 70 d4 91 3b 40 41 9e 3a
       0.013040315 0.006813934 0.0044503734 0.0012073889

conv5.weight f4 [16, 16, 3, 3]
000000 6b ee 83 3c 25 36 c1 3c 10 78 fa 3c 40 85 70 3b
       0.016104897 0.023585388 0.030574828 0.0036700517
000010 b6 6c 7e 3c e9 12 93 3c 9a e8 e0 bb 5e 71 4d 3c
       0.015528848 0.017953353 -0.0068636658 0.012539236
000020 43 63 4b 3c e3 c0 f5 bb 5b 85 68 bc 32 bf 53 3a
       0.012413803 -0.0074998005 -0.014191951 0.00080775016
000030 79 e0 01 bc 46 c0 3c bb 0b d9 b0 3b cd 4f 87 bb
       -0.007927054 -0.0028801127 0.0053969673 -0.004129386
000040 78 c1 9a bb dc 2c 04 bc 18 fa ff 3d 69 1d d4 3d
       -0.0047227703 -0.008067336 0.124988735 0.10357172
000050 95 b5 fb 3d 13 08 12 bd d4 76 2e bd 39 d1 44 bd
       0.122904934 -0.03565223 -0.042593792 -0.048051093
000060 fa 9b 9d bd d0 50 4d bd a1 64 79 bd 3a 90 81 bb
       -0.07695766 -0.050125897 -0.060886983 -0.0039539607
000070 cd c2 c6 3b 62 76 0f bb c0 6d 36 bb c7 e7 58 3b
       0.0060657025 -0.002189063 -0.0027836412 0.0033097134
000080 b2 f0 55 bb 86 a0 50 bb 37 8d 12 3c c1 3a 6c ba
       -0.0032644686 -0.003183396 0.008944801 -0.00090114406
000090 4d 03 2a bc 1e 59 33 bc 5f 85 ef 3b 49 40 87 3d
       -0.0103767635 -0.01094654 0.0073096002 0.06604058
0000a0 eb 6e 49 3d 9b 0f 8f 3d e9 b4 bb 3d e8 5a 8c 3d
       0.049178045 0.069853984 0.09165365 0.068532765
0000b0 af b1 98 3d dc 14 ee 3d 25 80 03 3e f2 1e 92 3e
       0.074557655 0.11625072 0.12841852 0.28539234
0000c0 ce d6 e6 3d a0 4e a3 3d 3e a6 6a 3e 19 05 4d 3e
       0.112714395 0.07973981 0.22914979 0.20021476
0000d0 ff 9c 12 3e 88 37 a4 3e d3 37 d0 39 d2 30 78 bc
       0.14317702 0.32073617 0.00039714444 -0.015148358
0000e0 b4 f4 ff bb 56 25 2e bc 50 7c 42 bc b3 d2 49 bc
       -0.0078111533 -0.010629019 -0.011870459 -0.012318301
0000f0 c1 2d b6 ba e5 d9 1b 3c 6e e9 9f 3b 28 37 03 be
       -0.0013899134 0.009512399 0.004880122 -0.12814009
000100 fc c0 1b be 1e 48 33 be 76 52 93 bd bb 79 66 bd
       -0.15210336 -0.1750798 -0.071934626 -0.056268435
000110 b3 05 85 bd 86 5b 23 3e e7 d4 e2 3d c0 62 f0 3d
       -0.06495228 0.15952882 0.11075764 0.11737585
000120 90 d6 c8 3b 68 65 11 ba 9c 43 f8 b9 ec bf 9f 3b
       0.0061290935 -0.0005546422 -0.0004735262 0.004875174
000130 1b 1d 27 3c a6 8c 12 3c 11 b1 84 bc 6d 43 1d bc
       0.01019981 0.008944666 -0.016197713 -0.009598595
000140 71 5d 9c bc 6a 92 8e bc c9 80 6a bc be 17 03 bc
       -0.019087525 -0.0174038 -0.014312931 -0.008001266
000150 5b 15 28 bc 33 0e 8e bc 38 46 80 bc 5d ab de bb
       -0.010258998 -0.017340755 -0.015658483 -0.0067953304
000160 99 ad 90 3a ae 54 4d bb 51 9e 49 bd 17 de 55 bd
       0.0011038064 -0.003133099 -0.049223248 -0.052213755
000170 1a 36 76 bd 5f cd e2 bb 03 05 13 bc c4 95 8a 38
       -0.06011019 -0.006921455 -0.008973363 6.608249e-05
000180 4f 40 32 3d dd ff f2 3c 1a 97 30 3d 09 f3 11 3c
       0.04351836 0.02966302 0.04311285 0.008908042
000190 fe 43 a3 bc 29 c7 74 bc f9 43 b4 bc 19 76 0c bd
       -0.019929882 -0.014940062 -0.022005068 -0.034292314
0001a0 42 8f 14 bd 37 c1 98 bb 6f 3f a2 bc 19 81 a6 ba
       -0.036269434 -0.004661705 -0.019805638 -0.0012703269
0001b0 7a 2b 6f 3e 9b 2b 05 3e 46 16 5e 3e c5 bf 8c 3d
       0.23356429 0.13004915 0.21688184 0.06872515
0001c0 bf bc 85 bc 5e 07 82 3d ea 77 db 3d 74 c3 8f 3c
       -0.016325353 0.063490614 0.10716231 0.017549254
0001d0 8d 6e b9 3d 11 7e ce 3c 59 c1 98 3c d1 d9 25 3d
       0.09054289 0.025206598 0.018646883 0.04049093
0001e0 82 c2 4b 3c 48 c0 20 bc 7a 78 57 3c b2 8b b5 3d
       0.012436511 -0.009811468 0.013151282 0.088645354
0001f0 82 fc 30 3d c9 ed 92 3d d9 53 da 3d 42 4e a9 3d
       0.04320956 0.0717426 0.10660524 0.082668796
000200 ca b0 e7 3d 14 20 68 3d 97 71 2f 3d 2b 4c 77 3d
       0.11313017 0.056671217 0.042832937 0.060375374
000210 2e 82 f0 bd 47 61 c5 bd b1 1a ca bd a6 01 d1 3b
       -0.1174358 -0.09637695 -0.09868372 0.0063783703
000220 6d 5b e2 ba 94 60 1a 3b cc 07 17 bc eb 97 54 bc
       -0.0017269679 0.00235561 -0.0092181675 -0.012975673
000230 e7 d7 18 bc 04 7a 94 bb 84 b0 cb 3b a4 7a fd 3b
       -0.009328819 -0.004531147 0.0062161107 0.007735567
000240 d9 99 27 3c 1a 0d 1e 3c a2 4c b9 3b 8f 42 44 3c
       0.010229551 0.009646678 0.0056548873 0.011978759
000250 52 94 ea 3b 7e a5 63 3b 16 13 12 3c b8 e2 59 3c
       0.0071587944 0.0034736092 0.008915683 0.013298683
000260 3b f8 af bb 43 98 f6 bc 48 28 16 bd 17 6b c0 bc
       -0.0053701675 -0.0301019 -0.03665951 -0.023488564
000270 55 0a 21 bd 30 86 3b bd b6 b6 08 bd e6 52 52 bd
       -0.039316494 -0.045782268 -0.03337737 -0.05134859
000280 85 9a 1e bd 59 e9 32 bd 5a 20 13 be 69 79 02 be
       -0.03872158 -0.04367957 -0.1436781 -0.12741627
000290 a1 23 f5 bd 53 f4 04 3d cb 42 cf 3c 08 3a ae 3c
       -0.11969686 0.03245957 0.025300404 0.021267906
0002a0 9f 83 0a 3e 30 1f 0c 3e b5 df 12 3e 1f c0 e9 38
       0.13526772 0.13683772 0.1434315 0.00011146091
0002b0 0e c1 e1 3b c9 29 23 ba f9 04 9f bb 4e 28 04 bc
       0.006889469 -0.0006224183 -0.0048528877 -0.00806625
0002c0 2c a8 b5 bb 20 b1 a6 bb f7 f7 37 3b 6e 97 5e 3b
       -0.0055437293 -0.005087033 0.0028071383 0.003396477
0002d0 4c 64 89 3d 86 f9 87 3d a7 71 80 3d 58 f2 2f bd
       0.06708583 0.0663939 0.062716775 -0.042955726
0002e0 72 01 e3 bc 8c 7b 28 bd b0 e8 21 bd 85 0c e2 bc
       -0.02771065 -0.04113345 -0.03952855 -0.02759386
0002f0 d2 d2 67 bd 8a 0e 08 bd 32 12 22 bc c1 86 8e bd
       -0.05659754 -0.03321699 -0.009892033 -0.06959296
000300 4e 3d d2 3b 1e b0 73 bb d2 fa 94 bd da 52 88 bd
       0.0064159995 -0.0037183831 -0.07274403 -0.06656428
000310 5f ea 82 bd 2e d7 12 be 92 50 34 3c cd 92 fe b9
       -0.06392359 -0.14339897 0.011005538 -0.0004855603
000320 a8 35 ff 3b 5c 8d 33 3c 80 f2 57 3c d5 26 14 3c
       0.0077883787 0.010958996 0.013180375 0.009042461
000330 8b 5f 67 39 3b 48 be bb d3 dc f6 bb 2f 83 8f 3e
       0.00022065469 -0.0058069504 -0.0075336485 0.28029773
000340 1d 4b 8b 3e 0e fe 86 3e 6c 73 7f 3e 07 e9 7a 3e
       0.27205744 0.26365703 0.24946374 0.24502955
000350 20 66 80 3e e6 e1 66 be b5 9a 47 be e7 7b 66 be
       0.25077915 -0.22547111 -0.1949261 -0.22508202
000360 b0 b3 83 3b 17 63 e4 3a f6 af d0 3a b2 fe 11 bc
       0.004019223 0.0017424551 0.0015921581 -0.008910822
000370 63 39 1f bb 30 d2 89 bb 01 32 f3 3b 75 fe 33 3c
       -0.002429568 -0.0042059645 0.0074217324 0.01098596
000380 6c 62 ca b9 d2 01 a6 bd 34 58 96 bd 6a f5 8a bd
       -0.00038601772 -0.08105816 -0.07341042 -0.0678509
000390 b2 81 a6 bd 46 e5 83 bd f6 ec 7b bd 07 d3 d6 bd
       -0.08130206 -0.06440215 -0.06150528 -0.10489469
0003a0 32 42 d8 bd 42 25 ac bd 44 67 64 3d 42 5c 80 3d
       -0.10559501 -0.08405544 0.055762544 0.06267597
0003b0 28 22 84 3d af 1f b6 3c 0e 44 f5 3c ca 8d de 3c
       0.06451827 0.022231905 0.029939678 0.02716722
0003c0 66 e9 89 bd fa d1 74 bd 25 94 94 bd 17 73 d8 3c
       -0.0673397 -0.05977056 -0.07254819 0.026422067
0003d0 a8 a3 0b 3d 45 52 f6 3c 83 08 2c 3d b3 87 63 3d
       0.03409162 0.030068526 0.042000305 0.055549335
0003e0 fa f7 80 3d cd cc ba 3d 7a dd cf 3d ab f5 bd 3d
       0.06297298 0.09121094 0.10149665 0.09275373
0003f0 30 d9 50 bd 67 bf 30 3c a8 71 1f bd b2 99 c0 3d
       -0.050988376 0.010787821 -0.03892675 0.09404315

conv5.bias f4 [16]
000000 47 81 a7 3d ec 11 5d 3d 89 18 94 3c 91 b0 9f 39
       0.081789546 0.05397217 0.018078106 0.00030458395
000010 7d 33 90 bc e2 a0 ed bb 6d 6e 5e 3d 55 62 79 3d
       -0.017602677 -0.0072518447 0.05430453 0.060884792
000020 b0 05 1f 3c 19 f8 93 bc 08 39 0c 3d 94 ba ea 3d
       0.009705946 -0.018062638 0.034234077 0.11461368
000030 92 0b 2f bb 6c 87 13 3d 74 c4 dc bb 98 8e 0a 3d
       -0.0026709777 0.03601782 -0.006737286 0.033827394
