data/output/pre_trained_cnn/NC16_NoRot_LR001_b32_withdrop.pt (torch_old, 89379 bytes, 20 tensors)

conv0.weight f4 [3, 3, 5, 5]
0	0xbe50c073	-0.20385914
1	0xbd962e5b	-0.0733306
2	0xbd9f23a1	-0.077704675
3	0x3f062656	0.52402246
4	0xbe3a12eb	-0.18171279
5	0xbda25c85	-0.07927803
6	0xbd52999d	-0.05141603
7	0xbe37264b	-0.17885701
8	0x3e781392	0.24226215
9	0xbe968849	-0.29400852
10	0xbe171214	-0.1475299
11	0x3e04c932	0.12967375
12	0xbe301eac	-0.171992
13	0x3e87a6a0	0.26494312
14	0xbeb11e45	-0.34593406
15	0xbd6bf245	-0.057604093
16	0x3d83702c	0.064178795
17	0xbe873ab1	-0.26411965
18	0x3e085f69	0.13317646
19	0xbda1c945	-0.07899717
20	0xbe276250	-0.16346097
21	0xbbeabb47	-0.0071634385
22	0xbe13dde0	-0.14440107
23	0x3e91ba7a	0.28462583
24	0xbe018122	-0.12646917
25	0x3e0587d7	0.130401
26	0xbd7f4d9b	-0.06232987
27	0x3db1d39d	0.0868294
28	0x3e87d3a6	0.26528662
29	0x3e872fc4	0.2640363
30	0x3da9b3ec	0.082862705
31	0xbe8449db	-0.25837597
32	0x3e084be1	0.13310196
33	0x3e859838	0.26092696
34	0x3e1ed727	0.15511762
35	0x3ed00e1c	0.40635765
36	0x3e143d0f	0.14476417
37	0x3bdc32df	0.0067199315
38	0x3c325bd6	0.010886153
39	0x3e31b5c4	0.17354494
40	0x3ebf29ec	0.3733667
41	0xbd945f52	-0.072447434
42	0x3c401c34	0.011725474
43	0xbd7462b0	-0.05966443
44	0x3e27d1f5	0.16388686
45	0x3e0ee573	0.13954715
46	0xbddcd283	-0.107823394
47	0xbe25de57	-0.16198097
48	0x3ee7b3a8	0.45254254
49	0xbe844fa8	-0.25842023
50	0x3e2d14b7	0.16902433
51	0x3e8bd205	0.2730867
52	0xbd146c51	-0.03623611
53	0x3f03685e	0.51331127
54	0xbdb45eea	-0.08807166
55	0x3e8fca20	0.28083897
56	0xbd778f48	-0.060439378
57	0x3eb2faf9	0.34957102
58	0x3dae9040	0.08523607
59	0x3dba2321	0.090887316
60	0x3e35d380	0.17756462
61	0x3e7e4aaa	0.2483317
62	0xbe9bb0ef	-0.30408427
63	0x3ec28167	0.3798935
64	0xbe29bf91	-0.16576983
65	0x3e4c5d0d	0.19957371
66	0x3e22f6e3	0.15914492
67	0xbeafec3a	-0.34359914
68	0x3e6b97d1	0.23007132
69	0x3dcdc0d0	0.10046542
70	0x3e272985	0.16324432
71	0xbca1f0f5	-0.019768218
72	0xbe7852bb	-0.24250309
73	0x3f057f76	0.52147615
74	0xbec91d04	-0.3927995
75	0x3c842733	0.016131973
76	0x3d3227b7	0.043494906
77	0xbdb7ccc4	-0.08974603
78	0x3d13c1b2	0.036073394
79	0x3d0c2209	0.034212146
80	0x3d1be5ed	0.03806107
81	0xbcabff8b	-0.020995876
82	0xbddb2884	-0.10701087
83	0x38a65840	7.931935e-05
84	0x3d39615e	0.045258872
85	0xbda9aa15	-0.08284394
86	0x3d30091f	0.04297745
87	0x3dba15ef	0.09086215
88	0xbd7f2558	-0.062291473
89	0x3cc91d77	0.024550183
90	0x3d858cca	0.06520994
91	0x3af7670d	0.0018875316
92	0xbcd88c00	-0.026433945
93	0x3b5d173e	0.0033735777
94	0xbde18cf2	-0.11013211
95	0x3c517e35	0.012786438
96	0x3dd8bc85	0.10582832
97	0x3dfff1b6	0.124972746
98	0x3d58140b	0.05275349
99	0x3b067ea2	0.0020522256
100	0x3cb28b40	0.021794915
101	0xbdca5f5f	-0.09881472
102	0xbe0cff50	-0.13769269
103	0xbe1e94c1	-0.15486433
104	0x3dbb9333	0.091589354
105	0x3d03efb2	0.032211013
106	0xbe0f1d9f	-0.13976143
107	0x3d2b86fb	0.041876774
108	0x3dc403b9	0.095710225
109	0x3ddf9404	0.109169036
110	0x3d9fee79	0.07809157
111	0x3d71ffaa	0.05908171
112	0xbda81ca0	-0.08208585
113	0xbd918324	-0.07105091
114	0x3de5986a	0.11210711
115	0x3d418419	0.04724512
116	0xbe0e3d9b	-0.13890688
117	0x3d8ed256	0.06973712
118	0x3c127b47	0.008940524
119	0x3d75910c	0.05995278
120	0xbdf8d425	-0.12149838
121	0x3bb03fdc	0.0053787064
122	0xbdcfbd10	-0.10143483
123	0x3d53aaeb	0.051676672
124	0xbda3c05f	-0.07995676
125	0xbd0d099e	-0.034433
126	0xbd08e648	-0.03342274
127	0x3c2f716b	0.010708193
128	0xbdeddf36	-0.1161484
129	0xbccfb2c4	-0.025353797
130	0xbe49280f	-0.19644187
131	0xbd23d626	-0.03999915
132	0xbe27f97c	-0.16403764
133	0xbe49e0fc	-0.19714731
134	0xbe4d1405	-0.20027168
135	0x3cbb23e3	0.02284426
136	0xbc11ab4e	-0.00889094
137	0x3d451ca9	0.048123036
138	0x3d73833c	0.059451327
139	0xbe426fed	-0.18988009
140	0xbe3414ea	-0.17586103
141	0xbddaac80	-0.10677433
142	0xbe4f367e	-0.20235631
143	0x3c4dee53	0.012569028
144	0xbe349a80	-0.17637062
145	0xbe111e7d	-0.14171787
146	0xbe625bfd	-0.22105403
147	0xbe34626d	-0.17615671
148	0x3c8455b1	0.016154142
149	0x3cec9d41	0.028883578
150	0x3e85a7b8	0.26104522
151	0x3e9284d6	0.2861697
152	0x3eba086c	0.3633455
153	0x3e1247b5	0.14285167
154	0x3e48bb90	0.196028
155	0x3e6e498b	0.23270242
156	0x3e4b171d	0.19833036
157	0x3ebee947	0.3728735
158	0x3e903ac1	0.28169826
159	0x3e729352	0.2368901
160	0x3d59499b	0.05304871
161	0x3e84c4b4	0.25931323
162	0x3e8fcebd	0.28087416
163	0x3e68e64b	0.227441
164	0x3e2e5792	0.17025593
165	0xbd47a39c	-0.048740014
166	0xbc0a891e	-0.008455543
167	0x3e8eac63	0.27865896
168	0x3e932627	0.28740045
169	0x3dc43f1f	0.09582352
170	0xbd3d62ec	-0.046236917
171	0x3e78eec0	0.24309826
172	0x3e395241	0.18097784
173	0x3e0f5869	0.1399857
174	0x3dbc54ce	0.09195863
175	0xb9f50021	-0.00046730138
176	0xbd0521ac	-0.032502815
177	0xbe2b1eb8	-0.16710937
178	0x3db5aa0c	0.088703245
179	0x3d54e749	0.051978383
180	0xbe23388d	-0.15939541
181	0xbc3ca326	-0.011513507
182	0xbdda9be1	-0.10674263
183	0xbd82286d	-0.06355367
184	0x3db281fe	0.087162
185	0xbde15921	-0.11003328
186	0xbe1cf13e	-0.15326402
187	0xbcd001f5	-0.025391558
188	0x387a7afa	5.9719176e-05
189	0xbb54573f	-0.0032400636
190	0xbe033ac3	-0.12815385
191	0x3d59f6bd	0.053213824
192	0xbd5da698	-0.054113954
193	0xbe3504dc	-0.17677635
194	0xbc070627	-0.008241213
195	0xbdc3fec7	-0.09570079
196	0xbc028499	-0.007966184
197	0xbe9737d8	-0.29534793
198	0xbd8b7dd5	-0.0681111
199	0xbe2b8ac3	-0.16752152
200	0xbe8ac4b3	-0.27103195
201	0xbe57e13c	-0.21082014
202	0xbe9135fe	-0.28361505
203	0xbe3dc408	-0.18531811
204	0xbdcd3368	-0.100195706
205	0xbe65bcbd	-0.22435279
206	0xbe896945	-0.26838127
207	0xbe822b6c	-0.25423753
208	0xbe37d785	-0.17953308
209	0xbea74c03	-0.3267518
210	0xbde752c6	-0.11295085
211	0xbe9999d3	-0.3000017
212	0xbe8285c9	-0.25492695
213	0xbe8c8f50	-0.2745309
214	0xbe48e23b	-0.1961755
215	0xbdf49fbd	-0.1194453
216	0xbea1a3bf	-0.3157024
217	0xbdc10f5d	-0.094267584
218	0xbe9a904b	-0.30188212
219	0xbdfa090d	-0.122087575
220	0xbe69e92d	-0.22842856
221	0xbeb02b6f	-0.34408137
222	0xbe22c067	-0.15893708
223	0xbe025c63	-0.12730555
224	0x3caca090	0.021072656

conv0.bias f4 [3]
0	0xbf487918	-0.78309774
1	0xbe82ce91	-0.25548223
2	0xbf2b49c9	-0.6690946

conv1.weight f4 [30, 3, 5, 5]
0	0xbcbece3e	-0.023291703
1	0xbc3e6e2b	-0.011622946
2	0xbbb2fe65	-0.005462455
3	0xbae0b71c	-0.0017144415
4	0x3bff9af9	0.0078004566
5	0xbcb814c0	-0.022470832
6	0xbc4b9373	-0.012425291
7	0xbc07ce1b	-0.0082888855
8	0xbb877371	-0.0041336347
9	0x3bba5be9	0.005687226
10	0xbcb21afc	-0.021741383
11	0xbc570e3d	-0.013125953
12	0xbf3d9ae8	-0.74064493
13	0x3f395885	0.72400695
14	0x3b73de5e	0.0037211399
15	0xbcb660d4	-0.022262968
16	0xbc633a35	-0.013868858
17	0xbc2e53df	-0.010640114
18	0xbc0fbd8d	-0.00877322
19	0x3ae4d101	0.0017457308
20	0xbcc083ed	-0.023500407
21	0xbc6c6857	-0.014429173
22	0xbc438913	-0.0119345365
23	0xbc0e333b	-0.0086792065
24	0x3b114076	0.0022163666
25	0xba0a273a	-0.00052701274
26	0xba790bd4	-0.0009500359
27	0xba97e395	-0.001158821
28	0xba8a5a04	-0.0010555391
29	0xba8332dd	-0.0010009665
30	0xb9d32c84	-0.00040278223
31	0xba52a993	-0.0008036133
32	0x3f3af29a	0.7302643
33	0xba820bf3	-0.0009921774
34	0xba8819d5	-0.0010383675
35	0xb9c181a5	-0.0003690842
36	0xba068205	-0.0005131069
37	0xbf3b5f2d	-0.731921
38	0xba3da9d5	-0.0007235085
39	0xba82f7da	-0.0009992078
40	0xb9e9c7f0	-0.00044590188
41	0xb9f20c42	-0.0004616697
42	0xb9e4ac8d	-0.0004361611
43	0xba0e96c2	-0.0005439335
44	0xba4d1c1a	-0.0007824317
45	0xba2042f6	-0.00061134936
46	0xba2c938a	-0.00065832643
47	0xb9fede7a	-0.00048612413
48	0xb9edeeb9	-0.00045382025
49	0xba2bad3f	-0.0006548948
50	0x3c3bf743	0.011472526
51	0x3bbd4d8d	0.005777067
52	0x3991faa5	0.000278433
53	0xbb872521	-0.004124299
54	0xbbd8c14c	-0.0066148397
55	0x3c3917fc	0.011297222
56	0x3bbbf67e	0.0057361713
57	0x39ee8f98	0.00045501883
58	0xbb5ae68d	-0.003340158
59	0xbbc3ff8e	-0.005981392
60	0x3c370d29	0.011172571
61	0x3f3cb23f	0.7370948
62	0xbf3b027a	-0.73050654
63	0xbb2ca43a	-0.0026343004
64	0xbba0ae6a	-0.0049036043
65	0x3c2dae2a	0.010600606
66	0x3bb8b8b0	0.005637251
67	0x3a68cc29	0.000888052
68	0xbb0c4216	-0.0021401695
69	0xbb8788e9	-0.004136194
70	0x3c37390e	0.0111830365
71	0x3bc4c7f5	0.006005282
72	0x3a9c5370	0.0011926722
73	0xbaf355fe	-0.0018565056
74	0xbb6316ca	-0.0034651035
75	0xbd203327	-0.039111283
76	0xbd254177	-0.040345635
77	0xbd17e408	-0.037082702
78	0xbd0a3528	-0.0337421
79	0xbcf2234c	-0.029557846
80	0xbd0283f6	-0.03186413
81	0xbd03019e	-0.031983964
82	0xbcedfd8e	-0.029051568
83	0xbcde6b30	-0.02715072
84	0xbcc6d06b	-0.024269303
85	0xbca3aa50	-0.019978672
86	0xbca022e5	-0.019547889
87	0xbf3f0eae	-0.74631774
88	0xbc759ffe	-0.014991758
89	0xbc3898fe	-0.011266945
90	0xbbf48239	-0.007461813
91	0xbba7d6c8	-0.0051220395
92	0x3f3bf248	0.73416567
93	0x3b60c12a	0.0034294822
94	0x3ad7afba	0.0016455569
95	0x3b933b03	0.0044931187
96	0x3bf88a01	0.0075848107
97	0x3c91c863	0.017795747
98	0x3c7ce20b	0.015434752
99	0x3c6806b9	0.014161759
100	0xba02437b	-0.0004969162
101	0xb82b837b	-4.0892028e-05
102	0x3a3d269d	0.00072155317
103	0x3a79cf31	0.000952947
104	0x3a36f0cf	0.00069786323
105	0xba2fa9c1	-0.00067010155
106	0xb9f8a29f	-0.00047423408
107	0x39b74114	0.00034952967
108	0x3f3b7b4e	0.73235023
109	0x3a8fd2df	0.0010972879
110	0xba066765	-0.00051271013
111	0xba1c2505	-0.0005956444
112	0xbf3b400c	-0.731446
113	0x3a121e06	0.0005573932
114	0x3a8aaa95	0.0010579402
115	0xb890c569	-6.9032256e-05
116	0xb9aa1003	-0.00032436856
117	0xb98e4246	-0.00027133728
118	0xb66bf86a	-3.5162325e-06
119	0x39fe8282	0.0004854389
120	0x38f51253	0.000116859235
121	0x372d18eb	1.0317405e-05
122	0xb8f7fd9b	-0.000118251155
123	0xb9618647	-0.00021507694
124	0x359db78f	1.1750834e-06
125	0xbc3a0835	-0.011354496
126	0xbbeba14e	-0.00719086
127	0xbac8851d	-0.001529846
128	0x3b03c526	0.0020106523
129	0x3b2aa356	0.0026037297
130	0xbc2cd9b4	-0.010549951
131	0x3f397954	0.7245076
132	0xba9ed2f4	-0.0012117312
133	0x3b20bbcf	0.0024526005
134	0x3b2b6f37	0.0026158819
135	0xbc3499ab	-0.011022965
136	0xbbf43ac9	-0.007453297
137	0xbf3b9d69	-0.73287064
138	0x3b03d127	0.0020113678
139	0x3ae7e9a4	0.0017693532
140	0xbc3c64eb	-0.01149867
141	0xbbfa13ab	-0.007631739
142	0xbad251b6	-0.001604608
143	0x3ae4273e	0.0017406715
144	0x3ac45fba	0.0014982142
145	0xbc3aa591	-0.011392013
146	0xbbef1db3	-0.0072972416
147	0xbac1f65d	-0.0014798153
148	0x3b014573	0.0019725233
149	0x3aee1f56	0.0018167298
150	0xbb159e9f	-0.0022830141
151	0xbc192cab	-0.009349029
152	0xbc489d45	-0.012244527
153	0xbc6f51c9	-0.014606901
154	0xbca73d71	-0.02041504
155	0x3b2cc0a9	0.0026359952
156	0xbbdd7604	-0.0067584533
157	0xbc4691b9	-0.012119704
158	0xbc6eb269	-0.0145689035
159	0xbcb2bb9b	-0.021817973
160	0x3be07488	0.006849829
161	0xbb4e7754	-0.003150423
162	0xbf3e208e	-0.74268425
163	0xbc730705	-0.014833217
164	0xbcaf5f78	-0.021407828
165	0x3c210dd6	0.009829959
166	0x3f3ac3d3	0.72955054
167	0xbc0a722c	-0.008450072
168	0xbc2768ca	-0.010217855
169	0xbc8454c8	-0.016153708
170	0x3c3203e7	0.010865188
171	0xbad80a1d	-0.0016482506
172	0xbbcbd8f6	-0.006220932
173	0xbbe381c7	-0.006942961
174	0xbc33853e	-0.01095706
175	0xb9f1d2d7	-0.0004612419
176	0xba17006a	-0.00057602546
177	0xba146496	-0.00056607404
178	0xba1cf096	-0.0005986778
179	0xba29882c	-0.00064671296
180	0xb996c94c	-0.00028760207
181	0xb9f706a5	-0.00047116462
182	0xba3126c5	-0.0006757791
183	0xba3f4549	-0.0007296396
184	0xba33366c	-0.00068364176
185	0xb9de3027	-0.00042379016
186	0xba10d5a5	-0.00055249996
187	0xbf3b6622	-0.7320272
188	0xba5d40d4	-0.0008440141
189	0xba490345	-0.00076680287
190	0xba149372	-0.0005667723
191	0xba041098	-0.0005037873
192	0xba20eb78	-0.0006138603
193	0x3f3b0298	0.7305083
194	0xba59f1e6	-0.0008313939
195	0xba1bec9d	-0.0005948039
196	0xba02cb28	-0.0004989379
197	0xba09f20c	-0.0005262203
198	0xba4edbf4	-0.0007891052
199	0xba7880d3	-0.00094796455
200	0xbb4c300f	-0.0031156575
201	0xbb3615dc	-0.0027784025
202	0xbb261de1	-0.00253474
203	0xbb0c0ad8	-0.0021368768
204	0xba1d4aed	-0.00060002395
205	0xbb6eaf1c	-0.0036420291
206	0xbb53d1cc	-0.0032321094
207	0xbb2a0c23	-0.0025947175
208	0xbb18b685	-0.002330215
209	0xba584bdc	-0.000825105
210	0xbb302605	-0.002687813
211	0x3f3aa4b1	0.7290755
212	0xbfbb61ea	-1.4639256
213	0x3f3acca5	0.7296851
214	0xba38ddc7	-0.00070520904
215	0xba9aeda8	-0.0011820095
216	0xba340b72	-0.00068681606
217	0xba1cae7a	-0.0005976927
218	0xbaa72646	-0.0012752495
219	0xba55ebe0	-0.0008160453
220	0x3a337c86	0.00068468635
221	0x3a99e8d5	0.0011742363
222	0x3a26add7	0.00063583016
223	0xb9c326d1	-0.0003722222
224	0xba2a66fb	-0.00065003306
225	0x3d01c3d4	0.031680897
226	0x3cf29e9a	0.029616643
227	0x3cb7f324	0.022454806
228	0x3cbbce08	0.022925392
229	0x3ca1bfac	0.019744717
230	0x3c95d88c	0.018291734
231	0x3c6d544d	0.014485431
232	0x3f3d7988	0.74013567
233	0x3c2be8a5	0.0104924785
234	0x3c09b99a	0.008406067
235	0x3bac9a23	0.005267398
236	0x3af20407	0.0018464335
237	0xbfbbbefc	-1.4667659
238	0xb97026eb	-0.00022902682
239	0xbb871a52	-0.0041230107
240	0xbc159daa	-0.009131828
241	0xbc16ad9f	-0.009196668
242	0x3f374c53	0.71600837
243	0xbbe30021	-0.0069275056
244	0xbc18be26	-0.009322679
245	0xbc5a2d4b	-0.013316463
246	0xbbfe7f35	-0.007766629
247	0xbc80169c	-0.015635781
248	0xbc223e26	-0.009902513
249	0xbc32bfb9	-0.010909968
250	0x3b9a30bc	0.0047055166
251	0x3b90aec1	0.0044153635
252	0x3b7ccc30	0.0038573854
253	0x3b85ef63	0.004087375
254	0x3b89b754	0.0042027626
255	0x3b99d2b8	0.004694309

conv1.bias f4 [30]
0	0xbd8e9f48	-0.06963974
1	0xbd4addba	-0.04952786
2	0x3a95dd0e	0.0011433677
3	0xbd8854f7	-0.06656831
4	0x3d2c1e75	0.042021234
5	0x3dac5cdf	0.08416151
6	0x3ebcfb82	0.36910635
7	0x3e16fe3e	0.14745423
8	0xbe71b148	-0.23602784
9	0xbe286241	-0.16443731
10	0x3d186541	0.03720594
11	0xbd841a92	-0.064503804
12	0xbd51444b	-0.05109052
13	0xbddc4bf7	-0.10756677
14	0xbe6da18f	-0.23206161
15	0x3d7c57fa	0.06160734
16	0x3d80e8f9	0.06294436
17	0xbc35b527	-0.011090553
18	0xbe13fbe3	-0.14451556
19	0xbd2bc9ea	-0.041940607
20	0xbdaa0db8	-0.08303398
21	0x3e94c1b3	0.2905403
22	0x3ec46c62	0.3836394
23	0x3d4b01cd	0.049562264
24	0x3d28b2d1	0.041186158
25	0xbda80d46	-0.08205657
26	0x3d8d0d73	0.06887331
27	0x3d4f612b	0.050629776
28	0x3c04e76a	0.008111814
29	0xbbb94e94	-0.005655119

conv2.weight f4 [16, 30, 3, 3]
0	0x3d442980	0.04789114
1	0x3c2a32f4	0.010388125
2	0x3dd36c2f	0.10323369
3	0xbdb1b81c	-0.08677694
4	0xbd332d9b	-0.043744665
5	0x3d287192	0.041123934
6	0x3d33af09	0.0438681
7	0xbd274e05	-0.04084589
8	0x3d33c0d2	0.04388506
9	0xbd36939e	-0.044574372
10	0xbd635b65	-0.055507082
11	0x3d0fabbd	0.03507589
12	0x3b04dbad	0.0020272539
13	0xbd8a3679	-0.06748671
14	0xbc73d23c	-0.014881667
15	0x3d9991cb	0.07498511
16	0x3c46e2af	0.0121390065
17	0xbcd000ba	-0.025390971
18	0xbd67f263	-0.056627642
19	0xbd9797af	-0.07401978
20	0x3cf10e8d	0.029425884
21	0xbcc9c06e	-0.02462789
22	0xbd64c506	-0.05585196
23	0xb8c2cc00	-9.288639e-05
24	0x3bb49a73	0.005511576
25	0xbb23e67f	-0.0025009213
26	0x3a25072f	0.0006295321
27	0xbd8ef40a	-0.069801405
28	0x3b6ef31a	0.0036460818
29	0xbcc4da4f	-0.024029879
30	0x3c04fd4d	0.008117032
31	0xbd37ed7b	-0.044904213
32	0x3d2a78ac	0.041618988
33	0xbd3324dc	-0.043736324
34	0xbcaeb9aa	-0.021328766
35	0xbd0b2f24	-0.033980504
36	0xbdd094ba	-0.10184617
37	0xbc378148	-0.011200257
38	0xbb473800	-0.0030398369
39	0xbd9ca5d5	-0.076488174
40	0x3c6733ec	0.0141115
41	0x3db71e22	0.08941294
42	0xbd238223	-0.03991903
43	0x3d973d19	0.073847
44	0x3db18b35	0.0866913
45	0x3d0ae20a	0.033906974
46	0xbaebf8b3	-0.0018003195
47	0x3deaba90	0.11461365
48	0xbde55565	-0.11197928
49	0x3c897ea9	0.01678403
50	0xbd1f29a4	-0.03885807
51	0x3c97638a	0.018480081
52	0xbcec53e4	-0.028848596
53	0x3c9fdf88	0.019515768
54	0x3a2374c7	0.0006235358
55	0x3c54f959	0.012998902
56	0xbdc6eaa1	-0.09712721
57	0xbdecf406	-0.11569981
58	0xbca369d0	-0.019947916
59	0xbdb51a74	-0.08842936
60	0xbde1503d	-0.11001632
61	0xbe0cc8fe	-0.13748547
62	0x3d206dab	0.039167088
63	0x3c1fbfd3	0.009750324
64	0x3b7dc96d	0.0038724795
65	0xbdaed860	-0.08537364
66	0x3d059209	0.032609973
67	0xbde20049	-0.11035211
68	0xbd746bae	-0.059673004
69	0xbd0ff8fc	-0.03514956
70	0x3c6f5793	0.014608282
71	0xbd05e4e3	-0.032688987
72	0x3e033d80	0.12816429
73	0x3e0401d0	0.12891316
74	0x3ced744e	0.028986122
75	0x3e16af78	0.14715374
76	0xbab5abe7	-0.0013860435
77	0x3ceebff0	0.029144257
78	0x3cf451b6	0.029824119
79	0x3afbd138	0.0019212132
80	0xbc1302c1	-0.008972825
81	0x3e16a035	0.14709552
82	0x3db36baf	0.087607734
83	0x3d2558c3	0.040367853
84	0xbc9eb939	-0.01937543
85	0x3c93ed29	0.018057423
86	0x3dba21dd	0.0908849
87	0xbc43472c	-0.011918824
88	0x3d84f2cb	0.064916216
89	0x3dd5413a	0.104128316
90	0x3bbece7c	0.0058229547
91	0xb9a75bf4	-0.00031921233
92	0x3dd0f283	0.102025054
93	0x3d00c2fa	0.031435944
94	0x3c4d277d	0.012521622
95	0xbd0134dd	-0.031544555
96	0xbd84d938	-0.06486744
97	0x3d75ae4f	0.059980687
98	0x3c9fdc34	0.01951418
99	0xbd5caf0b	-0.05387787
100	0x3bce1fe5	0.006290423
101	0x3cb00abe	0.021489497
102	0x3d338657	0.04382929
103	0x3daf9969	0.085741825
104	0x3ae2a51e	0.001729164
105	0xbb3359b8	-0.002736671
106	0x3d81f91e	0.063463435
107	0xbc8996e0	-0.016795576
108	0x399bfe00	0.0002975315
109	0xbda6b7e8	-0.08140546
110	0xbd521996	-0.051293932
111	0xbd99701f	-0.074920885
112	0x3c257389	0.0100983465
113	0xbd8a4d71	-0.06753052
114	0x3d800c94	0.06252399
115	0xbd0e1139	-0.034684394
116	0xbd3ef31a	-0.04661856
117	0x3d9608e8	0.073259175
118	0x3aa1ca35	0.0012343588
119	0xbc40fa93	-0.011778492
120	0x3df59643	0.11991551
121	0x3d84434e	0.0645815
122	0x3d087d29	0.033322487
123	0x3d8daae6	0.06917362
124	0xbc190bc7	-0.009341187
125	0x3c7c3130	0.015392587
126	0x3e3ddb0e	0.18540594
127	0x3c7a190b	0.01526476
128	0x3d0bcd7b	0.03413151
129	0x3e0b687e	0.1361408
130	0x3c8239a9	0.015896635
131	0x3d70e790	0.058814585
132	0x3c5c5a50	0.013449267
133	0xbb020cf9	-0.0019844158
134	0x3c467ef4	0.012115229
135	0xbd27634b	-0.040866178
136	0xbcc76213	-0.024338758
137	0x3cdc8aa9	0.026921587
138	0xbbacc1f0	-0.0052721426
139	0xbd3d164e	-0.04616385
140	0xbcb80f1e	-0.022468146
141	0xbdaeb8cd	-0.08531342
142	0x3dc6a810	0.09700024
143	0x3d432580	0.047643185
144	0xbc565ab0	-0.013083145
145	0xbe09f751	-0.1347325
146	0xbd882fce	-0.06649743
147	0xbde16d04	-0.11007121
148	0xbd69acb8	-0.057049483
149	0x3d2797cb	0.040916245
150	0x3c61c622	0.013780149
151	0xbdb05040	-0.086090565
152	0xbda5b0cc	-0.08090362
153	0xbdc52808	-0.09626776
154	0xbd86924c	-0.06570873
155	0x3c0f9147	0.008762664
156	0xbd9ac011	-0.07556165
157	0x3cb7fa1a	0.022458125
158	0xbd61da50	-0.05513984
159	0x3d77a8d2	0.060463734
160	0xbd3b806f	-0.04577678
161	0xbcd0f105	-0.025505552
162	0x3e30a351	0.172498
163	0x3df0c5cc	0.11756477
164	0x3d378645	0.044805784
165	0x3e0b95b5	0.13631327
166	0xbd882742	-0.06648113
167	0x3b175759	0.0023092835
168	0xbbeb948f	-0.0071893404
169	0x3d711de2	0.05886639
170	0x3cb5a26d	0.022172177
171	0xbdb3cf9f	-0.08779835
172	0x3d7daffb	0.061935406
173	0x3db78dff	0.089626305
174	0xbd3cb6ad	-0.04607265
175	0x3dca3917	0.0987417
176	0x3dae7d3b	0.085199796
177	0xbda212b3	-0.07913723
178	0x3dafadc8	0.08578068
179	0x3ddf15d5	0.10892836
180	0x3c8d979b	0.017284205
181	0x3dafa221	0.085758455
182	0xbd3f96ee	-0.046774797
183	0x3ddf0df0	0.1089133
184	0x3dd87404	0.10569003
185	0x3b3a0f1b	0.0028390351
186	0x3dd0bb6c	0.10191998
187	0x3c42ade5	0.01188228
188	0x3d2ed10c	0.04267983
189	0x3b856d33	0.0040718555
190	0xbdd2b1f8	-0.10287851
191	0xbdf1ccde	-0.118066534
192	0xbd453d2a	-0.048154034
193	0x3c47eac2	0.012201967
194	0xbd3490ea	-0.044083513
195	0xbd62e412	-0.055393286
196	0x3c8d5b7f	0.017255543
197	0x3d3bc472	0.04584164
198	0xbbc2b3ad	-0.005941829
199	0xbab16c90	-0.0013536382
200	0xbbdccd94	-0.006738374
201	0xbc97d6fe	-0.018535133
202	0xbdbce8c8	-0.09224087
203	0xbdd3ff41	-0.1035142
204	0xbdf08bad	-0.11745391
205	0xbdce306e	-0.10067831
206	0x3d60a832	0.054847904
207	0xbca03188	-0.019554868
208	0xbd935164	-0.071932584
209	0x3c223a5f	0.009901612
210	0xbc524ce2	-0.012835713
211	0xbd722397	-0.059115972
212	0xbda9710c	-0.08273515
213	0x3c1527ae	0.009103699
214	0xbbd445c6	-0.006478044
215	0xbd03379c	-0.032035455
216	0xbddfcac1	-0.10927344
217	0xbd07602d	-0.033050705
218	0x3df19e0c	0.11797723
219	0xbde7532b	-0.1129516
220	0xbcd2941a	-0.025705386
221	0x3cdb5eda	0.026778627
222	0x3d9f8072	0.07788171
223	0x3d129e78	0.03579566
224	0x3df444c7	0.11927181
225	0x3cc7dd57	0.024397535
226	0x3c77b6f8	0.015119307
227	0x3df3d39f	0.11905598
228	0xbc3cdc0d	-0.011527074
229	0x3d9851fe	0.07437514
230	0x3e0291e7	0.1275097
231	0x3d333f00	0.043761253
232	0x3d988f5d	0.074492194
233	0xbca483ca	-0.020082373
234	0x3d1ec479	0.03876159
235	0xbd9dab64	-0.07698706
236	0x3cd11cac	0.025526367
237	0xbc945b9b	-0.018110087
238	0xbcecfca2	-0.028929058
239	0x3b805324	0.003916161
240	0xbe1432be	-0.14472482
241	0x3d257ded	0.040403295
242	0xbcb7d08a	-0.022438306
243	0x3daad1d2	0.08340801
244	0xbc03bce1	-0.008040638
245	0xbd808b40	-0.0627656
246	0x3d51ce4a	0.051222123
247	0xbcb3486b	-0.021885118
248	0xbdae8e40	-0.08523226
249	0xbafb393e	-0.001916684
250	0xbdec3558	-0.11533612
251	0xbd9274de	-0.07151197
252	0xbda7c26f	-0.08191382
253	0xbc531a48	-0.012884684
254	0xbd99410e	-0.07483111
255	0xbc59fcc1	-0.01330489

conv2.bias f4 [16]
0	0xbd3d7fc8	-0.04626444
1	0xbc976b4c	-0.01848378
2	0x3b8b542c	0.0042519774
3	0xbd631b11	-0.055445734
4	0x3bb1b692	0.0054233754
5	0x3dfc16f7	0.12309068
6	0xbd4bfaca	-0.049799718
7	0xbce1d5a1	-0.027567687
8	0xbd6573a7	-0.056018498
9	0xbd2a37fc	-0.041557297
10	0xbd9e6a2a	-0.07735093
11	0xbbe3616e	-0.0069391048
12	0xbdf88d11	-0.12136281
13	0xbde07ab3	-0.10960903
14	0xbda8bf9d	-0.08239672
15	0xbdfe24c6	-0.12409358

conv3.weight f4 [16, 16, 3, 3]
0	0x3e6a2b0b	0.22867982
1	0x3dafc2f3	0.085821055
2	0xbd5933ab	-0.05302779
3	0x3e3b2acd	0.18278046
4	0x3dce1b7f	0.10063838
5	0x3c46c2e6	0.012131428
6	0xbaa1e649	-0.0012351956
7	0x3e0e42ae	0.13892624
8	0x3d4a061c	0.049322233
9	0xbd647113	-0.0557719
10	0x3d518a70	0.051157415
11	0x3db5f5c5	0.088847674
12	0xbd833355	-0.06406275
13	0x3cd63b75	0.026151398
14	0xbd6fb606	-0.0585232
15	0x3db3c119	0.08777065
16	0x3d984e2b	0.07436784
17	0x3d4ddf96	0.050262056
18	0xbd711167	-0.058854487
19	0x3d3497c4	0.044090047
20	0xbda44046	-0.08020072
21	0x3d455506	0.048176788
22	0x3cee82b3	0.029115057
23	0xbdf04d01	-0.11733437
24	0xbdb63912	-0.08897604
25	0xbcb2f5a3	-0.021845644
26	0xbdd469fc	-0.103717774
27	0xbc358010	-0.011077896
28	0x3d99c49f	0.075082056
29	0x3de79b24	0.113088876
30	0xbb716ad8	-0.0036837365
31	0xbc99a235	-0.018754104
32	0xbd8bf1ff	-0.068332665
33	0x3cdb2425	0.026750633
34	0x3c999814	0.018749274
35	0x3d78d890	0.060753405
36	0xbe177b71	-0.14793183
37	0x3b29fe77	0.0025939026
38	0xbc071641	-0.008245052
39	0xbde7b296	-0.113133594
40	0x3d546ba8	0.05186048
41	0xbd4fd1a4	-0.05073704
42	0xbdd96be5	-0.106162824
43	0x3d9efcf0	0.07763088
44	0xbd294407	-0.04132464
45	0x3dc7e936	0.09761278
46	0xbd7bfce9	-0.06152049
47	0xbe2c40ff	-0.16821669
48	0x3c252882	0.010080459
49	0xbdb0caa5	-0.086324014
50	0xbd4dc694	-0.050238207
51	0x3d979642	0.07401706
52	0xbdd4555e	-0.10367845
53	0xbe0e019d	-0.13867803
54	0xbd151fc4	-0.036407247
55	0x3d023423	0.031788003
56	0x3e453cca	0.1926147
57	0x3d56989a	0.052391626
58	0xbd3f1eb2	-0.046660133
59	0x3e129797	0.1431564
60	0x3ca10920	0.019657671
61	0xbd9c3e70	-0.076290965
62	0x3e02b36a	0.12763754
63	0x3dbf105e	0.09329294
64	0xbd08b104	-0.03337194
65	0x3dac9ba2	0.08428122
66	0x3dbe85d4	0.093028694
67	0x3c9e0dc2	0.01929367
68	0xbb7da902	-0.0038705473
69	0x3dab6ee1	0.08370758
70	0x3d8d9b27	0.069143586
71	0x3dc39c85	0.09551338
72	0x3b72a931	0.0037027115
73	0x3e1066f0	0.14101768
74	0x3e16ff8c	0.14745921
75	0xbc84c933	-0.01620922
76	0x3db71bb1	0.089408286
77	0xbcfed7a8	-0.031108692
78	0xbd098c1c	-0.033580884
79	0x3e260df4	0.1621626
80	0xbdb2a78e	-0.08723365
81	0xbd7105b5	-0.058843333
82	0x3de72b17	0.112875156
83	0x3d94030c	0.07227144
84	0x3d30f35a	0.043200828
85	0x3db5f6aa	0.08884938
86	0x3c081917	0.008306763
87	0xbcce10ad	-0.025154436
88	0xbc3910a8	-0.011295475
89	0x3caeb285	0.02132536
90	0xbdcb2b89	-0.09920413
91	0xbdcfa56f	-0.10138976
92	0xbd3b13aa	-0.04567305
93	0x3c6693c6	0.014073318
94	0x3d85ff4c	0.06542835
95	0xbd66d9c8	-0.056360036
96	0xbdb0d9a3	-0.08635261
97	0xbdc96a07	-0.09834676
98	0xbbe667f1	-0.0070314337
99	0xbd76bc88	-0.06023839
100	0xbcc41384	-0.023935087
101	0xbd9ce71b	-0.07661267
102	0x3d57cbf4	0.05268474
103	0xbd16495c	-0.036691055
104	0xbda74f88	-0.08169466
105	0x3d2c6765	0.042090792
106	0xbb2a7001	-0.00260067
107	0x3d6f0b7b	0.058360558
108	0x3d03df43	0.03219534
109	0x3defb978	0.11705297
110	0x3d9d7090	0.07687485
111	0xbd03b499	-0.032154653
112	0x3e213464	0.15742642
113	0x3d63fb4c	0.055659577
114	0x3b26c49b	0.0025446776
115	0x3db09f31	0.08624113
116	0x3e04fabc	0.12986273
117	0x3e31dff1	0.17370583
118	0x3e653658	0.22384012
119	0x3c4070d9	0.011745655
120	0x3d89af9e	0.067229494
121	0x3e11ff3b	0.14257519
122	0x3cc5cc65	0.024145314
123	0x3d66c6b7	0.056341853
124	0x3e403549	0.18770327
125	0xbd00918f	-0.031388815
126	0xbd263c78	-0.04058501
127	0x3d19aa76	0.03751608
128	0xbcb38bb6	-0.021917205
129	0xbd62486c	-0.055244848
130	0xbd9736cf	-0.07383501
131	0x3d939d89	0.07207782
132	0xbd2be27e	-0.041964047
133	0x39f477ed	0.00046628658
134	0x3d8a0967	0.067400746
135	0xbda65ec5	-0.081235446
136	0x3c8b10de	0.016975816
137	0xbd55b446	-0.052173875
138	0xbd974e4b	-0.0738798
139	0x3c869d97	0.016432567
140	0x3c8cc994	0.017185964
141	0x3d50231d	0.050814737
142	0x3dca201b	0.09869405
143	0x3c93ebc4	0.018056758
144	0xbaf6f694	-0.0018841797
145	0xbd613a2c	-0.054987118
146	0xbcf781dc	-0.030213289
147	0xbdc47642	-0.095928684
148	0xbdc30f0c	-0.09524354
149	0xbda51804	-0.08061221
150	0x3d978996	0.07399289
151	0x3d3e646c	0.04648249
152	0x3dc8baa7	0.09801226
153	0x3d976a93	0.07393374
154	0x3d98d27d	0.074620225
155	0x3cb1bdcc	0.021696948
156	0x3d5d464a	0.05402211
157	0x3d22a50d	0.039708186
158	0xbdab893e	-0.08375786
159	0xbdaa62a8	-0.083195984
160	0x3db153c1	0.08658553
161	0x3d885f59	0.06658811
162	0xbcdd43e6	-0.027009916
163	0xbd759180	-0.059953213
164	0xbd9639df	-0.07335257
165	0xbda58789	-0.08082492
166	0xbd094c03	-0.033519756
167	0x3c1d31ba	0.009594375
168	0x3b6cbbf6	0.0036122776
169	0x3d20ebe5	0.039287467
170	0x3c63f67d	0.013913748
171	0x3ce51298	0.027962968
172	0x3da1f05b	0.07907172
173	0x3cc3f823	0.023922032
174	0xbbd689e6	-0.0065472005
175	0x3d55988d	0.052147437
176	0x3d185e33	0.03719921
177	0x3d3ac989	0.045602355
178	0xbce62ec7	-0.028098477
179	0xbdd673fd	-0.10471342
180	0xbd130b8f	-0.035899695
181	0x3db053f5	0.086097635
182	0xbd112777	-0.035438027
183	0xbd52cc2c	-0.051464245
184	0xbd37be0b	-0.044858973
185	0x3d85b4ab	0.065286
186	0x3dca206b	0.098694645
187	0xbdcd2a8a	-0.10017879
188	0xbd132934	-0.035927966
189	0x3dae95b0	0.085246444
190	0x3ccd3b3c	0.02505266
191	0x3d8bd2d3	0.06827321
192	0xbda8b21e	-0.08237098
193	0x3d862f00	0.06551933
194	0xbd519760	-0.051169753
195	0xbd85239c	-0.065009326
196	0xbd21232d	-0.039340187
197	0xbd9aaa83	-0.07552054
198	0x3d068d42	0.032849558
199	0x3d9172c4	0.07101968
200	0xbd8c2d86	-0.068446204
201	0x3d1f0c59	0.038830135
202	0xbda0239e	-0.078192934
203	0x3d6dbe21	0.05804265
204	0xbc06ab5f	-0.008219569
205	0x3bf68ec7	0.0075243446
206	0xbdaa6031	-0.08319128
207	0x3d1dfede	0.03857314
208	0x3d2624da	0.04056249
209	0xbd191ff1	-0.037383977
210	0xbd3a949c	-0.04555188
211	0x3daa460f	0.08314144
212	0x3d99bebf	0.07507085
213	0xbd5c5273	-0.053789567
214	0x3d1ae62a	0.037817158
215	0xbd37a92c	-0.04483907
216	0xbdcb6ca9	-0.09932835
217	0xbb9863fe	-0.004650592
218	0xbdb9a2dc	-0.09064266
219	0xbd4c5a03	-0.04989053
220	0xbc00e9ec	-0.007868271
221	0xbd8af55e	-0.06785081
222	0x3d7b1c72	0.061306424
223	0xbcfad5ef	-0.03061959
224	0xbda7db88	-0.08196169
225	0x3c9bdaa1	0.019025149
226	0x3cd85d44	0.02641166
227	0xbce88c3e	-0.028387185
228	0xbda292b8	-0.07938141
229	0x3d4402ac	0.04785411
230	0xbd12ad35	-0.035809714
231	0xbd3087d8	-0.0430983
232	0x3db17695	0.08665196
233	0xbd72c30e	-0.05926805
234	0x3d760307	0.06006148
235	0x3a94c745	0.0011350891
236	0xbcbb84e8	-0.022890523
237	0xbd870631	-0.06592978
238	0x3dd129be	0.1021304
239	0x3c28a01d	0.01029208
240	0x3c763431	0.015027092
241	0xbdac3b88	-0.08409792
242	0x3d9933d1	0.07480586
243	0xba8ebe27	-0.001089041
244	0x3d40d19e	0.047074907
245	0x3d920f45	0.07131819
246	0x3cceaa18	0.025227591
247	0x3d7ed1da	0.06221185
248	0xbd49ef03	-0.049300205
249	0x3d35811a	0.044312574
250	0x3d31d7fa	0.043418862
251	0x3d59f645	0.053213377
252	0xbd0e4f40	-0.034743547
253	0x3d7723a2	0.060336716
254	0x3dbfc40a	0.09363563
255	0xbd52daa4	-0.051478043

conv3.bias f4 [16]
0	0xbda6535f	-0.081213705
1	0x39d1613a	0.00039936026
2	0x3c055750	0.008138493
3	0xbdb39e79	-0.08770461
4	0xbdaa534d	-0.083166696
5	0x3bd1fb58	0.0064081363
6	0xbd104ec8	-0.03523138
7	0x3dbe8f85	0.09304718
8	0x3df554c1	0.11979056
9	0x3d65b3f8	0.056079835
10	0x3d802dc7	0.06258731
11	0x3ca8d058	0.020607159
12	0xbcf9043a	-0.030397523
13	0xbd927aed	-0.071523525
14	0xbde33f08	-0.11096007
15	0xbcac25f6	-0.021014195

conv4.weight f4 [16, 16, 3, 3]
0	0x3c4e7d24	0.012603078
1	0xbdbc5a4c	-0.0919691
2	0x3d7b344d	0.061329175
3	0x3d348cf0	0.04407972
4	0x3cb27213	0.02178291
5	0xbcb365f5	-0.021899203
6	0x3dc368ac	0.09541449
7	0xbdb35045	-0.087555446
8	0x3d6316a0	0.0554415
9	0x3dbd143b	0.09232374
10	0x3d17817e	0.036988728
11	0x3db17f29	0.08666832
12	0xbd84526c	-0.06461033
13	0x3dc1d0ec	0.09463677
14	0x3d9f3959	0.0777461
15	0xbd35bf84	-0.044372097
16	0x3db8c3b1	0.090217
17	0xbd439d9f	-0.04775774
18	0xbdb748d6	-0.08949439
19	0x3dcaf283	0.09909537
20	0x3d069c27	0.032863762
21	0x3d702dee	0.058637552
22	0x3cd2aa9b	0.025716117
23	0x3c7bb396	0.015362641
24	0x3d0dc890	0.0346151
25	0x3d1f20dd	0.0388497
26	0xbd9009e2	-0.07033135
27	0x3d8cab2e	0.068685874
28	0x3beab17e	0.007162272
29	0x3d3bf5bc	0.045888647
30	0xbdbcc3c9	-0.092170306
31	0xbd85baf4	-0.06529799
32	0xbd41a203	-0.047273647
33	0xbdb1f42c	-0.0868915
34	0x3da77605	0.08176807
35	0x3c81b1e5	0.015831897
36	0xbd9e5fa7	-0.07733088
37	0xbd863c18	-0.06554431
38	0xbcbea0cf	-0.023270039
39	0x3db6293d	0.08894584
40	0xbd3293b0	-0.043597877
41	0x3dc4336a	0.09580119
42	0x3d6bef1e	0.057601087
43	0xbd9c3707	-0.07627683
44	0xbdc19ceb	-0.09453758
45	0x3cf49964	0.029858299
46	0x3d93bd8d	0.07213888
47	0xbca97355	-0.020684877
48	0xbdbdb8f9	-0.09263796
49	0x3d21fd23	0.03954805
50	0xbd0e21f1	-0.034700338
51	0xbd4cde70	-0.05001682
52	0x3c138208	0.00900317
53	0x3da1ff4d	0.07910023
54	0xbdc293e5	-0.09500865
55	0x3cc80263	0.0244152
56	0xbba603f3	-0.0050663888
57	0xbd94985b	-0.07255622
58	0x3db5c12b	0.088747345
59	0xbc84e105	-0.016220579
60	0x3dce61ad	0.10077224
61	0xbd9a0601	-0.075206764
62	0x3bc96fd7	0.0061473656
63	0xbce66438	-0.02812396
64	0x3cb4a26c	0.022050105
65	0xbdd0c800	-0.10194397
66	0x3cfffa0a	0.031247158
67	0xbd666757	-0.056250896
68	0x3d71f91e	0.059075467
69	0xbd39e791	-0.045386855
70	0xba6fcf6e	-0.0009148036
71	0xbda74de5	-0.08169154
72	0xbd8d4f55	-0.06899897
73	0x3d4977d3	0.04918654
74	0x3dc08635	0.09400598
75	0x3db20ae4	0.086934835
76	0xbdb3b1c2	-0.08774139
77	0xbd0f6956	-0.035012566
78	0x3d92657d	0.071482636
79	0x3d258f63	0.040419947
80	0x3d6fbe7d	0.058531273
81	0x3dc292f2	0.09500684
82	0xbcf47c42	-0.029844407
83	0xbd11fb9c	-0.035640344
84	0x3c065b4a	0.008200476
85	0xbdc4e33f	-0.09613656
86	0xbcb92e6c	-0.022605143
87	0x3dcc4a25	0.099750794
88	0xbc13b513	-0.009015339
89	0xbd1e4893	-0.03864343
90	0xbd2b423b	-0.04181121
91	0xbcb10183	-0.021607166
92	0xba591bec	-0.0008282054
93	0xbdbf16ca	-0.093305185
94	0x3da45bb0	0.080253005
95	0xbdd23fed	-0.10266099
96	0xbd562938	-0.052285403
97	0xbdb198c7	-0.08671718
98	0xbd7f83e3	-0.062381636
99	0x3d004e81	0.031324867
100	0xbd8641f8	-0.06555551
101	0xbd266262	-0.04062117
102	0xbd978bdd	-0.07399724
103	0xbb917cda	-0.0044399323
104	0x3dc3b62e	0.095562324
105	0x3d36ae8d	0.04460006
106	0x3d83eb20	0.06441331
107	0xbdaa64cc	-0.08320007
108	0xbd13b158	-0.0360578
109	0x3d41f973	0.047357034
110	0xbc158c4b	-0.009127687
111	0x3da7774b	0.0817705
112	0xbd988336	-0.074469015
113	0xbdcd8543	-0.10035183
114	0xbda79638	-0.08182949
115	0xbd5a1625	-0.053243775
116	0x3d97284b	0.07380732
117	0xbd165ea5	-0.036711354
118	0xbd534ce3	-0.051586997
119	0xbb53f0c6	-0.0032339557
120	0x3d6f6e1b	0.058454614
121	0xbdd697c6	-0.10478167
122	0xbcc12d3f	-0.023581145
123	0xbd209a50	-0.039209664
124	0xbd8b6455	-0.06806246
125	0xbd0222c2	-0.03177143
126	0xbc253133	-0.010082531
127	0xbdc02ba5	-0.093833245
128	0x3daa65fa	0.08320232
129	0x3d091c8a	0.033474483
130	0x3b6a3582	0.003573746
131	0xb983fd87	-0.0002517516
132	0x3c8af585	0.016962776
133	0x3dc6af21	0.09701372
134	0x3ca39976	0.019970637
135	0x3b68f6ab	0.0035547416
136	0xbb26bddf	-0.0025442762
137	0xbd92ed5b	-0.07174178
138	0xbdd4f72b	-0.10398706
139	0xbca45cf6	-0.020063858
140	0xbdc3af3d	-0.095549084
141	0x3d321d73	0.043485116
142	0xbd71b9c6	-0.059015058
143	0x3c596314	0.013268251
144	0x3d3afe15	0.045652468
145	0xbd014349	-0.03155831
146	0x3c125eec	0.008933764
147	0xbdb1267e	-0.0864992
148	0x3c041f1c	0.008064058
149	0x3debea83	0.11519339
150	0x3d14dc0b	0.03634266
151	0x3dc752dc	0.09732601
152	0xbcf60692	-0.03003243
153	0xbdbf8693	-0.0935184
154	0xbd4458cb	-0.047936242
155	0xbd325838	-0.043541163
156	0x3d81c7a4	0.063369066
157	0xbd5e7917	-0.0543147
158	0x3d8b8429	0.06812317
159	0xbda52a42	-0.08064701
160	0x3cf5c320	0.03000027
161	0x3c6aac93	0.014323371
162	0x3da96220	0.08270669
163	0x3da73b6f	0.08165633
164	0xbda94f0e	-0.082670316
165	0x3dd66e33	0.104702376
166	0x3d1647a9	0.036689434
167	0x3dceacd4	0.10091558
168	0x3d58b3ee	0.05290597
169	0xbda9de30	-0.08294332
170	0x3cc492ca	0.023995776
171	0x3c701d0f	0.014655366
172	0x3db0f198	0.0863983
173	0xb9ca81c3	-0.00038625122
174	0x3b70b0cd	0.0036726475
175	0xbd5fd749	-0.05464867
176	0x3c9f25cf	0.019427208
177	0xbd7b2e14	-0.06132324
178	0x3d5f7bf8	0.054561585
179	0xbd5abddf	-0.05340373
180	0x38deb29d	0.00010619054
181	0x3ca69ec5	0.02033938
182	0x3bdcba0e	0.0067360466
183	0x3dc8d80c	0.09806833
184	0xbdb1249e	-0.08649562
185	0x3da11d7f	0.07866954
186	0xbdeb900f	-0.11502086
187	0xbd2f0356	-0.04272779
188	0xbd3dbd67	-0.046323206
189	0xbd62a9fb	-0.055337887
190	0x3d0065c9	0.03134707
191	0xbd39cfe7	-0.045364287
192	0xbcfdaa60	-0.03096503
193	0x3da7bf36	0.081907675
194	0x3cf565e6	0.029955816
195	0x3d05cb92	0.032664843
196	0xbcf66f34	-0.030082323
197	0x3cec1912	0.028820548
198	0xbcf53203	-0.029931074
199	0x3d191af1	0.03737921
200	0xbdcd4250	-0.10022414
201	0xbd9bd51f	-0.07609009
202	0x3d935f92	0.07195963
203	0x3d520da6	0.051282547
204	0x3daca65f	0.0843017
205	0xbd0496ce	-0.03237038
206	0xbcafa878	-0.021442637
207	0xbd879918	-0.06620997
208	0xbd786a39	-0.060648177
209	0x3ae105ab	0.0017167827
210	0xbcb09727	-0.02155645
211	0x3d7fec54	0.06248124
212	0x3db30f86	0.08743195
213	0x3daa2d81	0.083094604
214	0xbd08a315	-0.033358652
215	0x3bcb50cf	0.0062047015
216	0xbd00dd03	-0.031460773
217	0x3cc6e475	0.024278859
218	0xbdc86419	-0.09784717
219	0xbc6a7c76	-0.0143119
220	0xbbd23c49	-0.006415878
221	0x3cd7028c	0.026246332
222	0x3d7a1478	0.061054677
223	0xbbad7abe	-0.005294173
224	0xbd4036ff	-0.04692745
225	0x3dbfdd16	0.09368341
226	0xbcbc0dd8	-0.02295582
227	0xbc96b2c1	-0.018395783
228	0xbd7be278	-0.061495274
229	0x3d52155b	0.051289897
230	0x3d7d9063	0.061905276
231	0x3d68a29e	0.05679571
232	0x3c8aefba	0.016960014
233	0xbd8eb890	-0.06968796
234	0x3de15efb	0.11004444
235	0x3daa18a3	0.0830548
236	0x3da62bc4	0.081138164
237	0x3d5cbec2	0.05389286
238	0x3cce508f	0.025184898
239	0x3d8ddf69	0.06927378
240	0xbcb19950	-0.02167955
241	0xbdc46faa	-0.09591611
242	0x3c1d3afe	0.009596584
243	0xbd961d71	-0.07329834
244	0x3dc8cf89	0.09805209
245	0xbda2884d	-0.079361536
246	0xbd133b2f	-0.035945114
247	0x3d33087c	0.043709263
248	0x3d76abd4	0.06022246
249	0x3ddf0fdd	0.108916976
250	0x3dc851e0	0.097812414
251	0x3ce01144	0.027351983
252	0x3dc46c00	0.09590912
253	0x3d200feb	0.03907768
254	0xbc0cb80c	-0.008588802
255	0x3bec48d9	0.0072108326

conv4.bias f4 [16]
0	0xbd18ec37	-0.037334647
1	0x3da0781b	0.07835408
2	0x3d86014f	0.06543218
3	0xbd8d23c3	-0.06891587
4	0xbd002dee	-0.031293802
5	0xbdb758eb	-0.08952507
6	0xbd2ef45b	-0.042713504
7	0xbd13087b	-0.03589676
8	0x3c9ddbf5	0.019269923
9	0x3ba75aee	0.005107275
10	0x3dc8195a	0.097704604
11	0xbc9f442f	-0.019441692
12	0xbd8d5859	-0.069016166
13	0xbd2dbf23	-0.04241861
14	0x3dca1dd3	0.0986897
15	0x3c859ffc	0.016311638

conv5.weight f4 [16, 16, 3, 3]
0	0x3da1f395	0.07907788
1	0x3cc0c80b	0.023532888
2	0x3d8856d2	0.06657185
3	0x3d870fda	0.0659482
4	0x3d6abe5e	0.057310455
5	0x3d79f524	0.0610248
6	0xbdbaa10a	-0.09112747
7	0x3cd03c02	0.025419239
8	0xbc9b36b5	-0.018946985
9	0x3d15acdd	0.03654181
10	0xbd229dbe	-0.039701216
11	0x3dea90a2	0.11453368
12	0xbca15219	-0.019692468
13	0x3d72d9a9	0.05928961
14	0x3dca7c58	0.09886998
15	0xbda72c40	-0.08162737
16	0xbd03498f	-0.032052573
17	0xbda57952	-0.08079781
18	0x3dbf468c	0.093396276
19	0xbd812fa9	-0.063079186
20	0x3da38545	0.079844035
21	0xbcc70e26	-0.024298739
22	0xbdcfed30	-0.10152662
23	0xbd6c27b5	-0.057655055
24	0xbc777a58	-0.015104853
25	0x3dbceee7	0.092252545
26	0xbdca7824	-0.09886196
27	0xbd0ab6be	-0.033865683
28	0x3dd1c697	0.10242956
29	0xbca529e3	-0.020161575
30	0xbce68d16	-0.028143447
31	0x3d629938	0.055321902
32	0xbd300f29	-0.042983208
33	0xbd43f34e	-0.047839455
34	0x3ddbca12	0.10731901
35	0xbcb69c69	-0.022291379
36	0xbcc16917	-0.023609681
37	0xbdc1946c	-0.09452137
38	0x3c91f0e7	0.017815067
39	0xbcc3a23c	-0.02388107
40	0x3d67a13d	0.056550253
41	0x3c566dd4	0.0130877085
42	0x3d922acb	0.07137068
43	0x3dab7329	0.083715744
44	0xbda0539c	-0.07828447
45	0x3da1a948	0.07893616
46	0x3e4023cf	0.1876366
47	0x3e473f60	0.1945777
48	0x3e123a76	0.14280114
49	0x3e513bcb	0.20432965
50	0xbcbfde93	-0.023421561
51	0xbbcc003a	-0.006225613
52	0x3d5a2106	0.05325415
53	0x3e055dab	0.13024013
54	0x3db8f9c7	0.09032016
55	0xbdd14f2a	-0.102201775
56	0xbcbf9b3c	-0.023389451
57	0xbd69c0dd	-0.057068694
58	0xbd92c1b8	-0.07165855
59	0xbd931edb	-0.071836196
60	0xbdb8b96c	-0.090197414
61	0x3da27d28	0.07934028
62	0xbb794f28	-0.0038041566
63	0x3dae430b	0.08508881
64	0xbd61d5c5	-0.055135507
65	0x3da2f5c8	0.07957035
66	0x3b9167f9	0.0044374433
67	0x3dc519f0	0.09624088
68	0x3d636b6f	0.05552238
69	0xbbdcf0ce	-0.0067425733
70	0x3d8c3cc6	0.06847529
71	0xbd016b98	-0.03159675
72	0x3c8a636f	0.016893117
73	0x3c5d97b3	0.013524937
74	0x3b098f2e	0.0020989883
75	0xbc268a9f	-0.010164886
76	0x3daf33f5	0.08554832
77	0x3c4d32d9	0.01252433
78	0xbd8dcdce	-0.0692402
79	0x3d72f39b	0.05931435
80	0xbd8d563c	-0.069012135
81	0x3d8f4f8b	0.069975935
82	0x3dc18ff1	0.09451283
83	0xbd256ac3	-0.04038502
84	0x3cabaec2	0.020957354
85	0x3d305652	0.04305107
86	0x3cf2da08	0.029644981
87	0xbdb29d24	-0.087213784
88	0x3dbbd786	0.09171967
89	0xbd83119f	-0.06399845
90	0x3cff2708	0.031146541
91	0xbd194946	-0.037423395
92	0xbdabac5c	-0.08382484
93	0x3cf4e181	0.029892685
94	0xbd2a9cd7	-0.04165348
95	0x3d2f2529	0.042760048
96	0x3c876913	0.016529595
97	0xbd44b6cc	-0.04802589
98	0x3c10084a	0.008791039
99	0x3dbd7c94	0.09252277
100	0x3cd21241	0.02564347
101	0xbdb9b2f6	-0.09067337
102	0xbd933833	-0.071884535
103	0x3d80dad2	0.06291737
104	0xbd9cbf05	-0.076536216
105	0x3cfd3399	0.030908393
106	0x3d208438	0.039188594
107	0x3dac014d	0.083986856
108	0x3e05b4de	0.13057277
109	0x3df1b755	0.11802546
110	0x3e096da9	0.13420738
111	0x3d0b749d	0.034046758
112	0x3d999db8	0.075007856
113	0x3e14c933	0.14529876
114	0xbd6c1097	-0.05763301
115	0xbbb88f97	-0.0056323516
116	0x3d827390	0.06369698
117	0xbc54da5a	-0.012991512
118	0x3e1668a1	0.1468835
119	0x3e0b526e	0.13605663
120	0xbc822525	-0.015886853
121	0x3c28eb3a	0.010309989
122	0xbc9769fe	-0.018483158
123	0x3dba8421	0.09107233
124	0xbc034d2e	-0.008014007
125	0x38aff6ac	8.3905965e-05
126	0xbd8d6323	-0.069036745
127	0x3ce703a6	0.028199982
128	0xbbc486d9	-0.0059975204
129	0x3d0d5bda	0.034511425
130	0xbc43eaf8	-0.011957876
131	0x3d36c18f	0.044618186
132	0xbc44ff45	-0.012023752
133	0x3dbbed85	0.09176163
134	0xbcdf6c29	-0.027273254
135	0x3dac645c	0.084175795
136	0xbbcb565c	-0.006205363
137	0x3bd21806	0.006411555
138	0xbd3c4044	-0.045959726
139	0xbd96657a	-0.07343574
140	0xbd8516af	-0.06498467
141	0xbda49ae9	-0.08037359
142	0x3d7b9aa5	0.061426777
143	0x3d4861e8	0.048921496
144	0xbbdbcd13	-0.0067077964
145	0x3d50b04b	0.050949376
146	0x3d261e77	0.040556397
147	0x3db7b0e0	0.08969283
148	0x3dbe4d38	0.09292072
149	0x3dcdd1c4	0.10049775
150	0xbd31647e	-0.043308727
151	0x3db9fe94	0.0908176
152	0xbdd59191	-0.10428155
153	0x3d1c4df9	0.038160298
154	0xbd81b0b5	-0.06332532
155	0x3d9391f5	0.072055735
156	0x3cc453c1	0.023965718
157	0xbdbd68f3	-0.09248533
158	0x3cb8fae5	0.022580573
159	0xbd849c01	-0.06475068
160	0x3dbbe349	0.091742106
161	0xbd06416b	-0.03277723
162	0xbdb4a55b	-0.088206016
163	0xbd504502	-0.05084706
164	0x3dc05a1e	0.093921885
165	0x3cb4b18a	0.022057313
166	0x3cceba79	0.025235401
167	0x3d9d0a6c	0.076680034
168	0xbd0b2ef2	-0.033980317
169	0x3d8f68f1	0.07002438
170	0x3d40eef8	0.0471029
171	0x3a9153b9	0.0011087573
172	0x3dbb823a	0.09155698
173	0xbbfc7b94	-0.0077051613
174	0xbd825100	-0.06363106
175	0xbdd7902f	-0.10525548
176	0xbd950f1f	-0.07278275
177	0xbd892078	-0.06695646
178	0x3d16d88a	0.0368276
179	0x3d338a6b	0.043833178
180	0xbce0de3f	-0.027449725
181	0x3c129804	0.008947376
182	0x3dbd2534	0.092356116
183	0xbb7e7824	-0.0038828934
184	0x3d72f97d	0.05931996
185	0x3d13e8f8	0.03611085
186	0x3dc9bed3	0.0985085
187	0x3dc5e3ce	0.09662591
188	0xbd97e2f6	-0.07416336
189	0xbd57bbfa	-0.052669503
190	0xbd7282b2	-0.059206672
191	0xbd3ebfc4	-0.0465696
192	0xbdaa7864	-0.08323744
193	0xbdba3c33	-0.09093513
194	0x3d8ab7ab	0.06773313
195	0x3d2b73c5	0.041858453
196	0x3d9e3707	0.077253394
197	0xbca459fd	-0.020062441
198	0x3d51f76e	0.051261358
199	0xbdd37a14	-0.10326019
200	0x3cc49a30	0.023999304
201	0xbc569582	-0.013097169
202	0x3cc81866	0.024425697
203	0xbcc8aaaa	-0.024495441
204	0x3d2a5602	0.04158593
205	0xbce27062	-0.027641479
206	0xbd128bbe	-0.0357778
207	0xbc35ce1f	-0.011096506
208	0xbc8d0587	-0.01721455
209	0xbd8465d1	-0.064647324
210	0x3dcbfdf3	0.09960546
211	0x3d99e8de	0.07515119
212	0x3d8a064a	0.06739481
213	0xbd4587a2	-0.048225053
214	0x3d9692c7	0.07352214
215	0xbd98728a	-0.074437216
216	0x3d9aa5fc	0.0755119
217	0xbc402257	-0.011726937
218	0xbc8c76f7	-0.01714657
219	0xbd65d32e	-0.0561096
220	0x3abd1a9c	0.0014427486
221	0xba51e575	-0.0008006909
222	0xbba52a8f	-0.005040474
223	0x3d76ede2	0.060285456
224	0xbdb57d38	-0.08861774
225	0xbd8bfb7b	-0.068350755
226	0xbd451331	-0.048114005
227	0xbdba8427	-0.09107237
228	0xbd69dae9	-0.057093535
229	0x3d900f84	0.07034209
230	0x3cd82f0c	0.026389621
231	0xbd8b960d	-0.06815729
232	0xbdc2e8f8	-0.095170915
233	0x3d8d35f5	0.06895057
234	0xbdd55909	-0.10417373
235	0x3d84db07	0.06487089
236	0x3d90f364	0.07077673
237	0xbdab0356	-0.08350246
238	0x3cdf1037	0.027229412
239	0xbd1404f3	-0.036137532
240	0xbd0514f4	-0.032490686
241	0x3c813d44	0.015776284
242	0xbdc5cbd8	-0.09658021
243	0xbd9d2ad7	-0.07674187
244	0x3d13e9a0	0.036111474
245	0xbcda2b65	-0.02663202
246	0xbda5fc31	-0.08104742
247	0xbb7043bf	-0.0036661474
248	0x3ace933d	0.0015760433
249	0x3d22fe98	0.03979358
250	0x3d7eccdc	0.062207088
251	0xbdaaddfb	-0.08343121
252	0xbd31784b	-0.04332761
253	0x3dcc3bcb	0.09972342
254	0xbdb245c8	-0.08704716
255	0x3dbe7769	0.093001194

conv5.bias f4 [16]
0	0xbd6a33fc	-0.057178482
1	0xbd1bd0d2	-0.038040943
2	0xbb122dad	-0.0022305057
3	0x3c5d93f0	0.013524041
4	0x3e6591c8	0.22418892
5	0xbd436cb5	-0.047711093
6	0xbbad688e	-0.005292005
7	0xbddd47d3	-0.10804715
8	0x3c252226	0.010078942
9	0xbcea6572	-0.028612826
10	0xbdb0aed6	-0.08627097
11	0xbd8c746a	-0.06858142
12	0xbd2f9b11	-0.042872492
13	0x3d8f6b12	0.07002844
14	0x3dc623a8	0.0967477
15	0xbd0bde06	-0.034147285

conv6.weight f4 [16, 16, 3, 3]
0	0xbe615250	-0.22004056
1	0x3c5df25b	0.013546552
2	0x3e3730a6	0.17889652
3	0xbdb1ffae	-0.08691345
4	0x3be970df	0.007124051
5	0x3e57dcfe	0.21080396
6	0xbdba6547	-0.09101348
7	0xbd609f47	-0.0548394
8	0x3dc10b7f	0.09426021
9	0x3d2a941a	0.041645147
10	0xbd8d29e5	-0.068927564
11	0xbd0e0742	-0.03467489
12	0x3d36b98f	0.044610556
13	0x3d95bc44	0.073112994
14	0x3d40d91f	0.047082063
15	0x3d6688ba	0.056282736
16	0x3cc5a44b	0.024126193
17	0x3d98a6a7	0.074536614
18	0xbbd20702	-0.006409527
19	0x3d355245	0.04426791
20	0xbd9269b6	-0.07149069
21	0x3c2bd1c9	0.010487028
22	0x3d29cb1b	0.041453462
23	0x3dc75c01	0.09734345
24	0xbd2f3b5d	-0.042781223
25	0x3c9250a0	0.01786071
26	0xbdc84eef	-0.097806804
27	0xbe1ba080	-0.15197945
28	0x3ca68fc7	0.02033223
29	0x3e12e0d0	0.14343572
30	0xbe213004	-0.15740973
31	0x3bc8f176	0.0061323
32	0x3e781490	0.24226594
33	0xbd0142a0	-0.03155768
34	0xbd1584ca	-0.03650359
35	0x3da6e122	0.081484094
36	0xbd3891a4	-0.04506077
37	0x3df963af	0.12177216
38	0x3c769d5e	0.015052168
39	0xbcde7c26	-0.027158808
40	0xbd60bd14	-0.05486782
41	0xbdca2962	-0.098711744
42	0xbb9c7483	-0.0047746315
43	0xbbff18ab	-0.007784923
44	0xbd84b434	-0.064796835
45	0xbe372874	-0.17886525
46	0xbdc767a7	-0.09736567
47	0x3e47254a	0.19447818
48	0xbe289ca8	-0.1646601
49	0x3cb6b960	0.02230519
50	0x3e723177	0.23651682
51	0xbcb081c7	-0.021546258
52	0x3bb1139a	0.005403948
53	0x3e40f6aa	0.18844095
54	0xbd3dbe62	-0.04632414
55	0xbdc37af1	-0.095449336
56	0x3e305ded	0.1722333
57	0xbdc6b16c	-0.09701809
58	0x3d9eb9fc	0.077503175
59	0x3e1041e7	0.1408764
60	0xbd182d7b	-0.03715275
61	0xbd13856e	-0.03601592
62	0x3dc28b11	0.09499181
63	0xbec275fc	-0.3798064
64	0x3d9ee46d	0.077584125
65	0x3e9d54f3	0.30728874
66	0xbe222f97	-0.15838467
67	0x3de52fb5	0.1119074
68	0x3ea6c088	0.32568765
69	0xbe6fa1ea	-0.23401609
70	0xbd8e72ca	-0.06955488
71	0x3e621624	0.22078758
72	0xbda266af	-0.079297416
73	0x3da852c6	0.08218913
74	0xbd9cf18c	-0.07663259
75	0xbd3cf901	-0.046135906
76	0xbd0a5a6d	-0.033777643
77	0xbdb663ee	-0.08905779
78	0x3d671a3e	0.05642151
79	0x3db7296c	0.089434475
80	0xbd0b568c	-0.034018084
81	0xbc4a7d5c	-0.01235899
82	0x3d648264	0.055788413
83	0x3d8b1df0	0.067928195
84	0x3d364e81	0.04450846
85	0xbc7ae6e9	-0.015313842
86	0xbd6524bb	-0.055943232
87	0xbc175aa2	-0.009237917
88	0xbd1f4a84	-0.038889423
89	0xbc6c2061	-0.014412017
90	0xbe060990	-0.13089585
91	0xbe3af193	-0.18256216
92	0x3e6aabca	0.22917095
93	0xbe4b92ee	-0.19880268
94	0xbda4759c	-0.08030245
95	0x3ea57202	0.32313544
96	0xbe187b77	-0.14890848
97	0xbdb95090	-0.09048569
98	0x3e096932	0.13419035
99	0xbe47a455	-0.19496281
100	0x3bf850ea	0.007578005
101	0x3e0c01ad	0.13672514
102	0xbde642d3	-0.112432145
103	0xbde5a796	-0.11213605
104	0x3d82bcc7	0.06383663
105	0xbe0368d3	-0.12832956
106	0xbd00ca7d	-0.031443108
107	0x3e4afc27	0.19822751
108	0x3dc9e15a	0.098574355
109	0x3b2cf784	0.0026392648
110	0x3dc79cfa	0.09746738
111	0x3c708970	0.014681205
112	0xbd659e8d	-0.05605941
113	0xbd940f08	-0.072294295
114	0x3ca0cd87	0.019629253
115	0xbd90cceb	-0.07070335
116	0xbcaf4def	-0.021399466
117	0xbd65e984	-0.0561309
118	0x3deb086c	0.11476216
119	0x3c59b06c	0.013286691
120	0x3d85ca57	0.06532734
121	0x3c9f8642	0.019473199
122	0xbd815434	-0.063148886
123	0x3bd75d5f	0.00657241
124	0x3dbc4c48	0.09194237
125	0x3de9624e	0.11395703
126	0xbd3e8e86	-0.04652264
127	0x3bb0e6e6	0.005398619
128	0x3db2f5b5	0.08738271
129	0x3db36aaa	0.08760579
130	0x39954578	0.00028471253
131	0x3dda4985	0.10658554
132	0xbd39f233	-0.045396995
133	0x3de8cad1	0.11366809
134	0xbd9c8668	-0.076428235
135	0xbd758373	-0.059939813
136	0x3d730a3e	0.05933594
137	0x3cc11241	0.023568274
138	0xbc4ea0eb	-0.012611608
139	0xbd9e451c	-0.07728025
140	0xbad8b15e	-0.0016532352
141	0x3c65d93a	0.014028842
142	0xbd60546a	-0.054768004
143	0x3d56a3f3	0.052402448
144	0xbd96e988	-0.07368761
145	0xbc9dbca5	-0.019254992
146	0xbe00d404	-0.12580878
147	0x3bda29d0	0.0066578165
148	0x3d5e5ad0	0.054285824
149	0x3d7bf904	0.061516777
150	0x3dd68cc3	0.10476067
151	0x3cc9e41e	0.024644908
152	0x3d4e7e5f	0.050413486
153	0xbc802fb4	-0.015647747
154	0x3cb98d5f	0.022650419
155	0x3a30ca99	0.00067440566
156	0x3d7e8321	0.062136773
157	0x3db87836	0.090073034
158	0x3dbd990c	0.09257707
159	0x3d289d4d	0.04116564
160	0x3ccf0749	0.025272029
161	0xbd6d35a7	-0.057912495
162	0xbdd8321d	-0.10556433
163	0x3da50644	0.08057836
164	0xbc5d4846	-0.013506001
165	0xbdbe971c	-0.093061656
166	0x3dc0f098	0.094208896
167	0xbcfca8dd	-0.030842239
168	0xbdc7a53e	-0.09748314
169	0x3c12cf1a	0.00896051
170	0xbc3d3b3f	-0.01154977
171	0x3cdbea7e	0.026845213
172	0xbd6d3067	-0.05790749
173	0xbdd0f73e	-0.10203408
174	0x3d55168a	0.052023448
175	0x3da9fd02	0.083002105
176	0x3d896670	0.067089915
177	0xbd96fa45	-0.07371954
178	0x3ce0930e	0.027413871
179	0xbd1c3d36	-0.038144313
180	0x3ca1eb8b	0.019765636
181	0xbc284f18	-0.010272764
182	0x3d1cbdb2	0.038266845
183	0x3d16ccb8	0.03681633
184	0xbd9ec15f	-0.07751726
185	0x3d94d873	0.07267847
186	0x3dc8b663	0.098004125
187	0xbabeb93c	-0.0014551054
188	0xbdb46afb	-0.088094674
189	0xbc178705	-0.0092485
190	0xbc1f5259	-0.009724223
191	0xbd1ab2bf	-0.03776812
192	0xbd4cd35e	-0.050006263
193	0x3d833a2b	0.06407579
194	0x3d41e2c2	0.047335394
195	0x3dbae73d	0.091261365
196	0x3d93f076	0.07223599
197	0x3d62f56c	0.055409834
198	0x3dab0fca	0.08352621
199	0xbd485f3a	-0.04891894
200	0xbd0555b9	-0.032552455
201	0xbd39e129	-0.045380745
202	0xbd3882c4	-0.045046583
203	0x3d88271d	0.06648085
204	0xbd733685	-0.059378166
205	0x3d96abe8	0.07357007
206	0xbdb38c17	-0.087669544
207	0x3d5a0746	0.053229593
208	0x3d434aee	0.04767888
209	0xbe1c3bdd	-0.15257211
210	0x3dff008a	0.12451275
211	0xbd81b0c4	-0.063325435
212	0xbd952d8d	-0.07284079
213	0x3db3db8e	0.08782111
214	0xbd901ffb	-0.0703735
215	0xba8dde37	-0.0010823671
216	0x3da5813d	0.08081291
217	0x3aa6aa90	0.0012715627
218	0xbdb8448a	-0.08997448
219	0x3ca3282d	0.019916618
220	0xbda123f1	-0.078681834
221	0x3d4b5edc	0.04965101
222	0x3d9590de	0.07303022
223	0xbdd0db01	-0.10198022
224	0x3db77c6e	0.0895928
225	0xbd44b65b	-0.04802547
226	0xba35e6d9	-0.0006939001
227	0x3dc99d5d	0.09844468
228	0xbcf7e659	-0.030261206
229	0x3d19d1af	0.037553485
230	0x3d95bc84	0.07311347
231	0xbd5a3416	-0.05327233
232	0x3dd5f854	0.104477555
233	0xbdaba344	-0.0838075
234	0x3d8a87a6	0.06764154
235	0x3d707873	0.05870862
236	0xbe0555b1	-0.1302097
237	0x3d021287	0.03175595
238	0x3d8cde95	0.06878392
239	0x3d9a5f4d	0.075377084
240	0x3cf560ea	0.029953439
241	0x3c359873	0.01108371
242	0xbbc57a1f	-0.006026521
243	0xbda85842	-0.08219959
244	0xbd016384	-0.031589046
245	0xbd77b481	-0.060474876
246	0xbdb8be09	-0.09020621
247	0x3dd01270	0.10159767
248	0xbd1c9f42	-0.038237818
249	0x3d187a42	0.03722597
250	0xbd68656e	-0.056737356
251	0x3d5a30b6	0.05326911
252	0xba1ea684	-0.00060520344
253	0x3d9ae90a	0.0756398
254	0x3d659d8a	0.056058444
255	0xbd5282fc	-0.051394448

conv6.bias f4 [16]
0	0x3e249d66	0.16075668
1	0xbd998fdd	-0.07498143
2	0xbce6e41d	-0.028184945
3	0xbd76e88c	-0.060280368
4	0x3e250dc1	0.16118528
5	0xbcda9b3b	-0.026685348
6	0xbab534e7	-0.001382497
7	0x3d6c6f88	0.057723552
8	0x3be449ec	0.00696682
9	0x3e216d60	0.1576438
10	0xbcfa26c5	-0.030536065
11	0xbd17dabd	-0.03707384
12	0x3e628629	0.2212149
13	0xbd5427f0	-0.0517959
14	0xbe0446a4	-0.12917572
15	0xbc93ba9d	-0.01803332
