data/output/pre_trained_cnn/NC16_WithRot_LR001_b128_withdrop.pt (torch_old, 89379 bytes, 20 tensors)

conv0.weight f4 [3, 3, 5, 5]
0	0x3d8d73cf	0.06906854
1	0x3db7ba3a	0.08971067
2	0x3dd95b5a	0.10613127
3	0x3e6fba09	0.2341081
4	0x3d6bff4f	0.057616528
5	0x3e705dcd	0.23473282
6	0x3e5d5ff8	0.2161864
7	0xbc33ec69	-0.010981658
8	0x3e13d81a	0.14437905
9	0xbd31356d	-0.04326384
10	0x3cbd4997	0.02310638
11	0x3e0655cd	0.13118668
12	0x3dfec8b6	0.12440626
13	0x3e1f996e	0.15585873
14	0x3d4b83df	0.04968631
15	0x3d5ddf38	0.054167956
16	0x3de9ccda	0.114160255
17	0xbe213352	-0.15742233
18	0x3e0c3197	0.13690792
19	0xbda42241	-0.08014346
20	0x3dec7d33	0.11547317
21	0x3d5139b6	0.051080428
22	0xbd734360	-0.059390426
23	0x3db20228	0.086918175
24	0x3e488cdc	0.19584984
25	0xbc5bbd8f	-0.0134118935
26	0xbdfc6839	-0.123245664
27	0xbde3315f	-0.11093401
28	0xbe530470	-0.20607162
29	0xbda87a9b	-0.0822651
30	0xbd96a9bb	-0.07356592
31	0xbdf109cf	-0.11769449
32	0xbe267fc9	-0.16259684
33	0xbc98f197	-0.018669887
34	0xbd5d7f98	-0.05407676
35	0x3dcaaf05	0.098966636
36	0xbbfe0930	-0.00775256
37	0xbe1a1cd8	-0.15050066
38	0xbe2eaef3	-0.17058925
39	0xbd879b0c	-0.0662137
40	0x3d768c53	0.060192417
41	0xbd8b2937	-0.067949705
42	0xbe7f140d	-0.24909993
43	0xbe781b02	-0.24229053
44	0xbe9631ea	-0.29334956
45	0x3d0e6e46	0.034773134
46	0xbe1f4812	-0.15554836
47	0xbe9f056e	-0.3105883
48	0x3c432dff	0.011912822
49	0xbe700782	-0.23440364
50	0x3dad31c8	0.08456761
51	0x3d9b7663	0.0759094
52	0x3c7dcf58	0.015491329
53	0xbdef90a3	-0.11697509
54	0xbe611f0b	-0.21984498
55	0x3e3e2a88	0.18570912
56	0x3da1fbcd	0.07909355
57	0x3dce7030	0.10079992
58	0xbdd67f28	-0.10473472
59	0xbd0871fe	-0.033311836
60	0x3d397b88	0.045283824
61	0xbc1a85c9	-0.009431311
62	0xbddf7518	-0.10911006
63	0xbcd1121f	-0.025521336
64	0x3b78ea66	0.003798151
65	0x3cb4c0ac	0.02206453
66	0xbd4fc5a0	-0.05072558
67	0xbe563472	-0.20918444
68	0x3ca2493c	0.019810311
69	0xbe4bdf7f	-0.19909476
70	0x3e32c105	0.17456444
71	0xbd24fbbf	-0.040279146
72	0xbe14ed08	-0.14543545
73	0xbbbaff61	-0.005706713
74	0xbdef5843	-0.116867565
75	0xbc2c2db4	-0.010508943
76	0xbc8a0284	-0.016846903
77	0xbd8825ef	-0.0664786
78	0x3dbc2eb9	0.09188599
79	0x3d1d4839	0.038398955
80	0x3df49909	0.11943252
81	0xbbd8bb72	-0.006614142
82	0xbc5c4989	-0.0134452665
83	0x3d24d6a7	0.04024377
84	0x3e9cba77	0.3061101
85	0xbe10020f	-0.14063285
86	0xbc6680b7	-0.014068774
87	0x3e07702b	0.13226382
88	0xbd8fe035	-0.07025186
89	0x3e4cbcef	0.19993947
90	0x3dfdf0a9	0.12399418
91	0xbd32dab0	-0.043665588
92	0xbd7ed068	-0.06221047
93	0xbbf6e09b	-0.0075340993
94	0xbd07b69e	-0.03313314
95	0x3d7e00e9	0.062012587
96	0x3da0a160	0.0784328
97	0x3dfd79b1	0.123767264
98	0xbcf18643	-0.029482966
99	0x3d6ed0cc	0.058304593
100	0x3c86f3ca	0.01647367
101	0xbe2ff75c	-0.17184204
102	0xbda7850c	-0.081796736
103	0xbd53aa5f	-0.05167615
104	0x3e2a002b	0.16601627
105	0x3d7c66a0	0.06162131
106	0xbe241ef3	-0.16027431
107	0x3e24f929	0.16110672
108	0x3e162ed6	0.14666304
109	0x3ec6d5bc	0.3883494
110	0x3e157b84	0.14597899
111	0x3d98a031	0.07452429
112	0xbb10cde4	-0.0022095377
113	0x3e028f96	0.12750086
114	0x3ecfed4e	0.40610737
115	0x3dca5d01	0.0988102
116	0xbe32baf0	-0.17454123
117	0x3df6cf4c	0.120512575
118	0x3cd514a6	0.026010823
119	0x3e7f4021	0.24926807
120	0xbdecb7e0	-0.11558509
121	0xbda1626f	-0.07880103
122	0xbe3ed7b6	-0.18636975
123	0xba236c43	-0.0006234089
124	0xbd5f28a7	-0.05448213
125	0x3c3c7f43	0.011504951
126	0xbdc54a4d	-0.096333124
127	0x3de1832d	0.11011348
128	0xbd4b18d9	-0.049584243
129	0x3db4929f	0.08817028
130	0xbe15ff47	-0.14648162
131	0x3d3d3aae	0.04619854
132	0xbd6988ce	-0.057015233
133	0xbda9b9bf	-0.082873814
134	0x3db3e669	0.087841816
135	0x3e8f636e	0.28005546
136	0x3d2feb00	0.042948723
137	0x3eb134e1	0.34610656
138	0x3eb37482	0.35049826
139	0x3e548964	0.20755535
140	0xbd89a1f0	-0.0672034
141	0x3c7be018	0.015373252
142	0xbe0f8a9c	-0.14017719
143	0x3e85e41c	0.26150596
144	0x3d410291	0.04712159
145	0x3d39e204	0.04538156
146	0xbe85dddf	-0.26145837
147	0xbdc8f74d	-0.09812794
148	0x3dbe5798	0.09294051
149	0x3e845cf2	0.25852162
150	0x3e053b16	0.13010821
151	0x3e19d6b9	0.15023316
152	0x3e4fab8c	0.20280284
153	0x3d1ab146	0.037766717
154	0x3df3a48c	0.11896619
155	0x3e65ff37	0.22460638
156	0x3ddae93a	0.10689016
157	0x3e6ad378	0.22932231
158	0x3e582620	0.21108294
159	0x3e729a9c	0.23691791
160	0x3c94c390	0.018159658
161	0x3e3bf392	0.18354633
162	0x3e3172a4	0.17328888
163	0x3de00865	0.10939101
164	0x3dcdce6c	0.100491375
165	0x3bdf1645	0.0068080747
166	0xbd11f710	-0.035636008
167	0x3e326417	0.17420994
168	0x3e7eea3e	0.24894044
169	0x3ddd6e41	0.10812045
170	0xbc3bdc25	-0.011466061
171	0x3e47ed30	0.19524074
172	0x3e3e7002	0.18597415
173	0x3d9715cd	0.07377205
174	0x3d821933	0.063524626
175	0x3d8f6afa	0.07002826
176	0xbcfe4697	-0.03103952
177	0xbe0cde78	-0.1375674
178	0x3e0f1562	0.13973
179	0x3d87bb2b	0.06627496
180	0xbdc757e5	-0.097335614
181	0x3d7c3b0a	0.06157974
182	0xbdaf35a7	-0.08555155
183	0xbc745d33	-0.014914799
184	0x3e44ef4a	0.19231907
185	0x3c9400b3	0.01806674
186	0xbdc9d63d	-0.09855316
187	0x3c318fe9	0.0108375335
188	0x3d926d42	0.071497455
189	0x3d39cdf1	0.045362417
190	0x3b1b7a46	0.0023724004
191	0x3e26b8da	0.16281453
192	0x3d1268fd	0.035744656
193	0xbd8dca7a	-0.06923385
194	0x3dc1bebe	0.09460209
195	0x3db05046	0.08609061
196	0x3d997519	0.07493038
197	0xbe084385	-0.13307007
198	0x3b873df8	0.0041272603
199	0xbd839761	-0.064253576
200	0xbe8bcf20	-0.2730646
201	0xbe18e8e7	-0.14932595
202	0xbe8156ff	-0.25261685
203	0xbdd1c8d2	-0.102433816
204	0xbd19a195	-0.037507612
205	0xbe189967	-0.14902268
206	0xbe6f8160	-0.23389196
207	0xbe64f33c	-0.22358412
208	0xbd46cac9	-0.048533235
209	0xbe5f7e24	-0.21825463
210	0xbcbf82fe	-0.023377892
211	0xbe8a4587	-0.2700617
212	0xbe35600e	-0.17712423
213	0xbe622414	-0.22084075
214	0xbd8eb716	-0.069685146
215	0xbd2a663f	-0.041601416
216	0xbe5f12c6	-0.21784505
217	0xbd2d1054	-0.0422519
218	0xbdff623c	-0.124699086
219	0xbd83c188	-0.064333975
220	0xbdf2688b	-0.11836346
221	0xbe9a1693	-0.30095348
222	0x3bdcf000	0.0067424774
223	0xbd9b46d5	-0.075818695
224	0x3d913224	0.07089642

conv0.bias f4 [3]
0	0x3e3fc55d	0.18727632
1	0xbf560ac9	-0.83610207
2	0xbf5eb187	-0.86989635

conv1.weight f4 [30, 3, 5, 5]
0	0xbba94b61	-0.0051664566
1	0xbbdfde63	-0.0068319305
2	0xbbdb06ca	-0.006684159
3	0xbb191e2f	-0.0023363938
4	0xbb8e36f2	-0.004340046
5	0xbb7d1a5f	-0.0038620455
6	0xbbb98a89	-0.0056622666
7	0xbbbb8638	-0.005722787
8	0xbad665b5	-0.0016357215
9	0xbb852fc8	-0.004064534
10	0xbb60fe37	-0.0034331211
11	0xbba6b7cb	-0.005087828
12	0xbf3c7b2f	-0.73625463
13	0x3f3ad1c5	0.7297633
14	0xbb94025b	-0.0045168824
15	0xbae1f6f7	-0.0017239739
16	0xbb7869dd	-0.0037904896
17	0xbba3a0f3	-0.004993552
18	0xbaeafbef	-0.0017927865
19	0xbb30b1e3	-0.0026961497
20	0x3b3a0af2	0.0028387872
21	0xb9f33f97	-0.0004639595
22	0xbb46de80	-0.0030345023
23	0x3a6dc306	0.0009069893
24	0x3ac83e0d	0.0015277282
25	0x3e14d788	0.14535344
26	0x3df5aa36	0.11995356
27	0x3db88370	0.09009445
28	0x3d84de2c	0.064876884
29	0x3d364168	0.04449597
30	0x3db00781	0.08595181
31	0x3d7d8310	0.06189257
32	0x3f45b1ad	0.77224237
33	0x3ca9af56	0.02071349
34	0x3b7ef956	0.003890594
35	0x3d15fa07	0.036615398
36	0x3ca430d3	0.020042812
37	0xbf3902a9	-0.72269684
38	0xbc936016	-0.017990153
39	0xbd2c177d	-0.042014588
40	0xbb44db99	-0.0030038117
41	0xbcbdf070	-0.023185939
42	0xbd1d5dd3	-0.038419556
43	0xbd8db3ff	-0.06919097
44	0xbdbe3a6d	-0.092884876
45	0xbd3a9b01	-0.04555798
46	0xbd8e9a30	-0.06963003
47	0xbdb9ea3b	-0.09077879
48	0xbdef191d	-0.11674712
49	0xbe064038	-0.13110435
50	0x3d79988e	0.060936503
51	0x3d54cf09	0.051955257
52	0x3d2db2d7	0.042406883
53	0x3d13147a	0.0359082
54	0x3d0c1f25	0.03420939
55	0x3d653cc1	0.055966143
56	0x3d40d1f7	0.047075238
57	0x3d1a1bd5	0.0376242
58	0x3cfdb5f3	0.03097055
59	0x3cf5b640	0.02999413
60	0x3d5aac4b	0.053386968
61	0x3f46b1f4	0.77615285
62	0xbf320466	-0.6953796
63	0x3cf2d85b	0.029644182
64	0x3ce81596	0.028330605
65	0x3d50aa41	0.050943617
66	0x3d304b5d	0.043040622
67	0x3d0d2b5b	0.034465175
68	0x3ceb3dea	0.028716046
69	0x3cdb6f17	0.02678637
70	0x3d42a90f	0.047524508
71	0x3d258fbf	0.04042029
72	0x3d0601c9	0.032716546
73	0x3ce0874c	0.027408265
74	0x3cd0d44b	0.025491854
75	0x3c67417a	0.014114732
76	0x3c0cfe4c	0.008605551
77	0x3abca9d2	0.0014393872
78	0xbb40721f	-0.0029364896
79	0xba455b9e	-0.00075286056
80	0x3c8de79c	0.017322354
81	0x3c5274b3	0.012845206
82	0x3bb2fcb6	0.0054622544
83	0x3703cf0a	7.8564135e-06
84	0x3aff9e69	0.0019502166
85	0x3cab4866	0.020908546
86	0x3c9358cc	0.017986678
87	0xbf3842a1	-0.7197667
88	0x3badc5d9	0.0053031263
89	0x3bcc6eb1	0.0062387814
90	0x3cb6782a	0.022274096
91	0x3cb9093e	0.022587415
92	0x3f3f9731	0.74840075
93	0x3c2e81f2	0.010651099
94	0x3c2098b9	0.009802037
95	0x3cc12afe	0.02358007
96	0x3ccf4046	0.025299203
97	0x3cb75687	0.022380127
98	0x3c817acb	0.015805623
99	0x3c581f29	0.013191023
100	0xbc976c07	-0.018484129
101	0x3c3679b4	0.011137415
102	0x3d05f834	0.032707408
103	0x3d647ca9	0.055782948
104	0x3d98c7ac	0.074599594
105	0xbd099b62	-0.03359545
106	0xbc577c8c	-0.013152253
107	0x3bcdd06c	0.0062809493
108	0x3f42e6ca	0.76133406
109	0x3d616fc1	0.055038217
110	0xbd0eedca	-0.034894742
111	0xbcba1c23	-0.022718495
112	0xbf3d3f24	-0.7392447
113	0x3c81ad13	0.015829599
114	0x3d2ec31e	0.042666547
115	0xbd0b7a35	-0.034052093
116	0xbcf48474	-0.029848315
117	0xbccce5d3	-0.025011932
118	0xbb06f5e5	-0.0020593342
119	0x3cf4d5fe	0.029887196
120	0xbd505519	-0.050862405
121	0xbd4dc677	-0.0502381
122	0xbd5258da	-0.051354267
123	0xbcffa588	-0.031206861
124	0x3a5ec2bc	0.00084976456
125	0xbb3e0371	-0.002899375
126	0xbb2b4a0e	-0.002613667
127	0xbb45e750	-0.0030197687
128	0xbb641aac	-0.0034805937
129	0xbbdb0179	-0.006683525
130	0xbac7bef2	-0.0015239401
131	0x3f3ae45b	0.7300469
132	0xbad4d039	-0.0016236372
133	0xbadc5b41	-0.0016811864
134	0xbb57682c	-0.0032868488
135	0xb8f6c60a	-0.00011767082
136	0x38107697	3.444272e-05
137	0xbf3b2c02	-0.73114026
138	0x3aa9630a	0.0012923193
139	0x3a4982ea	0.0007687049
140	0xb92e5035	-0.00016623813
141	0xb99fea5a	-0.0003050145
142	0x39c5096c	0.00037581788
143	0x3b4475be	0.0029977406
144	0x3b6a0280	0.0035707057
145	0xb9888c35	-0.00026044404
146	0xba902584	-0.0010997509
147	0x38e29809	0.000108048385
148	0x3b6360ff	0.0034695265
149	0x3b937fa1	0.0045012985
150	0xbc1a2b81	-0.009409786
151	0xbc4239af	-0.011854573
152	0xbc0eed58	-0.008723579
153	0xbc2d5207	-0.010578639
154	0xbc3ce3b4	-0.011528898
155	0xbb062fa8	-0.0020475183
156	0xbb991efd	-0.0046728835
157	0xbb8c82ff	-0.004288077
158	0xbc050421	-0.00811866
159	0xbc0a2aaa	-0.0084330235
160	0x3afbf412	0.0019222519
161	0x39132561	0.00014032937
162	0xbf3b88e3	-0.7325575
163	0xbbc93268	-0.006140042
164	0xbbb8cb2e	-0.0056394553
165	0x3ad9a019	0.0016603499
166	0x3f3c7cf1	0.73628145
167	0x3b800310	0.003906615
168	0xbb8b461b	-0.0042503006
169	0xbb80c854	-0.003930131
170	0xbb0e96a3	-0.0021757267
171	0x3bad48ff	0.005288243
172	0x3bfcd58e	0.0077158874
173	0xbb77a3c3	-0.0037786819
174	0xbb831266	-0.003999996
175	0xbd478880	-0.04871416
176	0xbd26e94b	-0.04074983
177	0xbcbc3257	-0.022973223
178	0xbc491a39	-0.012274318
179	0xbcab9140	-0.020943284
180	0xbd332cf5	-0.043744046
181	0xbd153ad5	-0.03643306
182	0xbc7fa80a	-0.0156040285
183	0x3bdbac2d	0.0067038746
184	0x3bffdf5c	0.007808609
185	0xbcfa9800	-0.030590057
186	0xbcd25cb4	-0.02567897
187	0xbf3ba023	-0.73291224
188	0x3d02b657	0.031912174
189	0x3d224dcb	0.03962497
190	0xbceea852	-0.029132996
191	0xbce0604b	-0.027389666
192	0xbbae5634	-0.005320335
193	0x3f442a21	0.76626784
194	0x3d37d2ba	0.0448787
195	0x3b54d9dc	0.0032478487
196	0x3a7c5e86	0.0009627122
197	0x3c64c3d1	0.013962702
198	0x3d46701f	0.04844677
199	0x3d633dfa	0.055479027
200	0x3b8b379e	0.0042485734
201	0x3b9b9e93	0.004749128
202	0x3bd0ad06	0.0063682823
203	0x3c2dc829	0.010606804
204	0x3c7ac232	0.015305089
205	0x3b41063b	0.0029453177
206	0x3b49df64	0.0030803317
207	0x3badf998	0.005309295
208	0x3c4dfd58	0.012572609
209	0x3c97e8fb	0.018543711
210	0x3a2d9907	0.0006622229
211	0x3f3b5dd9	0.73190075
212	0xbfbac69c	-1.4591861
213	0x3f3e63dd	0.7437113
214	0x3c8fecda	0.017568994
215	0xbafec225	-0.0019436522
216	0xbaba275f	-0.0014202407
217	0x3b4c7896	0.0031199805
218	0x3c39c5a3	0.011338624
219	0x3c74bcdf	0.0149376085
220	0xbb5a8b45	-0.0033347171
221	0xbb4719ca	-0.0030380362
222	0x3af173b1	0.001842132
223	0x3c070fc7	0.008243508
224	0x3c227419	0.009915375
225	0xbb6eb8ff	-0.0036426184
226	0xbb172393	-0.0023061975
227	0x3b2500cf	0.0025177484
228	0xbc171bea	-0.009222964
229	0xbcaa51b7	-0.020790918
230	0xbb70edc8	-0.0036762822
231	0xbbaf4a46	-0.0053494303
232	0x3f3a5a2d	0.7279385
233	0xbc6e9a0e	-0.014563097
234	0xbcb5cac0	-0.022191405
235	0xbb7d781f	-0.0038676334
236	0xbbf686fc	-0.0075234156
237	0xbfbc9e78	-1.4735861
238	0xbc848664	-0.016177364
239	0xbca8b261	-0.02059287
240	0xbc0dd1b4	-0.008655954
241	0xbc3b1986	-0.0114196595
242	0x3f37d098	0.71802664
243	0xbc91cc7d	-0.017797703
244	0xbca14da2	-0.019690339
245	0xbc4b8d34	-0.012423802
246	0xbc5d336d	-0.01350103
247	0xbc6dfbff	-0.014525413
248	0xbc9f4b9f	-0.019445239
249	0xbca517ba	-0.020152915
250	0x3bc0def5	0.0058859535
251	0xbca81643	-0.020518428
252	0xbce394e3	-0.027780956
253	0xbd1f6270	-0.038912237
254	0xbd4ea335	-0.050448615
255	0xbc5746f8	-0.013139479

conv1.bias f4 [30]
0	0xbde98317	-0.114019565
1	0xbe1cd5fb	-0.15316002
2	0xbde54b95	-0.11196057
3	0x3cbb3dba	0.022856582
4	0x3de84215	0.11340729
5	0xbdd433c9	-0.1036144
6	0xbd0dd81e	-0.034629934
7	0x3a2d4031	0.00066089915
8	0xbe2a0368	-0.16602862
9	0xbe6cf7bb	-0.23141377
10	0xbb7f74e5	-0.0038979587
11	0xbe6275a2	-0.22115186
12	0xbe099407	-0.13435374
13	0xbd8a4157	-0.06750744
14	0xbecf20e9	-0.40454796
15	0xbd897ef2	-0.06713666
16	0xbd0e2697	-0.03470477
17	0x397be44c	0.00024022273
18	0xbdeecab8	-0.11659759
19	0xbe022f36	-0.12713322
20	0x3eb29230	0.34877157
21	0xbe378f93	-0.17925863
22	0x3e1476ac	0.14498395
23	0x393c7e07	0.00017976026
24	0xbc65d289	-0.014027246
25	0xbdccfe60	-0.10009456
26	0x3c4d9116	0.012546798
27	0x3b4dbec7	0.003139423
28	0xbc4d8232	-0.012543248
29	0x3e1ddf2e	0.15417168

conv2.weight f4 [16, 30, 3, 3]
0	0x3e1cf505	0.15327843
1	0x3d8cb138	0.06869739
2	0x3de35744	0.11100629
3	0xbc5d429a	-0.013504649
4	0xbcc3ce63	-0.023902124
5	0x3c78cf9f	0.0151862195
6	0x3da5194d	0.08061466
7	0xbc5d735d	-0.013516274
8	0x3d8d2530	0.068918586
9	0xbd1cf290	-0.038317263
10	0xbd71b18c	-0.059007213
11	0x3d757012	0.05992133
12	0xbba6344a	-0.0050721513
13	0xbd92ffa5	-0.071776666
14	0x3a8ab8e1	0.0010583663
15	0x3d897def	0.06713473
16	0x3c35dd10	0.011100069
17	0xbb8506d4	-0.004059652
18	0xbd96f806	-0.073715255
19	0xbddf6d02	-0.109094635
20	0x3d0b64e8	0.03403178
21	0xbd4e7791	-0.050406996
22	0xbdbd23d6	-0.09235351
23	0xbca8bcfe	-0.020597931
24	0x3c875cd9	0.016523765
25	0xbc236f8f	-0.009975328
26	0x3b17d1df	0.0023165864
27	0xbdd87476	-0.10569088
28	0xbcb4255b	-0.021990469
29	0xbd1b4c81	-0.037914757
30	0xbc9512de	-0.018197473
31	0xbd8e8a2d	-0.06959949
32	0x3c9da985	0.019245872
33	0xbd3ddcf9	-0.046353314
34	0xbcbddcf2	-0.023176644
35	0xbcc667f8	-0.024219498
36	0xbd4c3cd0	-0.049862683
37	0x3b43581f	0.0029807163
38	0xbcf457ca	-0.029827017
39	0xbd152c99	-0.036419485
40	0x3c6f7843	0.014616075
41	0x3d11bdd6	0.035581432
42	0xbc550b65	-0.013003205
43	0x3d9fbbb2	0.07799472
44	0x3d4e9ef2	0.05044455
45	0x3dbf74de	0.093484625
46	0x3d4335c7	0.047658708
47	0x3db69d7c	0.089167565
48	0xbd2e8552	-0.042607613
49	0x3d5c4f74	0.05378671
50	0xbd8afc67	-0.06786423
51	0x3dcaf9f5	0.09910957
52	0x3ca39850	0.01997009
53	0x3d6b6cf4	0.057476953
54	0x3dac137a	0.08402152
55	0x3db75e81	0.08953572
56	0x3b5f24a7	0.0034048946
57	0xbd3b9976	-0.04580065
58	0x3d8a3171	0.067477114
59	0xbc740b09	-0.014895209
60	0xbce1335f	-0.027490316
61	0xbd2530d7	-0.04032978
62	0x3e044bc4	0.12919527
63	0xbcea380f	-0.028591184
64	0xbc47c90d	-0.01219393
65	0xbda2d090	-0.079499364
66	0x3c34fafe	0.011046169
67	0xbdd76014	-0.10516372
68	0xbd82f581	-0.063944824
69	0xbca14c72	-0.019689772
70	0x3d4e640a	0.050388373
71	0xbc98d0c4	-0.018654235
72	0x3bf4eb90	0.0074743703
73	0x3d55abab	0.05216567
74	0x3d8d57b3	0.06901493
75	0x3d34f4ab	0.044178646
76	0xbd5bce79	-0.053663705
77	0x3d973d22	0.07384707
78	0xbd00ce07	-0.031446483
79	0xbd4c596e	-0.049889974
80	0x3d22f8a6	0.03978791
81	0x3d980ae5	0.07423953
82	0xbace542b	-0.0015741637
83	0xbc3c0548	-0.0114758685
84	0xbd444361	-0.04791582
85	0xbd57f390	-0.052722514
86	0x3ce874e2	0.028376047
87	0x3d321e52	0.043485947
88	0x3d747cf6	0.059689485
89	0x3dd95561	0.10611988
90	0x3d2751b7	0.040849414
91	0x3b216cd9	0.0024631529
92	0x3d97f745	0.0742021
93	0x3d821892	0.06352343
94	0x3ca1ba36	0.019742113
95	0xbd6ff2ca	-0.05858115
96	0xbcb6d6b6	-0.022319179
97	0x3da2f6d3	0.07957234
98	0x3c8d7c82	0.017271284
99	0xbd89e906	-0.06733899
100	0xbc7c103f	-0.015384733
101	0x3d04c200	0.032411575
102	0x3ccdf631	0.025141807
103	0x3d85779b	0.065169536
104	0x3b78b493	0.0037949427
105	0xbcc7af9f	-0.024375735
106	0x3d578d9e	0.05262529
107	0x3b6bf676	0.0036005056
108	0x3ac7b1d9	0.0015235498
109	0xbdbc39f3	-0.091907404
110	0xbcfeaa2d	-0.031087006
111	0xbdbcc72c	-0.092176765
112	0xbc764aa3	-0.015032443
113	0xbd99fb68	-0.07518655
114	0x3d92ed98	0.07174224
115	0xbd186482	-0.037205227
116	0xbd201d77	-0.0390906
117	0x3c81bf2d	0.01583823
118	0xbcf54f2d	-0.02994498
119	0xbd1fdeb0	-0.03903073
120	0x3d971194	0.073764
121	0x3d1ac362	0.037783988
122	0x3cce73e2	0.025201742
123	0x3d86f4a2	0.06589629
124	0xbc1c48c6	-0.009538835
125	0x3d212abe	0.039347403
126	0x3db96ac0	0.09053564
127	0xbd3ddbc9	-0.04635218
128	0xbb4cc230	-0.0031243674
129	0x3d0c09e6	0.034189127
130	0xbd8d8dc6	-0.06911807
131	0xbb8ec3ff	-0.0043568606
132	0xbd03ddf9	-0.03219411
133	0xbd2e2568	-0.042516142
134	0xbb94238c	-0.004520839
135	0x3c9d27ab	0.019183954
136	0x3cd256dd	0.025676185
137	0x3be7c5c6	0.007073137
138	0x3d85fe1c	0.06542608
139	0xbba7dfde	-0.0051231226
140	0xbd3ff71b	-0.046866518
141	0x3bd8d774	0.006617481
142	0x3e1ac0ef	0.15112661
143	0x3daae367	0.08344155
144	0x3d6e24cf	0.058140572
145	0xbd81e9af	-0.063434
146	0x3cc9ea24	0.02464778
147	0xbd5ec2d0	-0.054385006
148	0x3ca882f1	0.02057025
149	0x3de8c361	0.113653906
150	0x3dbbf7df	0.09178137
151	0x3c0e532d	0.008686823
152	0x3be67639	0.007033136
153	0xbde5b5dc	-0.112163275
154	0xbd9ef2cf	-0.07761156
155	0x38857f30	6.365625e-05
156	0xbdabd38e	-0.0838996
157	0x3cd10005	0.025512705
158	0xbd917e12	-0.07104124
159	0x3d9d1790	0.0767051
160	0xbca57608	-0.020197883
161	0xbcc6cbd8	-0.024267122
162	0x3d1f3e3e	0.03887772
163	0x3cbf9e2b	0.02339085
164	0x3dba171a	0.090864375
165	0x3cd7044c	0.026247166
166	0xbe132b49	-0.1437198
167	0x3d09f86d	0.033684183
168	0xbd59afae	-0.053146057
169	0xbb6e2294	-0.0036336528
170	0x3d88bbed	0.06676469
171	0xbcc98da3	-0.02460367
172	0x3cb7a892	0.022419248
173	0x3c819965	0.015820215
174	0x3c9486b0	0.01813063
175	0x3d696508	0.056981117
176	0x3ac7087b	0.0015185022
177	0x3ca106a6	0.01965649
178	0x3daed0e6	0.08535938
179	0x3dbb14a1	0.09134794
180	0xbd9cea26	-0.07661848
181	0x3c99bb88	0.01876618
182	0xbd8cd8bd	-0.06877277
183	0x3d55a207	0.052156474
184	0x3d78f76a	0.060782827
185	0xbc50d21c	-0.0127454065
186	0x3dad4e2e	0.08462177
187	0x3be2fa90	0.006926842
188	0x3d80183d	0.06254623
189	0x3db40e5d	0.08791802
190	0xbd173d7b	-0.036923867
191	0xbbe02cd5	-0.006841282
192	0x3c855046	0.016273629
193	0x3d8953d5	0.06705443
194	0x3d307aef	0.04308599
195	0x3cd9053c	0.026491754
196	0x3dc2d62c	0.09513506
197	0x3e11e8ee	0.14249012
198	0xbccc87ab	-0.024967035
199	0xbd1307a2	-0.03589595
200	0x3c4e9805	0.0126094865
201	0xbcc5b939	-0.024136173
202	0xbdee480e	-0.11634837
203	0xbdecffc4	-0.11572221
204	0xbdadb902	-0.08482553
205	0xbdb2eabe	-0.0873618
206	0x3d8644cb	0.0655609
207	0xbcbd5eb3	-0.023116445
208	0xbd982f13	-0.07430854
209	0x3c8b6650	0.01701656
210	0xbc79c211	-0.015244023
211	0xbd866af8	-0.065633714
212	0xbdbc1bfe	-0.091850266
213	0x3cdff554	0.027338661
214	0x3c18c324	0.009323869
215	0xbc34386b	-0.010999779
216	0xbd478bf4	-0.048717454
217	0xbc032c55	-0.008006175
218	0x3da0868a	0.07838161
219	0xbd4ab8a2	-0.049492486
220	0xbcb18f66	-0.021674823
221	0xbd1e71d3	-0.03868277
222	0x3e13113a	0.1436204
223	0x3d5bdbae	0.0536763
224	0x3dd5d06d	0.10440145
225	0x3cc663ee	0.024217572
226	0x3ce5e0a6	0.028061222
227	0x3d9a6441	0.07538653
228	0x3c0404b7	0.008057765
229	0x3db09959	0.08622999
230	0x3dbef287	0.09323602
231	0x3dcb3b8e	0.099234685
232	0x3de47bbf	0.11156415
233	0x3c17cad1	0.009264664
234	0x3d4ead73	0.050458383
235	0xbd9d0d5a	-0.07668562
236	0x3d3730bf	0.044724222
237	0xba107807	-0.00055110495
238	0xbc714ca9	-0.01472775
239	0xbb977b7a	-0.004622874
240	0xbdbb4762	-0.091444746
241	0x3dac401e	0.08410667
242	0x3c222db6	0.009898594
243	0x3d54f5d8	0.051992267
244	0xbc986ca2	-0.018606488
245	0xbd581b94	-0.052760676
246	0x3d134e77	0.0359635
247	0xbc726827	-0.01479534
248	0xbdaf6aa8	-0.08565265
249	0x3c4a21af	0.012337132
250	0xbda38d36	-0.07985918
251	0xbd532b96	-0.05155524
252	0xbdeec4c0	-0.11658621
253	0xbd3fa33a	-0.046786524
254	0xbd68889e	-0.056770913
255	0xbd8badb8	-0.068202436

conv2.bias f4 [16]
0	0xbe91e170	-0.28492308
1	0xbda770a8	-0.08175784
2	0x3c655feb	0.013999919
3	0xbd1ea19b	-0.038728338
4	0x3d3e97bf	0.046531435
5	0xbc65661a	-0.014001394
6	0xbdaf5080	-0.08560276
7	0xbd72d186	-0.05928185
8	0xbe84567b	-0.2584723
9	0xbe112543	-0.1417437
10	0xbc1a9792	-0.009435551
11	0xbdcc1f67	-0.09966927
12	0xbdbe6842	-0.09297229
13	0xbe6c6cb6	-0.23088345
14	0xbd86e55a	-0.06586714
15	0xbe57b4c0	-0.21065044

conv3.weight f4 [16, 16, 3, 3]
0	0x3d865264	0.065586835
1	0xbd8ff6cc	-0.07029495
2	0xbe0d51c2	-0.1380072
3	0x3d5d8bd5	0.054088432
4	0xbc92dd83	-0.01792789
5	0xbcb7a69e	-0.022418316
6	0xbde32712	-0.110914364
7	0x3cfc54ec	0.030802213
8	0x3ce2e6cf	0.027697949
9	0xbda850f1	-0.08218563
10	0x3d380337	0.04492494
11	0x3ddcc823	0.107803605
12	0xbdb7e456	-0.089790985
13	0x3cb8daa0	0.022565186
14	0xbd1b80c0	-0.037964582
15	0x3d92a47c	0.07160279
16	0x3d97d6fc	0.07414052
17	0x3d9ae400	0.07563019
18	0xbd33dae8	-0.043909937
19	0x3d6eb6d9	0.058279846
20	0xbd6717f2	-0.05641932
21	0x3d45e26c	0.048311636
22	0x3c8206f7	0.015872462
23	0xbdfd26aa	-0.1236089
24	0xbdae9188	-0.08523852
25	0xbd209f3e	-0.039214365
26	0xbdf75206	-0.120761916
27	0x3c3dc00c	0.011581432
28	0x3dd65c30	0.10466802
29	0x3e0b2711	0.13589121
30	0x3cdd8dcb	0.027045151
31	0x3c827fe6	0.015930127
32	0xbd341517	-0.043965425
33	0x3d940e8a	0.072293356
34	0x3d76297d	0.06009816
35	0x3db1df92	0.08685221
36	0xbdc78371	-0.09741867
37	0x3d1afe45	0.037840147
38	0xbca17709	-0.01971008
39	0xbd89fe3b	-0.06737944
40	0x3dafe930	0.08589399
41	0xbd782837	-0.060585227
42	0xbdb8b7f8	-0.09019464
43	0x3dbb290e	0.0913869
44	0xbd80a6b6	-0.062817976
45	0x3db5124f	0.08841383
46	0xbc4b8208	-0.012421139
47	0xbd293e56	-0.041319214
48	0x3c32d84b	0.010915826
49	0xbd157fc7	-0.03649881
50	0x3d86650f	0.06562244
51	0x3db47a82	0.08812429
52	0xbd5afb7e	-0.053462498
53	0xbd0ce90f	-0.03440195
54	0x3d2e3b8e	0.042537265
55	0x3d86ad22	0.06575991
56	0x3e24ac19	0.16081275
57	0x3e082066	0.13293609
58	0xbb9bebcc	-0.004758334
59	0x3e02f979	0.12790479
60	0x3e033384	0.1281262
61	0xbc279b59	-0.010229909
62	0x3e106bc1	0.14103605
63	0x3dd7a5bc	0.10529658
64	0xbc6e931c	-0.014561441
65	0x3de412c9	0.111363955
66	0x3dd6141d	0.10453055
67	0x3d18ebad	0.037334133
68	0x3cc7cf7b	0.024390927
69	0x3dcc5772	0.09977616
70	0x3dbdacbe	0.092614636
71	0x3e09ca7c	0.13456148
72	0xbdbbc657	-0.0916869
73	0x3c0446fd	0.008073566
74	0x3d0b4eb5	0.034010608
75	0xbdc3c201	-0.09558488
76	0xbc31e4f1	-0.010857807
77	0xbdb4cd68	-0.08828241
78	0xbdde95eb	-0.10868438
79	0x3d9031b7	0.07040732
80	0xbdefe999	-0.11714477
81	0x3c356859	0.011072242
82	0x3e468464	0.1938644
83	0x3e2fa018	0.17150915
84	0x3ddf1ac3	0.10893776
85	0x3e21af7a	0.15789595
86	0x3dc5591d	0.09636138
87	0x3d588918	0.052865118
88	0x3d92df98	0.071715534
89	0x3e00adec	0.12566346
90	0xbdcb0da8	-0.09914714
91	0xbdc160be	-0.0944228
92	0xbd16e57f	-0.03683996
93	0x3c59d990	0.0132965
94	0x3d91c390	0.07117379
95	0xbd46deb8	-0.048552245
96	0xbdb36f78	-0.08761495
97	0xbdbf2e82	-0.093350425
98	0xb920531a	-0.00015289747
99	0xbde3c6c4	-0.11121896
100	0xbd896840	-0.06709337
101	0xbde1aad3	-0.1101891
102	0x3baa9452	0.0052056694
103	0xbd9d0983	-0.0766783
104	0xbde68d92	-0.11257471
105	0xbc022c70	-0.007945165
106	0xbd30f746	-0.04320457
107	0x3cff6e3c	0.031180494
108	0x3d85eacc	0.065389246
109	0x3dcaaa7e	0.098958
110	0x3db418b2	0.08793773
111	0x3bdce390	0.0067409948
112	0x3e1377bf	0.14401148
113	0x3da23b34	0.07921448
114	0x3d6ecad0	0.058298886
115	0x3d9ff7f4	0.07810965
116	0x3e239400	0.15974426
117	0x3cecc25a	0.028901268
118	0x3d03e906	0.03220465
119	0xbdfc16a4	-0.12309006
120	0xbd97f871	-0.07420433
121	0xbd05ad38	-0.032635897
122	0xbd980118	-0.074220836
123	0xbd900281	-0.070317276
124	0x3cc3dec2	0.02390993
125	0xbde7fcac	-0.1132749
126	0x3bc8261d	0.006108059
127	0x3d1b09ba	0.037851073
128	0xbd0b1d65	-0.03396358
129	0xbc91243d	-0.017717475
130	0xbd8b186c	-0.067917675
131	0x3daeea2a	0.08540757
132	0xb9f83501	-0.00047341737
133	0x3c8b5396	0.01700763
134	0x3dca8efd	0.09890554
135	0xbe098043	-0.13427834
136	0xbd040c99	-0.032238577
137	0xbd95b4e6	-0.07309894
138	0xbe04a028	-0.1295172
139	0xbd184c70	-0.03718227
140	0xbc441124	-0.011966977
141	0x3a5895c9	0.0008262066
142	0x3d23be32	0.039976306
143	0xbcb5d686	-0.02219702
144	0xbb8decc7	-0.0043312046
145	0xbd6a1fc6	-0.057159208
146	0xbcf85e4c	-0.030318402
147	0xbdc7cdaa	-0.09756024
148	0xbdc93f18	-0.09826487
149	0xbda589c3	-0.080829166
150	0x3d934e11	0.07192624
151	0x3d34a2df	0.04410064
152	0x3dc7f69c	0.09763834
153	0x3d92b7c6	0.07163958
154	0x3d975dd6	0.07390945
155	0x3cbc7a50	0.023007542
156	0x3d5c280d	0.053749133
157	0x3d1528e7	0.03641596
158	0xbdaa4b0c	-0.08315095
159	0xbda9f46e	-0.082985744
160	0x3dab4670	0.08363044
161	0x3d8a3b77	0.06749623
162	0xbce1a2bc	-0.027543418
163	0xbd758dc2	-0.059949644
164	0xbd9633d2	-0.07334103
165	0xbda4593f	-0.08024835
166	0xbd08c778	-0.033393353
167	0x3c1aa4f8	0.009438746
168	0x3b24b644	0.0025133053
169	0x3d1f4f6f	0.038894113
170	0x3c653a1f	0.013990908
171	0x3ccc9230	0.024972051
172	0x3da3cdde	0.079982504
173	0x3cc27e6c	0.023741923
174	0xbc0f3533	-0.008740711
175	0x3d592a78	0.053019017
176	0x3d141def	0.03616136
177	0x3d2e4fd3	0.042556595
178	0xbcea686e	-0.02861425
179	0xbdd8e5f7	-0.10590737
180	0xbd44d1d2	-0.048051663
181	0x3da73c50	0.081658006
182	0xbd1aac47	-0.037761953
183	0xbd7eb2aa	-0.062182106
184	0xbd408748	-0.047004014
185	0x3d8226c7	0.063550524
186	0x3db441e0	0.08801627
187	0xbdcf2359	-0.10114164
188	0xbd14bce8	-0.036312968
189	0x3da85a99	0.08220405
190	0x3ca7dd1a	0.020491172
191	0x3d826f80	0.06368923
192	0xbdb2867a	-0.087170556
193	0x3d71e934	0.05906029
194	0xbd66c406	-0.056339286
195	0xbd8f5b05	-0.069997825
196	0xbd39a825	-0.04532637
197	0xbda528f0	-0.08064449
198	0x3cc358cb	0.02384605
199	0x3d8fc5d4	0.070201546
200	0xbd8aaa3e	-0.06770752
201	0x3d01387b	0.031548005
202	0xbda1f75e	-0.0790851
203	0x3d6f1728	0.058371693
204	0xbc6b850f	-0.014374985
205	0x3bbe500f	0.0058078836
206	0xbda8e28e	-0.08246337
207	0x3d1bd8d1	0.03804857
208	0x3d1ebd28	0.038754612
209	0xbd223676	-0.03960272
210	0xbd418f06	-0.04725554
211	0x3da516f8	0.080610216
212	0x3d96f7f0	0.07371509
213	0xbd5e4501	-0.054265026
214	0x3d15ff2f	0.036620315
215	0xbd3c3929	-0.04595295
216	0xbdcde426	-0.100532815
217	0xbb95c490	-0.004570551
218	0xbdb88214	-0.090091854
219	0xbd4c4c98	-0.049877733
220	0xbbf492a5	-0.0074637705
221	0xbd893a18	-0.06700534
222	0x3d7acdd3	0.061231446
223	0xbcfecbe3	-0.03110308
224	0xbda830c2	-0.08212425
225	0x3c74b5ac	0.014935892
226	0x3ce5a39d	0.028032118
227	0xbcd791d0	-0.026314646
228	0xbda46287	-0.08026605
229	0x3d41f0e3	0.047348868
230	0xbd0ae946	-0.033913873
231	0xbd36332d	-0.0444824
232	0x3dac3a14	0.08409515
233	0xbd6c61a3	-0.0577103
234	0x3d7694b7	0.06020042
235	0x3a9d1b49	0.0011986281
236	0xbcbb439a	-0.022859383
237	0xbd86eb14	-0.06587806
238	0x3dd1267c	0.102124184
239	0x3c29aa2b	0.010355513
240	0x3c767429	0.015042343
241	0xbdac66b6	-0.08418028
242	0x3d9950a4	0.07486084
243	0xbacfd601	-0.0015856625
244	0x3d3e6ace	0.046488576
245	0x3d90b7a7	0.07066279
246	0x3cc9a7f9	0.024616228
247	0x3d787391	0.060657088
248	0xbd4ec773	-0.05048318
249	0x3d301eae	0.04299801
250	0x3d295acb	0.041346353
251	0x3d540ed5	0.051771957
252	0xbd05d1ba	-0.032670714
253	0x3d7e7f56	0.062133156
254	0x3dc73a59	0.09727926
255	0xbd567997	-0.05236205

conv3.bias f4 [16]
0	0xbc56ac94	-0.013102669
1	0xbc952cde	-0.01820987
2	0x3cb7303f	0.022361873
3	0xbc142693	-0.0090424
4	0xbe12a5e1	-0.1432109
5	0x3c4c3316	0.012463352
6	0xbd80c94d	-0.06288395
7	0x3df6545b	0.12027808
8	0x3d9dba02	0.07701494
9	0x3bcfd1cc	0.0063421484
10	0xbe043271	-0.12909867
11	0xbc90cd37	-0.017675979
12	0xbd1ea42d	-0.03873079
13	0xbdadac15	-0.08480088
14	0xbd66aa48	-0.056314737
15	0xbc290f1d	-0.010318545

conv4.weight f4 [16, 16, 3, 3]
0	0x3c645278	0.013935678
1	0xbdb94cf8	-0.09047884
2	0x3d86fa84	0.06590751
3	0x3d4d6589	0.05014566
4	0x3ce0d99d	0.027447516
5	0xbc68f95b	-0.014219607
6	0x3dd3520a	0.10318382
7	0xbda53814	-0.08067337
8	0x3d83779f	0.064193
9	0x3dbbc465	0.09168319
10	0x3d1483fc	0.036258683
11	0x3daf2552	0.0855204
12	0xbd853c95	-0.06505696
13	0x3dc07c55	0.093987145
14	0x3d9db76f	0.07701003
15	0xbd36de8a	-0.044645824
16	0x3db82bb4	0.08992711
17	0xbd46eeb7	-0.0485675
18	0xbdb423da	-0.08795901
19	0x3dce5c4e	0.100761995
20	0x3d154938	0.03644678
21	0x3d78417d	0.06060933
22	0x3ce1d7ea	0.027568776
23	0x3c9bab06	0.019002449
24	0x3d16b485	0.03679325
25	0x3d29c76b	0.041449945
26	0xbd889315	-0.06668679
27	0x3d8cd82b	0.06877168
28	0x3c1a7e23	0.009429487
29	0x3d52d47d	0.051472176
30	0xbdbcecaa	-0.092248276
31	0xbd822c74	-0.06356135
32	0xbd32c954	-0.043649033
33	0xbdb0f1e8	-0.0863989
34	0x3dac2532	0.08405532
35	0x3c9da68e	0.019244459
36	0xbd9cd0b1	-0.07656992
37	0xbd84f2e6	-0.06491642
38	0xbcbeca9a	-0.023289967
39	0x3db7597a	0.08952613
40	0xbd3023e7	-0.04300299
41	0x3dc5ccd0	0.096582055
42	0x3d6d77d9	0.057975624
43	0xbd9aae12	-0.075527325
44	0xbdc05377	-0.0939092
45	0x3cf4468b	0.029818794
46	0x3d935687	0.07194238
47	0xbca9da97	-0.020734115
48	0xbdbda8bf	-0.092607014
49	0x3d215808	0.039390594
50	0xbd0cf678	-0.03441474
51	0xbd4bdeac	-0.049772903
52	0x3c13910c	0.00900675
53	0x3da2999b	0.07939454
54	0xbdc251f6	-0.09488289
55	0x3cc74017	0.024322553
56	0xbb87914f	-0.004137195
57	0xbd94c1e6	-0.07263546
58	0x3db6f1e4	0.08932856
59	0xbc6d9d27	-0.0145028
60	0x3dcf2e1a	0.10116215
61	0xbd96d08f	-0.07363998
62	0x3c007d83	0.007842424
63	0xbce39e31	-0.027785392
64	0x3cb11a72	0.021619055
65	0xbdd25e67	-0.10271912
66	0x3d027fdf	0.03186023
67	0xbd65f55f	-0.056142207
68	0x3d6eb088	0.058273822
69	0xbd370885	-0.04468586
70	0xba111f85	-0.0005536008
71	0xbda7fd62	-0.08202626
72	0xbd882be1	-0.06648994
73	0x3d5f84eb	0.05457012
74	0x3dcc70d4	0.09982458
75	0x3db313ae	0.08743988
76	0xbdaec636	-0.085338995
77	0xbd048419	-0.03235254
78	0x3d90bba5	0.0706704
79	0x3d2b30dc	0.041794643
80	0x3d7495e4	0.05971326
81	0x3dc2f33e	0.09519051
82	0xbceef438	-0.029169187
83	0xbd1478c0	-0.03624797
84	0x3c068ccd	0.00821228
85	0xbdc3b5d7	-0.095561676
86	0xbcbf7e91	-0.023375781
87	0x3dcc4327	0.09973746
88	0xbc0a65c4	-0.008447114
89	0xbd213561	-0.039357547
90	0xbd259b63	-0.04043139
91	0xbcabdadc	-0.020978384
92	0xb7970306	-1.800201e-05
93	0xbdbd5f29	-0.09246666
94	0x3da5134f	0.080603234
95	0xbdd1f2fd	-0.102514245
96	0xbd50a57f	-0.05093908
97	0xbdaf8c84	-0.08571723
98	0xbd79d240	-0.060991526
99	0x3d038149	0.032105718
100	0xbd827c2b	-0.063713394
101	0xbd187d92	-0.03722913
102	0xbd929b5e	-0.0715854
103	0xbaa9700c	-0.0012927069
104	0x3dc8bd6c	0.09801754
105	0x3d432e39	0.047651503
106	0x3d898a88	0.06715876
107	0xbda3c561	-0.079966314
108	0xbd049a5d	-0.032373775
109	0x3d60c0ef	0.054871496
110	0x3afdbe7d	0.0019359138
111	0x3dadf00b	0.0849305
112	0xbd8d1490	-0.068886876
113	0xbdbdc506	-0.09266095
114	0xbda47fff	-0.08032226
115	0xbd499a0d	-0.04921918
116	0x3da333dd	0.079688765
117	0xbd176764	-0.036963835
118	0xbd52eb54	-0.051493958
119	0xbb6e8f46	-0.0036401316
120	0x3d6f795d	0.05846535
121	0xbdd79a91	-0.10527528
122	0xbcc6ff2e	-0.024291601
123	0xbd20995f	-0.039208766
124	0xbd8c2f71	-0.06844986
125	0xbd03b51d	-0.032155145
126	0xbc13ed5c	-0.009028759
127	0xbdbdf040	-0.0927434
128	0x3dadbf4c	0.084837526
129	0x3d135f2c	0.035979435
130	0x3bc0a0d0	0.0058785453
131	0x3b1cce13	0.002392654
132	0x3ca3ca83	0.019994026
133	0x3dcbc360	0.09949374
134	0x3cc307a0	0.023807347
135	0x3b63c15d	0.0034752705
136	0xbb3717c3	-0.0027937747
137	0xbd92b2fa	-0.07163043
138	0xbdd64ab9	-0.10463471
139	0xbca9ded2	-0.020736132
140	0xbdc420d3	-0.09576573
141	0x3d2f67e3	0.042823683
142	0xbd74bf77	-0.059752908
143	0x3c57289c	0.013132241
144	0x3d27ccea	0.040966906
145	0xbd8277cc	-0.06370506
146	0xbca61dde	-0.020277914
147	0xbd9ee4cf	-0.077584855
148	0xbc5e2859	-0.013559424
149	0x3dc54a59	0.09633321
150	0x3d4d1ab3	0.05007429
151	0x3da408a1	0.08009458
152	0xbd5b8b95	-0.053599913
153	0xbdba6df3	-0.091030024
154	0xbd381437	-0.044941153
155	0xbd2a9d34	-0.041653827
156	0x3d83abaa	0.06429227
157	0xbd527a06	-0.051385902
158	0x3d9045be	0.07044552
159	0xbda103c6	-0.07862048
160	0x3d06e398	0.032931894
161	0x3c85684f	0.01628509
162	0x3dac2baa	0.08406766
163	0x3db9551f	0.09049439
164	0xbd6e7a5a	-0.058222152
165	0x3dd7bc08	0.10533911
166	0x3d32f21f	0.043687936
167	0x3dfd88cb	0.12379607
168	0x3d5dfc60	0.05419576
169	0xbd9a1633	-0.075237654
170	0x3d36bed5	0.044615585
171	0x3d36bf0b	0.044615787
172	0x3da8777d	0.082259156
173	0xbbf88100	-0.0075837374
174	0x3cfc7bbe	0.030820724
175	0xbd8d6ccf	-0.06905519
176	0x3b6d1b92	0.0036179763
177	0xbd096cc5	-0.033550996
178	0x3d0e0f13	0.034682345
179	0xbd9c8038	-0.07641643
180	0x3d399c71	0.04531521
181	0x3d3c53b9	0.04597828
182	0x3cfa1f4c	0.030532502
183	0x3e0a0e11	0.13481928
184	0xbd8e94e5	-0.06961993
185	0x3dbc23f5	0.09186546
186	0xbda50de5	-0.08059291
187	0xbcea116f	-0.028572766
188	0xbd0fc38e	-0.035098605
189	0xbd48b2fd	-0.04899882
190	0x3d24e90e	0.04026132
191	0xbd17a9ef	-0.037027296
192	0xbcd016fa	-0.025401581
193	0x3db80c36	0.08986704
194	0x3d17973e	0.03700947
195	0x3d1a9df5	0.037748296
196	0xbcb89a53	-0.022534525
197	0x3d1265b5	0.035741527
198	0xbd150c48	-0.036388665
199	0x3d1be343	0.03805853
200	0xbda5edb4	-0.08101979
201	0xbdacaeaa	-0.08431752
202	0x3d885c80	0.06658268
203	0x3d8c28c5	0.06843714
204	0x3d9e63c4	0.077338725
205	0xbd10814e	-0.035279565
206	0xbb65b60d	-0.0035051138
207	0xbd8c2565	-0.0684307
208	0xbd7b9ae3	-0.06142701
209	0xbaee0a8b	-0.0018161101
210	0xbcc2e92f	-0.023792831
211	0x3d7d8f83	0.06190444
212	0x3dabcd59	0.08388776
213	0x3da88aaa	0.08229573
214	0xbd042ca7	-0.032269146
215	0x3b63cfa9	0.0034761226
216	0xbd3f7cb1	-0.046749774
217	0xbb83cf4c	-0.0040225144
218	0xbdf25951	-0.11833442
219	0xbd77df63	-0.060515773
220	0xbd83f6ee	-0.064435825
221	0xbcb94cc2	-0.022619609
222	0x3c1b08fa	0.009462589
223	0xbd90ae0b	-0.07064446
224	0xbdd6063f	-0.1045041
225	0x3dc5bfb3	0.09655704
226	0xbcaadfab	-0.020858606
227	0xbc9930c2	-0.018700007
228	0xbd6dd1fe	-0.058061592
229	0x3d589c56	0.05288347
230	0x3d8000e3	0.06250169
231	0x3d79a860	0.06095159
232	0x3c9d9547	0.01923622
233	0xbd8bfa09	-0.068348
234	0x3e12fb44	0.14353663
235	0x3dcebc4e	0.1009451
236	0x3db32417	0.08747118
237	0x3dab45e3	0.08362939
238	0x3d264609	0.040594134
239	0x3d91fec2	0.07128669
240	0x3ba4d348	0.0050300695
241	0xbdae9bc7	-0.08525806
242	0x3c16c368	0.009201862
243	0xbd3907dc	-0.04517351
244	0x3dd14fe8	0.10220319
245	0xbda29579	-0.07938666
246	0xbc86efa4	-0.016471691
247	0x3d2c0f38	0.0420067
248	0x3d6a3707	0.057181384
249	0x3e0355f6	0.1282576
250	0x3dca9234	0.09891167
251	0x3cc7c7b5	0.02438722
252	0x3e529895	0.20566018
253	0x3db5f942	0.08885433
254	0x3d0f7f1c	0.03503333
255	0x3dac240a	0.084053114

conv4.bias f4 [16]
0	0xbc89d0a8	-0.016823128
1	0x3cd69446	0.02619375
2	0x3d37f81d	0.044914354
3	0xbdc2065d	-0.0947387
4	0x3d9cecba	0.076623395
5	0xbb2f0f49	-0.0026711992
6	0xbcbd72e6	-0.023126077
7	0xbd306a13	-0.04306991
8	0xbc472996	-0.012155911
9	0xbc3db1ec	-0.011578064
10	0x3d225879	0.039635155
11	0xbd39f65c	-0.045400962
12	0xbcfd93e1	-0.030954303
13	0x3d232d08	0.039837867
14	0x3e256ba4	0.16154343
15	0x3c9f0fb4	0.019416668

conv5.weight f4 [16, 16, 3, 3]
0	0x3da35080	0.079743385
1	0x3cc6f235	0.024285415
2	0x3d8a280d	0.0674592
3	0x3d88519a	0.06656189
4	0x3d6dcc02	0.058055885
5	0x3d7c508d	0.061600257
6	0xbdb7fb07	-0.089834265
7	0x3cda0960	0.026615798
8	0xbc8f7fcc	-0.017516993
9	0x3c8d3adf	0.017239986
10	0xbd6e5e7a	-0.05819557
11	0x3dd6f1ee	0.10495363
12	0xbd38d9a1	-0.045129422
13	0x3d121d49	0.03567246
14	0x3db2e69c	0.087353915
15	0xbdd725ec	-0.1050528
16	0xbd56d196	-0.05244597
17	0xbdbb7b85	-0.09154419
18	0x3db3742a	0.08762391
19	0xbd835d1a	-0.06414242
20	0x3da3cb9b	0.07997819
21	0xbd030dce	-0.031995587
22	0xbdd6c9d9	-0.10487718
23	0xbd6bfe32	-0.057615466
24	0xbcc483b6	-0.023988586
25	0x3db49dee	0.08819185
26	0xbdce8167	-0.10083275
27	0xbd89735e	-0.06711458
28	0x3d8f6524	0.07001713
29	0xbd1975c4	-0.037465826
30	0xbd679c76	-0.056545697
31	0x3cf77a27	0.030209614
32	0xbd6370df	-0.055527564
33	0xbd8e8d34	-0.06960526
34	0x3db54d86	0.08852677
35	0xbd036902	-0.032082565
36	0xbcffba6a	-0.031216819
37	0xbdc889b5	-0.097918905
38	0x3c67c156	0.014145216
39	0xbd0006a4	-0.031256333
40	0x3d4c4d65	0.049878497
41	0x3c1ed821	0.009695084
42	0x3d6fdcfa	0.05856035
43	0x3d9c0e80	0.07619953
44	0xbda774b8	-0.08176559
45	0xbcfb2082	-0.03065515
46	0x3d54fe5d	0.052000392
47	0x3dd2559f	0.10270237
48	0x3d624c56	0.05524858
49	0x3dbf841e	0.09351371
50	0xbdbdfc0e	-0.09276591
51	0xbd6cbf75	-0.057799775
52	0xbccae29e	-0.024766263
53	0x3da880b3	0.082276724
54	0x3db667e5	0.08906535
55	0xbdd557a0	-0.10417104
56	0xbccef392	-0.025262628
57	0xbd6aac34	-0.057293132
58	0xbd952e01	-0.07284165
59	0xbd965897	-0.07341116
60	0xbdb9ef0c	-0.09078798
61	0x3d9dd849	0.07707269
62	0xbbbb3c28	-0.0057139583
63	0x3d9a1909	0.07524306
64	0xbd9b05bd	-0.07569454
65	0x3d981d3b	0.0742745
66	0xba51445b	-0.0007982903
67	0x3da51445	0.08060507
68	0x3d5adeb5	0.053435046
69	0xbb1161e6	-0.0022183596
70	0x3d874c04	0.06606296
71	0xbce321f9	-0.02772616
72	0x3c54d776	0.012990823
73	0x3c86685f	0.01640719
74	0x3b8d87e5	0.0043191784
75	0xbc6f28bd	-0.014597115
76	0x3db1a090	0.08673203
77	0x3c74b3e1	0.014935465
78	0xbd9c486b	-0.07631
79	0x3d6e2efc	0.058150277
80	0xbd937d5c	-0.07201645
81	0x3d92578d	0.07145605
82	0x3dc8bc33	0.09801521
83	0xbd195634	-0.037435725
84	0x3cb1d549	0.021708148
85	0x3d3de13c	0.04635738
86	0x3d018045	0.031616468
87	0xbdaea06b	-0.08526691
88	0x3dc0dd5a	0.094172195
89	0xbd7b14a1	-0.06129897
90	0x3d1c274c	0.038123414
91	0xbce05bf0	-0.02738759
92	0xbd93e7c1	-0.07221938
93	0x3d1a0995	0.037606794
94	0xbcfce344	-0.030870087
95	0x3d58e410	0.052951872
96	0x3ce023d7	0.02736084
97	0xbd139b34	-0.036036685
98	0x3cacd663	0.021098321
99	0x3dbb1895	0.09135548
100	0x3cc2b94a	0.023769993
101	0xbdbad8e5	-0.091234006
102	0xbd97babf	-0.07408666
103	0x3d7d1edf	0.06179702
104	0xbd9e0119	-0.07715053
105	0x3cf15d61	0.029463472
106	0x3d1c6b01	0.038187984
107	0x3da90139	0.08252186
108	0x3dabd6f0	0.083906054
109	0x3d17c52f	0.037053283
110	0x3d7ffdea	0.06249801
111	0x3b61a116	0.003442829
112	0x3bdf092e	0.006806514
113	0x3da0b961	0.07847858
114	0xbd796030	-0.060882747
115	0xbd411ae9	-0.047144804
116	0x3ccec51f	0.025240479
117	0xbdcab1c9	-0.09897191
118	0x3d4dbeb2	0.05023069
119	0x3d9e2a24	0.077228814
120	0xbdb949a5	-0.0904725
121	0xbd92f1bd	-0.07175014
122	0xbd8cfb4c	-0.068838686
123	0x3d000b0e	0.031260543
124	0xbd9dda99	-0.0770771
125	0xbd25cc16	-0.040477835
126	0xbd8a452e	-0.06751476
127	0x3d0aa838	0.033851832
128	0x3b2e1fe9	0.0026569313
129	0x3d0d35cc	0.034475133
130	0xbc0f96da	-0.008763993
131	0x3d4e8195	0.050416548
132	0xbc734b1a	-0.014849449
133	0x3dba102f	0.09085118
134	0xbcd2aeb0	-0.025718063
135	0x3db02208	0.08600241
136	0xbb43846f	-0.0029833575
137	0x3c403d52	0.01173337
138	0xbd357cfe	-0.044308655
139	0xbd9028d2	-0.07039036
140	0xbd77e9b3	-0.060525607
141	0xbda25ecd	-0.07928238
142	0x3d81c666	0.063366696
143	0x3d537c81	0.051632408
144	0xbbfb8d0d	-0.0076767267
145	0x3d528f65	0.051406283
146	0x3d2b65b1	0.041845027
147	0x3db69b99	0.08916397
148	0x3dbc1547	0.09183746
149	0x3dcc5405	0.09976963
150	0xbd354ae3	-0.04426087
151	0x3db4d94c	0.088305086
152	0xbdd8ecbf	-0.10592031
153	0x3dcfa547	0.10138946
154	0xbcb10772	-0.021609996
155	0x3dcc03b9	0.099616475
156	0x3dc19a4c	0.09453258
157	0xbd32e27b	-0.04367302
158	0x3d600c9d	0.05469953
159	0x3bc16332	0.0059017176
160	0x3e159f9c	0.14611667
161	0x3a99cabf	0.0011733397
162	0xbd369f30	-0.044585407
163	0xbc72877b	-0.014802809
164	0x3e085acd	0.13315888
165	0x3d8ae28f	0.06781494
166	0x3d808a88	0.06276423
167	0x3df07cbe	0.11742543
168	0x3c441cfe	0.011969803
169	0x3de7a4dc	0.11310741
170	0x3dbfec75	0.093712725
171	0xbd8b46ad	-0.0680059
172	0x3d0e6175	0.03476091
173	0xbd53cbe6	-0.051708125
174	0xbdf60bfa	-0.12014003
175	0xbe1e7de9	-0.15477718
176	0xbdefe2d1	-0.11713184
177	0xbe02de13	-0.12780027
178	0xbcc0ec29	-0.02355011
179	0xbc2839e1	-0.010267706
180	0x3d1b04d3	0.037846398
181	0x3d5d6ebc	0.054060683
182	0x3e073c88	0.13206685
183	0x3d870d16	0.06594293
184	0x3ddf5c50	0.10906279
185	0x3daa952c	0.083292335
186	0x3e3a2e91	0.18181826
187	0x3e225e0f	0.15856193
188	0xbc808179	-0.015686737
189	0xbc26716f	-0.010158881
190	0xbd256767	-0.040381815
191	0xbbb01c96	-0.0053745015
192	0xbcbd42d0	-0.023103148
193	0xbd57d3f8	-0.052692384
194	0x3df73d7b	0.12072273
195	0x3e03944b	0.12849538
196	0x3e06dddf	0.13170575
197	0x3d3e7243	0.046495687
198	0x3d5892f4	0.05287452
199	0xbdd589a6	-0.10426645
200	0x3caac99c	0.020848088
201	0xbc552a80	-0.013010621
202	0x3cb932c3	0.022607213
203	0xbce679f9	-0.028134333
204	0x3d225bfc	0.039638504
205	0xbd005b28	-0.031336933
206	0xbd3474fe	-0.044056885
207	0xbbaec741	-0.0053338115
208	0xbc7027b1	-0.014657901
209	0xbd821b13	-0.0635282
210	0x3dc6e3ba	0.09711404
211	0x3d8e4ccf	0.06948244
212	0x3d6dedcb	0.058088105
213	0xbd477c29	-0.048702393
214	0x3d8dbc3d	0.06920669
215	0xbda9c13a	-0.08288808
216	0x3d7000cf	0.05859452
217	0xbceb5a26	-0.02872951
218	0xbcdbd598	-0.026835248
219	0xbd83414b	-0.06408938
220	0xbc2afd41	-0.010436357
221	0xbbfc61e3	-0.0077020987
222	0xbc783dd6	-0.015151462
223	0x3d2bc122	0.041932233
224	0xbdd9ac89	-0.106286116
225	0xbd8fbba3	-0.07018211
226	0xbd4939ce	-0.049127392
227	0xbdb9f8f0	-0.09080684
228	0xbd763a08	-0.060113937
229	0x3d8aefc9	0.06784017
230	0x3cce06ff	0.02514982
231	0xbd9338fd	-0.07188604
232	0xbdc9b376	-0.098486826
233	0x3d8900bb	0.066895925
234	0xbe1089af	-0.14115022
235	0x3d093880	0.03350115
236	0x3d466359	0.04843459
237	0xbe0513ec	-0.12995881
238	0xbc872e39	-0.016501533
239	0xbd94f9f9	-0.07274241
240	0xbda6ee67	-0.081509404
241	0xbd0fc40a	-0.035099067
242	0xbe1140fb	-0.14184944
243	0xbd99b32e	-0.07504879
244	0x3d20c82b	0.039253395
245	0xbcbfdc8d	-0.023420596
246	0xbda25b37	-0.07927554
247	0xb90ff8a0	-0.00013730163
248	0x3b8d961f	0.0043208743
249	0x3d2be463	0.041965853
250	0x3d84ed89	0.06490619
251	0xbda7bcce	-0.081903085
252	0xbd9ea57d	-0.07746408
253	0x3d5ca9fb	0.053873044
254	0xbdf3d951	-0.11906684
255	0x3d879974	0.06621066

conv5.bias f4 [16]
0	0xbd26f050	-0.040756524
1	0x3b56457f	0.0032695231
2	0x3d2b324d	0.041796017
3	0xba3c58f2	-0.0007184885
4	0x3e344b92	0.17606953
5	0xbdaa676c	-0.083205074
6	0x3b39ae33	0.002833259
7	0xbcbd654e	-0.023119595
8	0xbd27086c	-0.040779516
9	0xbcf3efbf	-0.029777406
10	0xbd813b56	-0.063101456
11	0xbd09c5af	-0.03363579
12	0x3dae846b	0.085213505
13	0x3d3c3781	0.04595137
14	0x3ddae48e	0.106881246
15	0x3c01e44b	0.007927964

conv6.weight f4 [16, 16, 3, 3]
0	0xbd0214d1	-0.031758133
1	0x3d5fb743	0.05461813
2	0x3d9c38b8	0.07628006
3	0x3d671d05	0.05642416
4	0xbbaa93b5	-0.0052055963
5	0x3d98b237	0.07455867
6	0x3d3fca5f	0.046823855
7	0xbd853fe7	-0.06506329
8	0x3b7f092a	0.0038915374
9	0x3de3ebfc	0.11128995
10	0x3a17afe2	0.00057864015
11	0x3de0b18c	0.109713644
12	0x3df79a6a	0.12089999
13	0x3df8254e	0.1211649
14	0x3e1bbccd	0.1520874
15	0x3e420e75	0.18950827
16	0x3df8c509	0.121469565
17	0x3e804c2f	0.25058123
18	0xbbb9c1ef	-0.0056688706
19	0x3d5ba679	0.053625558
20	0xbd1a6d2e	-0.037701778
21	0x3befdc88	0.0073199905
22	0x3d1c3ab8	0.038141936
23	0x3ddcef97	0.10787886
24	0xbd3629f5	-0.044473607
25	0x3bf38ad9	0.0074323234
26	0xbdd4f5de	-0.10398458
27	0x3b9834a4	0.004644947
28	0x3d74b57b	0.059743386
29	0x3d7a49ac	0.061105415
30	0xbd57a734	-0.05264969
31	0xbc9a36c9	-0.018824952
32	0x3d9b93c8	0.075965464
33	0x3d855857	0.0651099
34	0xbd9bc13b	-0.07605215
35	0xbd6ee0f9	-0.05832002
36	0xbd9be3e0	-0.07611823
37	0x3dc3a722	0.095533624
38	0xbb304c31	-0.0026900882
39	0xbd60ddf1	-0.05489916
40	0xbd90277a	-0.070387796
41	0xbdd682eb	-0.10474189
42	0xbd063436	-0.032764636
43	0xbcb582aa	-0.022157032
44	0xbd9acf21	-0.07559038
45	0xbd9b69ba	-0.07588525
46	0xbddc1853	-0.10746827
47	0x3d949c63	0.07256391
48	0xbdb2b183	-0.08725264
49	0xbc519d1f	-0.012793808
50	0x3dc11001	0.09426881
51	0x3d653e33	0.05596752
52	0xbcf66082	-0.030075315
53	0x3dc396d3	0.09550252
54	0x3c2c7635	0.01052623
55	0xbe07f94b	-0.13278691
56	0x3d88119e	0.06643985
57	0xbd4668db	-0.04843984
58	0x3cd60a1d	0.02612787
59	0x3c7f40ee	0.015579445
60	0x3cb08058	0.021545574
61	0xbd95cd6c	-0.07314572
62	0x3c8350cd	0.01602974
63	0xbd3abe11	-0.045591418
64	0x3e1157f4	0.14193708
65	0x3e87eb9f	0.26546952
66	0x3df85c0e	0.12126933
67	0x3d9e4603	0.077281974
68	0x3e537251	0.20649077
69	0x3dd51a6e	0.10405432
70	0xbce5549d	-0.027994448
71	0x3e8b26b5	0.2717797
72	0xbdaefeee	-0.08544718
73	0x3d9fdac2	0.078053966
74	0xbd9f6fda	-0.07785006
75	0xbd4f11d1	-0.0505541
76	0xbd0da1e9	-0.034578238
77	0xbdb3ff2c	-0.087889045
78	0x3d5e4820	0.054268003
79	0x3dba5014	0.09097305
80	0xbcfbf6f1	-0.0307574
81	0xbb083f10	-0.0020789541
82	0x3d863c9d	0.0655453
83	0x3def9916	0.11699121
84	0x3d623654	0.055227593
85	0xbcb899e6	-0.022534322
86	0xbd3caabf	-0.046061274
87	0x3cd2daf5	0.025739172
88	0xbcf89f41	-0.030349376
89	0x3c083445	0.008313243
90	0x3cd3eea8	0.025870636
91	0xbe047fb1	-0.12939335
92	0x3d872f33	0.066007994
93	0xbdb8be14	-0.090206295
94	0xbdb915e9	-0.09037382
95	0x3d835ce6	0.06414203
96	0xbcf28e04	-0.029608734
97	0xbde978c1	-0.11399985
98	0xbdb295aa	-0.087199524
99	0xbca8755a	-0.02056377
100	0x3d3214ea	0.043476976
101	0xbd238c8c	-0.039928958
102	0x3d233890	0.039848864
103	0xbdd43276	-0.10361187
104	0xbddaf387	-0.106909804
105	0x3d108b49	0.035289083
106	0xbc9a952c	-0.018869959
107	0x3dc32431	0.09528387
108	0x3dc48b0f	0.09596836
109	0x3b946429	0.0045285416
110	0x3dc4b99a	0.09605713
111	0x3bea9f1e	0.0071600815
112	0xbd6690df	-0.056290504
113	0xbd9b437c	-0.07581231
114	0x3b33a6ef	0.0027412733
115	0xbdaa1a24	-0.08305767
116	0xbd1dddc9	-0.03854159
117	0xbd0a3ba5	-0.033748288
118	0x3ddd6282	0.108098045
119	0x3cde97db	0.02717202
120	0x3d96434c	0.073370546
121	0xbbaad1ff	-0.0052130218
122	0xbd81654e	-0.063181505
123	0x3ce27164	0.02764196
124	0x3db4a724	0.08820942
125	0x3e048cf6	0.12944397
126	0xbc8403e5	-0.016115138
127	0xbc32aaa0	-0.010904938
128	0x3db28402	0.08716585
129	0x3de4f5fa	0.11179729
130	0xbcd8e25c	-0.026475124
131	0x3dca5fff	0.09881591
132	0xbcc8f73e	-0.024531957
133	0x3dc95f0a	0.098325804
134	0xbd9113e1	-0.0708387
135	0xbcf892fc	-0.030343525
136	0x3d7dfec2	0.062010534
137	0x3c38bdca	0.011275718
138	0x3c2934a4	0.010327492
139	0xbd8fec45	-0.07027487
140	0xbbf55373	-0.0074867546
141	0x3d325bff	0.043544766
142	0xbd12d22e	-0.035844974
143	0x3d711bab	0.058864277
144	0xbd6bc8ca	-0.057564534
145	0x3c20c6fd	0.0098130675
146	0xbdac8dee	-0.084255084
147	0xbb805b67	-0.003917146
148	0x3d655504	0.05598928
149	0x3db332b9	0.08749909
150	0x3db7c101	0.089723594
151	0x3c7bb720	0.015363485
152	0x3d59b76e	0.053153448
153	0x3dfa4b6c	0.12221417
154	0x3d99504e	0.0748602
155	0x3c8f1d00	0.017469883
156	0x3e0e1e69	0.13878788
157	0x3dddce23	0.10830333
158	0x3db33680	0.087506294
159	0x3db28c79	0.08718199
160	0x3c8268bd	0.015919084
161	0xbdc4bd08	-0.09606367
162	0xbdcb6a50	-0.09932387
163	0x3db7cd69	0.08974726
164	0xbb63931b	-0.0034725133
165	0xbdba8ab4	-0.09108487
166	0x3dcc0659	0.09962148
167	0xbcc4b76d	-0.024013245
168	0xbdcf34a4	-0.10117462
169	0x3c10bd08	0.008834131
170	0xbc038370	-0.008026943
171	0x3d6e9c57	0.058254566
172	0xbd4b8148	-0.04968384
173	0xbdb085d8	-0.08619279
174	0x3d03f3b3	0.03221483
175	0x3d62402e	0.055236988
176	0x3d8ff729	0.07029564
177	0xbde77aa0	-0.11302686
178	0xbc81a2b3	-0.015824651
179	0xbd82b896	-0.06382863
180	0x3c894e43	0.01676095
181	0xbbb3dfbf	-0.005489319
182	0x3d45b1c9	0.048265252
183	0x3d3e7b97	0.046504583
184	0xbd886273	-0.06659403
185	0x3dad87e9	0.084731884
186	0x3de3d34a	0.111242846
187	0x3c4dc20e	0.012558473
188	0xbd90c3d7	-0.070686035
189	0xbd181872	-0.037132688
190	0xbd028d9b	-0.031873327
191	0xbd108f3c	-0.03529285
192	0xbdb77e33	-0.089596175
193	0x3cb648d3	0.022251522
194	0x3ce50497	0.02795629
195	0x3d68c077	0.056824174
196	0x3d00d38d	0.03145175
197	0x3c981b34	0.018567659
198	0x3d185692	0.037191935
199	0xbdc2b572	-0.09507264
200	0xbd6186d4	-0.055060223
201	0xbdbe6ac4	-0.09297708
202	0xbdcb9e35	-0.09942285
203	0x3ca93963	0.020657247
204	0xbdb97573	-0.09055605
205	0x3cc5452e	0.024080839
206	0xbe17be84	-0.1481877
207	0x3e84758f	0.2587094
208	0x3e09a3ab	0.1344134
209	0xbdbba940	-0.09163141
210	0x3e455d8e	0.1927397
211	0xbda6c0be	-0.081422314
212	0xbda9d271	-0.08292092
213	0x3ddb308b	0.10702618
214	0xbe13d778	-0.14437664
215	0xbdc767cc	-0.097365946
216	0x3da7a80e	0.08186351
217	0x3b3de6e8	0.0028976742
218	0xbdb57335	-0.088598646
219	0x3ca975af	0.020685999
220	0xbd9f22e7	-0.07770329
221	0x3d4fbd6a	0.05071775
222	0x3d964454	0.07337251
223	0xbdcf917a	-0.10135169
224	0x3db9d027	0.09072905
225	0xbcd938c8	-0.026516333
226	0xbc3a433a	-0.011368567
227	0x3da9b0b5	0.08285657
228	0xbcd89f5e	-0.02644318
229	0x3cbc111e	0.02295738
230	0x3d59561a	0.05306063
231	0xbd620616	-0.055181585
232	0x3db03ff9	0.08605952
233	0xbde41039	-0.11135907
234	0x3dee3240	0.11630678
235	0x3d334ba1	0.043773297
236	0xbe069fd2	-0.13146904
237	0x3d09778e	0.03356128
238	0x3c676117	0.014122269
239	0x3d2e83d8	0.042606205
240	0x3cf12873	0.029438233
241	0xbd358eae	-0.044325523
242	0xbd833470	-0.06406486
243	0xbd9b90ea	-0.075959995
244	0xbca6fa67	-0.020383073
245	0xbcdb5d72	-0.026777957
246	0xbddd3b09	-0.10802276
247	0x3da4cf38	0.08047336
248	0xbcfcfccb	-0.03088226
249	0x3c85d8f4	0.016338803
250	0xbdb2409d	-0.0870373
251	0x3d08c2ae	0.033388786
252	0xbc6b2b7e	-0.014353631
253	0x3d972a3d	0.07381103
254	0x3d6a09cd	0.057138253
255	0xbd74d05a	-0.059769012

conv6.bias f4 [16]
0	0x3ccd7ce7	0.025083972
1	0xbd82944e	-0.06375943
2	0x3d19aa22	0.037515767
3	0xbe24d546	-0.16096982
4	0x3e5b4286	0.21412095
5	0xbcb47f11	-0.022033246
6	0x3d6e5304	0.05818464
7	0xbd4b2e20	-0.049604535
8	0x3c87400c	0.016510032
9	0x3df3246d	0.11872182
10	0xbd24c633	-0.04022808
11	0xbce58577	-0.028017743
12	0x3d71e89e	0.05905973
13	0xbd6ad849	-0.05733517
14	0x3d7f3236	0.062303744
15	0x3e1e9155	0.15485127
